linear/linear.pth (torch, 126407 bytes, 9 tensors)

weight f4 [100, 1]
0.3821721 0.64169353 0.24193364 0.045924846 0.60020286 0.8451554 0.29325414 0.14429939
-0.45012558 0.15096465 0.7464865 0.7316452 0.39044845 -0.26080456 -0.5330424 0.45811692
-0.11169125 0.00050025596 -0.4852856 0.7990926 -0.3200682 0.7308498 0.7134591 0.8975616
-0.3527792 0.009900593 -0.6435459 0.860676 -0.15248257 -0.35971278 -0.7843838 0.24310206
0.80690616 0.12558593 -0.62728167 0.77074236 0.24484605 0.69778574 0.16187501 0.22259936
-0.34386516 -0.7367009 0.17718948 -0.0392752 0.10651169 -0.2682984 -0.7211189 0.26833534
-0.2178996 0.34474757 0.42580047 -0.10944975 -0.39716148 0.08487987 -0.46465644 0.57364017
-0.73354775 0.108387336 0.3332337 0.8964802 0.02031358 -0.97313786 -0.5557183 0.89136404
-0.36614835 0.8118818 -0.22647163 0.40503252 0.16760859 0.80746526 -0.35798776 -0.22078387
0.45537147 0.11777542 0.92402667 0.8561575 0.6060724 -0.19530407 0.47716013 0.98720706
0.2302724 0.62196714 0.23089623 -0.08230596 -0.7342256 -0.83135146 0.93120456 0.34105355
-0.77636164 0.6979455 -0.8852836 -0.1306861 -0.40216535 -0.26726812 0.9379402 -0.4326617
0.7153021 -0.66449195 -0.838914 0.10530194
00000000: 10ac c33e 0746 243f 74bd 773e b11b 3c3d
00000010: e5a6 193f 1b5c 583f 6825 963e 38c3 133e
00000020: dc76 e6be 7a96 1a3e bd19 3f3f 1a4d 3b3f
00000030: dce8 c73e 2d88 85be 7775 08bf 4d8e ea3e
00000040: 62be e4bd 9c23 033a 5b77 f8be 5591 4c3f
00000050: fbdf a3be f918 3b3f 41a5 363f 99c6 653f
00000060: 7a9f b4be 1936 223c 6dbf 24bf 4355 5c3f
00000070: 6424 1cbe 462c b8be 60cd 48bf bfef 783e
00000080: 6791 4e3f 9999 003e 8895 20bf 5f4f 453f
00000090: ecb8 7a3e 16a2 323f 90c2 253e 16f1 633e
000000a0: 180f b0be 6e98 3cbf 2971 353e 08df 20bd
000000b0: cd22 da3d 685e 89be 409b 38bf 4063 893e
000000c0: 1321 5fbe c182 b03e 8502 da3e 3127 e0bd
000000d0: c058 cbbe 7fd5 ad3d 73e7 edbe 15da 123f
000000e0: c9c9 3bbf 2efa dd3d 9c9d aa3e ba7f 653f
000000f0: aa68 a63c 901f 79bf 8e43 0ebf 6f30 643f
00000100: cc77 bbbe 7cd7 4f3f 2ee8 67be 6c60 cf3e
00000110: 96a1 2b3e 0bb6 4e3f 2c4a b7be 2b15 62be
00000120: 7326 e93e 3d34 f13d 038d 6c3f 232d 5b3f
00000130: 9027 1b3f cafd 47be 554e f43e 9ab9 7c3f
00000140: 87cc 6b3e 3d39 1f3f 1070 6c3e 0790 a8bd
00000150: 35f6 3bbf 73d3 54bf 6c63 6e3f 929e ae3e
00000160: a3bf 46bf 8eac 323f f2a1 62bf 94d2 05be
00000170: 9ee8 cdbe 5ed7 88be d91c 703f d685 ddbe
00000180: 0a1e 373f 251c 2abf 11c3 56bf 8ba8 d73d

bias f4 [100]
-0.19759013 -0.98094124 0.11861388 0.99238163 0.555704 0.6812017 -0.85770965 -0.026896259
0.79227495 0.7187132 -0.9956919 0.09693301 0.6141209 -0.8352831 0.9992858 -0.87317455
0.90845174 -0.9901785 -0.07950535 0.13918094 0.8012782 0.45435882 0.14734475 -0.7909339
-0.30122203 -0.23432143 -0.7122201 -0.23426709 -0.9113493 -0.32259175 0.082683265 0.9726478
-0.13498868 0.2674685 0.87274337 -0.8501503 0.20941548 -0.727759 -0.6388464 0.010930017
0.8961081 0.16844182 0.650572 -0.43074077 0.13436419 0.7618394 0.7179911 0.47689536
0.25430068 -0.5005447 -0.18809202 0.49728906 -0.123759516 -0.7680647 0.95209605 -0.35492367
-0.06333261 0.4988794 -0.89457655 0.3175796 0.7100702 0.9555439 0.000112471 0.38886085
0.859633 0.4227085 -0.7376003 0.008394038 -0.9523845 -0.575747 0.76023793 0.79332966
0.9946409 0.6494568 0.3532552 -0.39396822 -0.6978667 0.6476951 0.7860635 -0.0007407258
0.9999793 0.54102683 0.014102206 0.8760926 -0.991575 -0.6163399 -0.93553615 0.08404138
0.7784658 -0.4586748 -0.2493288 -0.44456545 0.3323727 0.57681084 0.3634768 -0.4392827
-0.92355156 -0.28064606 -0.021376405 0.019412197
00000000: 1155 4abe f71e 7bbf d5eb f23d b90c 7e3f
00000010: 9e42 0e3f 3c63 2e3f dc92 5bbf 8b55 dcbc
00000020: 88d2 4a3f 97fd 373f aae5 7ebf d084 c63d
00000030: 0737 1d3f 1dd5 55bf 32d1 7f3f 5e88 5fbf
00000040: 4b90 683f 577c 7dbf b3d3 a2bd 7385 0e3e
00000050: 9120 4d3f b8a1 e83e 8be1 163e a57a 4abf
00000060: c639 9abe f5f1 6fbe 0e54 36bf b6e3 6fbe
00000070: 304e 69bf bf2a a5be d855 a93d 72ff 783f
00000080: 793a 0abe a2f1 883e 1c6c 5f3f 73a3 59bf
00000090: 0371 563e 6a4e 3abf 708b 23bf d013 333c
000000a0: 5767 653f 037c 2c3e e38b 263f 0e8a dcbe
000000b0: c496 093e e807 433f 44ce 373f a12b f43e
000000c0: b333 823e b323 00bf 329b 40be ac9c fe3e
000000d0: a175 fdbd e39f 44bf 91bc 733f 8eb8 b5be
000000e0: 87b4 81bd 1f6d ff3e f802 65bf cb99 a23e
000000f0: 29c7 353f 869e 743f 69de eb38 c518 c73e
00000100: e910 5c3f 406d d83e 60d3 3cbf 2687 093c
00000110: 78cf 73bf 2864 13bf f49e 423f a717 4b3f
00000120: c9a0 7e3f cd42 263f dedd b43e 34b6 c9be
00000130: 64a7 32bf 59cf 253f 753b 493f 442d 42ba
00000140: a5fe 7f3f bc80 0a3f f00c 673c 9b47 603f
00000150: dcd7 7dbf 74c8 1dbf 4c7f 6fbf e31d ac3d
00000160: 8949 473f 6cd7 eabe 0d50 7fbe 159e e3be
00000170: c12c aa3e e0a9 133f a219 ba3e a9e9 e0be
00000180: e06d 6cbf d7b0 8fbe 921d afbc 5406 9f3c

weight f4 [100, 100]
0.06633558 0.059019327 -0.07242527 -0.09541211 -0.030846715 0.030857395 -0.057166275 0.028455302
-0.0048479023 0.07960924 -0.027958842 0.012766385 -0.06122437 -0.033325292 -0.07105856 -0.093740515
0.012327782 0.046163023 -0.04598464 -0.054398753 0.07049851 -0.026616234 -0.086885065 0.038755704
-0.036030706 0.05031762 -0.041498467 0.07227733 0.05832394 0.04383708 0.053183068 0.016822176
0.06575839 -0.02601074 0.009659664 0.02299994 0.040913276 -0.08367751 -0.08992393 -0.032511853
-0.030228114 0.072235994 -0.002282558 -0.02012527 -0.043775156 -0.08634652 0.016565116 -0.022847462
-0.09033642 -0.016582083 0.014295327 -0.063043624 -0.005911892 -0.02121933 0.013979779 0.018089889
0.040451627 -0.016610544 -0.05218525 -0.013611856 0.07202946 -0.03405538 0.00227255 0.015058869
0.052207284 -0.09410745 -0.019861668 0.08145802 -0.042083636 -0.047255408 0.05070809 0.029181307
-0.0753605 0.066955775 0.0007991755 0.073542334 -0.07834574 -0.032607637 0.06161332 -0.003636806
0.011519426 -0.06382447 -0.015880035 0.048959143 0.005861969 -0.018522346 -0.08239946 -0.020583455
0.024360962 -0.074064225 0.0014844681 0.07529172 0.08304755 -0.083396584 -0.05630038 -0.055752594
-0.054846667 -0.018975299 -0.013342666 -0.071524024 -0.059396993 0.05680667 -0.07782298 0.003952057
-0.019733636 -0.06522397 -0.08989931 0.07173749 -0.015742254 0.051605705 0.04802447 0.064034425
0.0072587305 -0.09532843 -0.018981665 -0.03599484 0.049021766 0.019774897 -0.08256783 -0.05900275
0.06846778 -0.052669756 0.044920534 0.06528158 -0.09809039 -0.07034179 0.09083328 0.04563804
-0.09434717 -0.022664817 -0.01903575 0.042938307 0.0017312701 0.03590652 -0.001958228 -0.084281854
-0.07769236 0.0188951 -0.023856213 -0.08395361 0.024870394 0.03209251 -0.008077156 0.06613386
0.0790141 0.04164473 -0.09481824 -0.04496473 0.04796625 0.060601406 0.040165104 0.018260082
0.009062564 0.0918756 -0.029317802 0.106787376 0.06372616 0.062633865 0.051382124 0.0077394987
0.10081976 0.089903116 0.081148446 0.0032731434 -0.077872716 0.0041441456 0.069724225 0.026222622
-0.06728943 -0.059005953 -0.0950874 -0.02575415 0.009867788 -0.018495578 0.09988564 -0.06847347
-0.07188032 -0.05827088 0.019263046 0.10326452 0.10215845 -0.0020587987 -0.00072891446 0.06530494
0.008896744 0.07197244 0.06478765 0.048569966 -0.09220271 0.10408229 -0.07343378 -0.055139583
-0.08859065 0.033433516 0.06608999 -0.050549418 -0.039480492 0.0834086 -0.06085921 0.07445871
-0.0622168 -0.044846106 0.021141632 -0.032289114 -0.02948426 0.04600988 0.041955657 -0.08629942
-0.05249912 -0.012206389 0.06178543 0.086203955 0.09069474 0.012342496 -0.07426674 0.047227323
0.045027602 0.056837678 -0.077137835 0.053863876 -0.0005051356 0.094484866 0.022740288 0.043236345
-0.080647685 -0.0880621 0.008046573 0.014664891 0.06560767 0.024167946 -0.063638985 0.011364262
0.059262075 0.04658375 -0.032941345 0.038216356 0.07492646 -0.045057986 0.050443906 0.083588086
-0.04855398 0.09602356 -0.014953678 0.050741713 0.0032982463 -0.034187738 -0.08829066 0.06557995
-0.087773666 -0.06513994 -0.070997484 -0.08403635 0.074431606 -0.018060287 0.07450229 0.06447415
00000000: f3da 873d 40be 713d b353 94bd 6d67 c3bd
00000010: 40b2 fcbc a6c8 fc3c 2f27 6abd 181b e93c
00000020: 27db 9ebb 2b0a a33d f109 e5bc 1a2a 513c
00000030: 68c6 7abd 1a80 08bd 2687 91bd 07fb bfbd
00000040: 77fa 493c 7015 3d3d 645a 3cbd 3ad1 5ebd
00000050: 8661 903d 4a0a dabc ccf0 b1bd 4dbe 1e3d
00000060: ef94 13bd d919 4e3d 4cfa 29bd 2306 943d
00000070: 15e5 6e3d 838e 333d 7dd6 593d a9ce 893c
00000080: 56ac 863d 7a14 d5bc 9143 1e3c 5f6a bc3c
00000090: ae94 273d 1d5f abbd 0a2a b8bd 262b 05bd
000000a0: f3a0 f7bc 77f0 933d f896 15bb c0dd a4bc
000000b0: 944d 33bd 72d6 b0bd 91b3 873c 9a2a bbbc
000000c0: 4d02 b9bd 26d7 87bc f236 6a3c 041d 81bd
000000d0: 8bb8 c1bb 29d4 adbc 710b 653c 3f31 943c
000000e0: 9bb0 253d d612 88bc 33c0 55bd 4304 5fbc
000000f0: 2e84 933d a77d 0bbd 10ef 143b 79b9 763c
00000100: 4ed7 553d 68bb c0bd f0b4 a2bc 76d3 a63d
00000110: e45f 2cbd e38e 41bd 49b3 4f3d a30d ef3c
00000120: 9b56 9abd 1c20 893d c37f 513a 5d9d 963d
00000130: bb73 a0bd 968f 05bd 405e 7c3d 7b57 6ebb
00000140: f9bb 3c3c 67b6 82bd d916 82bc 6289 483d
00000150: c315 c03b 2dbc 97bc 0cc1 a8bd a29e a8bc
00000160: a490 c73c fcae 97bd 7c92 c23a 8c32 9a3d
00000170: d514 aa3d d4cb aabd 3a9b 66bd d55c 64bd
00000180: e6a6 60bd 1672 9bbc 339b 5abc 307b 92bd
00000190: 434a 73bd 1cae 683d a861 9fbd 4280 813b
000001a0: 6fa8 a1bc 2594 85bd 211d b8bd 1beb 923d
000001b0: e6f5 80bc 8160 533d 4fb5 443d 7b24 833d
000001c0: a5da ed3b 8d3b c3bd 707f 9bbc 536f 13bd
000001d0: 0ccb 483d f7fe a13c 5319 a9bd deac 71bd
000001e0: d638 8c3d 3ebc 57bd 98fe 373d 59b2 853d
000001f0: 9de3 c8bd 5b0f 90bd cc06 ba3d f4ee 3a3d
00000200: 1739 c1bd 91ab b9bc dcf0 9bbc 14e0 2f3d
00000210: c9eb e23a b712 133d 9d55 00bb f79b acbd
00000220: 2c1d 9fbd e6c9 9a3c 1b6e c3bc dfef abbd
00000230: ffbc cb3c 7073 033d 0c56 04bc 3071 873d
00000240: 25d2 a13d aa93 2a3d 1130 c2bd f02c 38bd
00000250: 4278 443d 2e39 783d 2a84 243d 2b96 953c
00000260: 267b 143c 4629 bc3d e32b f0bc 57b3 da3d
00000270: dc82 823d 2f46 803d 1076 523d 9f9b fd3b
00000280: 977a ce3d 201f b83d 2831 a63d 3c82 563b
00000290: bb7b 9fbd 9dcb 873b 93cb 8e3d d3d0 d63c
000002a0: 0acf 89bd 3ab0 71bd 2fbd c2bd 5efa d2bc
000002b0: 81ac 213c 0a84 97bc d890 cc3d d23b 8cbd
000002c0: fd35 93bd 72ad 6ebd 89cd 9d3c 597c d33d
000002d0: 7338 d13d e9ec 06bb 9f14 3fba 99be 853d
000002e0: a6c3 113c 4966 933d 63af 843d 4df1 463d
000002f0: c6d4 bcbd 1829 d53d 7364 96bd 0bda 61bd
00000300: 046f b5bd 95f1 083d 305a 873d e80c 4fbd
00000310: 4cb6 21bd 21d2 aa3d 8247 79bd cf7d 983d
00000320: 0bd7 7ebd 8db0 37bd 3731 ad3c 9741 04bd
00000330: fa88 f1bc db74 3c3d b2d9 2b3d c0bd b0bd
00000340: 5109 57bd 4efd 47bc b812 7d3d b38b b03d
00000350: 2abe b93d 2e38 4a3c 2919 98bd 7071 413d
00000360: dd6e 383d a0ce 683d 71fa 9dbd 5ea0 5c3d
00000370: 146b 04ba 4881 c13d d749 ba3c 9818 313d
00000380: 9d2a a5bd e759 b4bd c6d5 033c 0345 703c
00000390: 505d 863d dbfb c53c 2855 82bd 2b31 3a3c
000003a0: cabc 723d 9ace 3e3d 81ed 06bd c188 1c3d
000003b0: 0b73 993d b98e 38bd 459e 4e3d 3b30 ab3d
000003c0: 8ae0 46bd 00a8 c43d 4500 75bc 8bd6 4f3d
000003d0: 6427 583b 7108 0cbd bcd1 b4bd c84e 863d
000003e0: aec2 b3bd 1768 85bd 2167 91bd 401b acbd
000003f0: 996f 983d 2bf3 93bc a894 983d 060b 843d

bias f4 [100]
0.07065347 0.012626238 -0.07514971 -0.0940616 0.07435729 0.004266536 0.021680254 -0.069306865
-0.054495 -0.037443638 -0.07794953 -0.050422434 0.03562613 -0.011111675 0.10502288 0.0065646535
-0.067277566 -0.0789482 -0.07240882 -0.0019015265 -0.067267865 -0.089557245 0.05527222 0.09687205
-0.031436875 -0.08026274 -0.09482509 -0.043550037 0.08521404 0.017343843 -0.040497188 -0.09903469
0.0057267696 0.058761045 -0.075724155 -0.092436 -0.07771488 0.07731724 -0.06931212 -0.06847232
-0.07919168 0.097492434 -0.012265385 0.009032864 0.007381558 0.017685337 -0.06100674 -0.006575554
-0.04179885 -0.012162128 -0.026995149 0.052366063 0.014817395 0.03756219 -0.013105763 -0.019473063
0.05535087 -0.0111062685 -0.078296006 -0.023025153 -0.0063250754 0.05152004 -0.0684737 -0.029080516
-0.03076425 -0.07942154 0.01893611 -0.09579422 0.027803432 0.026917769 0.01561514 -0.06826631
-0.02204598 0.005291455 0.045156546 0.010038116 0.04778141 0.023608522 0.06330164 -0.044309445
0.029069267 0.072338514 -0.032928135 0.07969218 -0.008532803 -0.039684813 0.029987922 -0.07518995
0.09701054 0.050211277 -0.010502961 -0.0027867034 0.05824499 -0.02294959 -0.06493883 0.0933388
-0.06328688 0.0070517594 -0.0396115 -0.0100405775
00000000: c4b2 903d 48de 4e3c 17e8 99bd 5ea3 c0bd
00000010: a348 983d 4cce 8b3b ca9a b13c c2f0 8dbd
00000020: 2636 5fbd 805e 19bd 01a4 9fbd c187 4ebd
00000030: b4ec 113d be0d 36bc 3c16 d73d 4e1c d73b
00000040: d2c8 89bd 98af a1bd 134b 94bd a43c f9ba
00000050: bcc3 89bd ca69 b7bd 2065 623d da64 c63d
00000060: f4c3 00bd cb60 a4bd a833 c2bd 8661 32bd
00000070: b384 ae3d ad14 8e3c 61e0 25bd b3d2 cabd
00000080: a0a7 bb3b 6caf 703d 4415 9bbd 164f bdbd
00000090: fb28 9fbd 8058 9e3d 83f3 8dbd 373b 8cbd
000000a0: 3f2f a2bd 1daa c73d c1f4 48bc 94fe 133c
000000b0: ffe0 f13b d7e0 903c 34e2 79bd bf77 d7bb
000000c0: 4535 2bbd aa43 47bc ee24 ddbc cc7d 563d
000000d0: a9c4 723c d0da 193d 8eb9 56bc f985 9fbc
000000e0: 98b7 623d 11f7 35bc a859 a0bd 3f9f bcbc
000000f0: 9442 cfbb ad06 533d f03b 8cbd 433a eebc
00000100: 4f05 fcbc c3a7 a2bd e71f 9b3c c32f c4bd
00000110: 06c4 e33c a782 dc3c a5d6 7f3c 35cf 8bbd
00000120: c599 b4bc f163 ad3b 12f6 383d e976 243c
00000130: 71b6 433d a966 c13c 4aa4 813d d27d 35bd
00000140: ac22 ee3c 3726 943d a7df 06bd a735 a33d
00000150: 2bcd 0bbc 8b8c 22bd 3ba9 f53c 30fd 99bd
00000160: 76ad c63d 57aa 4d3d 9d14 2cbc 20a1 36bb
00000170: 4c92 6e3d c700 bcbc a6fe 84bd 6a28 bf3d
00000180: 8d9c 81bd 7212 e73b ab3f 22bd 3c81 24bc

weight f4 [100, 100]
0.041237183 0.013836957 0.022565017 0.017392274 0.082088664 -0.07367132 -0.051975213 0.07204275
-0.0074308477 -0.010595475 -0.09932397 0.08167744 0.08334486 0.02512602 -0.01332634 -0.09329656
0.036097612 -0.03940659 0.073938504 -0.07634668 -0.03621041 -0.015458495 0.019885942 0.024189137
0.038474504 -0.082839385 -0.05882192 0.04287149 -0.04548454 0.037319664 0.085307896 0.032771137
-0.06191978 0.014734578 0.06567064 -0.015508414 0.07152154 0.019106604 0.06018944 -0.03906114
0.093310624 0.09545689 -0.018687015 0.0032142343 -0.034553494 -0.027838707 -0.079944275 -0.08546782
0.042191077 -0.099892 -0.028824247 0.022781806 0.08165307 0.051582698 0.08109771 0.026676646
0.031730168 0.08960595 0.071164176 -0.02965534 0.08590261 -0.065801434 -0.043067463 -0.002648
-0.028893135 -0.09400619 0.053333256 0.07471545 -0.039855618 0.023243807 0.095718354 0.063908815
0.013976176 -0.074306324 0.029084655 0.08167248 -0.07758908 -0.044450235 0.042139485 -0.060269266
0.019519826 0.092875846 0.07559799 0.043312423 -0.063759774 0.0880554 -0.055049054 -0.034661803
-0.083313 -0.0288115 0.024650317 -0.092895724 -0.079666756 0.010654222 -0.09342748 -0.09206779
-0.030644728 -0.004065251 -0.09225393 0.060250714 0.013347776 0.012849749 0.011010791 0.04409477
0.030222887 0.054727662 0.06238955 0.04135464 -0.035472758 0.032274473 -0.014952561 0.013669896
0.08297677 0.06506309 0.020197323 0.046772353 0.06272749 0.07254111 -0.027538517 0.08251373
0.09356323 0.020176848 -0.0027744917 0.040719163 0.01879367 0.03828716 0.06963154 -0.04672385
0.097842686 -0.02541714 0.043727487 -0.017702522 0.024920661 0.09900592 -0.042769965 0.048015602
-0.026598014 -0.036080435 0.08674338 0.022083312 0.011905858 0.041844103 -0.07661861 0.04468038
0.034862597 -0.052124083 0.07874295 -0.051035237 0.00030121233 -0.08269444 -0.006162819 -0.08676438
-0.079303436 -0.03947596 0.020315912 0.013387661 0.066324756 -0.028529163 0.07857362 0.055205584
0.047187574 -0.06716169 -0.078439415 0.06953785 -0.006402672 0.07880517 -0.0774382 -0.03428105
-0.0648642 -0.02477689 0.031342387 -0.059312016 0.065873325 -0.0997505 -0.038726673 0.08789963
-0.09087642 -0.09687817 -0.04931402 -0.07035113 0.0763702 0.029105239 -0.020806829 -0.010619937
0.0468485 -0.06656486 -0.008901951 0.0070809308 -0.030903123 -0.085890494 -0.075231254 0.07752135
0.067583345 0.05523507 0.06684605 -0.004680733 0.016794778 -0.047348466 0.0015048156 0.0727179
-0.015703628 0.10409452 0.019339073 0.036580414 0.061680622 0.08155791 -0.0022898798 -0.039508715
-0.099248044 0.034324393 -0.0011488391 0.011449498 0.04512295 0.063501894 0.07988006 -0.07493569
0.08008124 0.0912904 0.05995844 -0.026273957 -0.04962269 0.08123275 0.02341955 0.0016176159
-0.09556685 0.01654796 -0.06886148 -0.013115053 -0.066840865 0.047895133 0.07125991 -0.03105842
0.07130802 0.07760261 -0.050874405 -0.063828975 -0.07758125 -0.012076514 0.083862096 0.06516287
0.09807756 0.040224317 0.022422412 0.061819617 -0.060821593 -0.08254823 -0.09597756 -0.095963836
-0.045800906 -0.053061813 0.047700334 -0.077180184 -0.0910016 -0.05540072 -0.06404525 0.084648326
00000000: 52e8 283d 67b4 623c 45da b83c 3e7a 8e3c
00000010: 1a1e a83d fde0 96bd f6e3 54bd 268b 933d
00000020: 787e f3bb a598 2dbc 5e6a cbbd 8046 a73d
00000030: b6b0 aa3d 15d5 cd3c b956 5abc 4412 bfbd
00000040: 17db 133d ce68 21bd 126d 973d a65b 9cbd
00000050: 5e51 14bd a145 7dbc d8e7 a23c 4c28 c63c
00000060: 7197 1d3d b2a7 a9bd 41ef 70bd 049a 2f3d
00000070: ff4d 3abd 81dc 183d e8b5 ae3d 073b 063d
00000080: 989f 7dbd 4d69 713c 547e 863d 0117 7ebc
00000090: e379 923d 7485 9c3c 3489 763d 93fe 1fbd
000000a0: a419 bf3d e77e c33d 8315 99bc e7a5 523b
000000b0: f787 0dbd 000e e4bc d3b9 a3bd c109 afbd
000000c0: 8dd0 2c3d 2d94 ccbd d420 ecbc e9a0 ba3c
000000d0: ba39 a73d 6148 533d 8e16 a63d fb88 da3c
000000e0: 7ef7 013d 5383 b73d 86be 913d c1ef f2bc
000000f0: b5ed af3d e7c2 86bd 8267 30bd 118a 2dbb
00000100: 4cb1 ecbc 5186 c0bd f973 5a3d 6a04 993d
00000110: a53f 23bd cc69 be3c fc07 c43d a0e2 823d
00000120: 55fc 643c ea2d 98bd f142 ee3c e743 a73d
00000130: 06e7 9ebd 7311 36bd 749a 2c3d e8dc 76bd
00000140: 0be8 9f3c b135 be3d 1ed3 9a3d 5e68 313d
00000150: 7c94 82bd 6456 b43d 1e7b 61bd 89f9 0dbd
00000160: 02a0 aabd 1806 ecbc 76ef c93c 1d40 bebd
00000170: 5328 a3bd 0c8f 2e3c e856 bfbd 0a8e bcbd
00000180: a70a fbbc cc35 85bb a1ef bcbd 74c9 763d
00000190: a1b0 5a3c c187 523c 9b66 343c b89c 343d
000001a0: fd95 f73c 1d2a 603d 2f8c 7f3d 7c63 293d
000001b0: e24b 11bd 3d32 043d 96fb 74bc b3f7 5f3c
000001c0: baef a93d cc3f 853d db74 a53c 5e94 3f3d
000001d0: 4577 803d 6f90 943d 7598 e1bc f5fc a83d
000001e0: 149e bf3d eb49 a53c 3fd4 35bb 23c9 263d
000001f0: 2ff5 993c ffd2 1c3d fb9a 8e3d 8261 3fbd
00000200: bf61 c83d 9b37 d0bc 981b 333d e104 91bc
00000210: 6a26 cc3c 9ec3 ca3d 8f2f 2fbd 02ac 443d
00000220: 14e4 d9bc 14c9 13bd 83a6 b13d 10e8 b43c
00000230: ca10 433c b964 2b3d 38ea 9cbd c602 373d
00000240: 15cc 0e3d 1080 55bd fc43 a13d 530a 51bd
00000250: 09ec 9d39 b45b a9bd 79f1 c9bb 86b1 b1bd
00000260: d769 a2bd 8bb1 21bd 8e6d a63c ec57 5b3c
00000270: 46d5 873d feb5 e9bc 35eb a03d 401f 623d
00000280: c247 413d 118c 89bd d8a4 a0bd dc69 8e3d
00000290: 81cd d1bb 9b64 a13d eb97 9ebd 496a 0cbd
000002a0: 86d7 84bd e8f8 cabc e060 003d 28f1 72bd
000002b0: 98e8 863d fd49 ccbd dc9f 1ebd b904 b43d
000002c0: 6b1d babd 1068 c6bd 7ffd 49bd 4114 90bd
000002d0: fb67 9c3d 1c6e ee3c 1573 aabc 3fff 2dbc
000002e0: 36e4 3f3d 2853 88bd 7dd9 11bc 2707 e83b
000002f0: 8c28 fdbc 5be7 afbd d812 9abd 83c3 9e3d
00000300: 2369 8a3d 2b3e 623d 95e6 883d d660 99bb
00000310: 3495 893c 77f0 41bd 3c3d c53a 1fed 943d
00000320: e5a4 80bc 822f d53d fa6c 9e3c 58d5 153d
00000330: d2a4 7c3d d507 a73d cf11 16bb e4d3 21bd
00000340: 8f42 cbbd bc97 0c3d a594 96ba ad96 3b3c
00000350: d8d2 383d 480d 823d 2898 a33d e277 99bd
00000360: a201 a43d 76f6 ba3d fb96 753d 7b3c d7bc
00000370: 2941 4bbd 5b5d a63d 5bda bf3c 2f06 d43a
00000380: 8db8 c3bd 968f 873c 3f07 8dbd 85e0 56bc
00000390: dde3 88bd b02d 443d b7f0 913d 3a6e febc
000003a0: f009 923d 1eee 9e3d ae61 50bd c4b8 82bd
000003b0: ebe2 9ebd 92dc 45bc e4bf ab3d 1c74 853d
000003c0: e3dc c83d 41c2 243d 35af b73c 9136 7d3d
000003d0: 1020 79bd 0c0f a9bd e28f c4bd b088 c4bd
000003e0: bb99 3bbd 5857 59bd 6d61 433d a510 9ebd
000003f0: 0c5f babd deeb 62bd 282a 83bd 1a5c ad3d

bias f4 [100]
0.012783133 -0.018314596 0.06959246 0.03891208 -0.08932201 0.0655492 -0.089318804 0.017576402
-0.061251402 -0.077945024 -0.050085578 0.04968117 -0.094329596 -0.09538863 0.019206973 -0.032273136
0.049329244 -0.045707844 -0.015243917 -0.026604699 -0.067965 -0.059056528 -0.06890575 -0.01841543
0.05122629 0.09058879 -0.003518453 0.05574245 0.07167426 -0.033603564 0.06908061 -0.088478476
-0.02929451 0.05319044 -0.045036424 -0.07487876 -0.08932976 -0.096278526 -0.01026476 -0.02332191
0.09678876 -0.06907846 0.07065301 -0.008567628 -0.022789292 -0.023561344 0.04889234 -0.08912946
0.0012425851 0.09768769 -0.06403916 -0.024171486 -0.042038247 -0.07933659 0.03739814 -0.0024077646
-0.023802888 -0.08710269 0.040313266 0.1027396 -0.08294104 -0.047298428 0.015621838 0.071782105
0.06577703 0.049020667 0.06065892 0.039189078 0.043428298 0.02993751 0.07048812 -0.015768971
0.07208523 -0.03940337 0.07732154 0.08311407 -0.026551265 -0.09994145 0.04880832 -0.07767764
-0.03367979 -0.09670775 -0.08650096 -0.0052625285 -0.06310583 -0.06884788 0.09379724 0.10668179
-0.050568316 0.03579607 -0.09490005 0.0044537415 0.059275024 -0.08135498 -0.08001973 0.009721379
0.0031928043 0.095469385 -0.09559937 -0.025022767
00000000: 5970 513c 7e08 96bc 7e86 8e3d 4662 1f3d
00000010: 75ee b6bd a93e 863d c7ec b6bd 63fc 8f3c
00000020: c0e2 7abd a4a1 9fbd 8926 4dbd 7c7e 4b3d
00000030: e02f c1bd 1d5b c3bd f157 9d3c d630 04bd
00000040: 760d 4a3d 2638 3bbd 9fc1 79bc 19f2 d9bc
00000050: 3c31 8bbd 42e5 71bd 751e 8dbd f5db 96bc
00000060: a9d2 513d 9e86 b93d d995 66bb 3252 643d
00000070: f4c9 923d e4a3 09bd 237a 8d3d 3434 b5bd
00000080: 0afb efbc 38de 593d 1d78 38bd 095a 99bd
00000090: 85f2 b6bd ad2d c5bd 862d 28bc 970d bfbc
000000a0: 2f39 c63d 0279 8dbd 86b2 903d 3d5f 0cbc
000000b0: 9cb0 babc b803 c1bc 5643 483d 8289 b6bd
000000c0: 3dde a23a 7c10 c83d f726 83bd 4803 c6bc
000000d0: 4c30 2cbd 397b a2bd cb2e 193d 96cb 1dbb
000000e0: 46fe c2bc e562 b2bd 861f 253d 2469 d23d
000000f0: fedc a9bd ffbb 41bd bdf2 7f3c 7f02 933d
00000100: 1cb6 863d e5c9 483d 7d75 783d ba84 203d
00000110: dfe1 313d 823f f53c 135c 903d ee2d 81bc
00000120: 6ca1 933d 6e65 21bd c15a 9e3d b637 aa3d
00000130: 0a82 d9bc 1aae ccbd 3ceb 473d 7415 9fbd
00000140: d2f3 09bd b60e c6bd 6a27 b1bd 4a71 acbb
00000150: a13d 81bd 1e00 8dbd c418 c03d fb7b da3d
00000160: b920 4fbd e69e 123d f55a c2bd b1f0 913b
00000170: 5eca 723d 719d a6bd 62e1 a3bd 6b46 1f3c
00000180: 5e3e 513b 7485 c33d 9ac9 c3bd 8cfc ccbc

weight f4 [100, 100]
0.022718374 -0.011643483 0.10275316 -0.052928165 -0.0736556 -0.047873773 0.046217512 0.0349366
-0.067165695 -0.007899638 -0.084199764 -0.06733886 -0.091325164 0.028297521 -0.07139207 0.070434555
0.032779194 0.07755115 0.040636837 0.047682486 -0.07334039 -0.091635816 -0.010220753 0.054671694
0.014138468 -0.0040072408 0.012894327 0.0217984 -0.038403656 0.11382185 -0.044851676 0.06192941
-0.06299963 -0.006318526 0.07491457 0.0413438 0.010286929 -0.05372486 -0.099442 -0.043280117
0.058165107 0.04837134 0.09696397 -0.007391263 0.06695889 -0.043026213 -0.0024925414 -0.021342425
0.03392808 0.09026496 0.09600765 -0.07403844 0.07569281 0.07693312 -0.019995863 0.06565213
-0.06475545 -0.010042482 -0.062439926 0.08130469 -0.08283979 -0.039131906 0.029919058 0.025165586
-0.10059414 0.04101626 0.077093415 0.07733665 -0.09372495 -0.0807515 0.027597642 0.047943246
0.10766069 0.014837217 -0.04822657 0.102772936 -0.10193887 -0.08814112 0.010852745 -0.0837329
-0.056174748 -0.063883126 0.052378416 0.07774931 -0.028485378 -0.066280015 0.056793142 0.09925607
-0.091731876 0.10463118 -0.079496674 -0.053194493 0.011051619 -0.04812975 0.0038688057 0.03241818
-0.022266274 -0.04714301 -0.029813658 -0.014177159 -0.020481408 0.09158901 -0.09313164 0.04260381
0.09766734 -0.059469733 0.07120607 0.018573599 -0.05364306 0.07749233 -0.013971671 -0.08886452
0.048426 -0.017574906 0.107327685 0.047096588 0.104123466 -0.08691669 -0.04926574 0.0076256744
-0.0007095892 0.049114697 -0.0066174306 -0.02404961 0.012599128 0.062863044 0.06713378 0.08271841
-0.03909192 0.083280735 0.10166845 -0.0381396 0.06701586 0.01628606 -0.0819487 0.00923832
0.003040887 -0.06521016 0.013674113 0.072135456 0.055025674 -0.043050244 -0.080015376 0.10151359
0.029179238 -0.019765353 0.03184038 0.06145768 -0.07914042 -0.046165366 0.031145902 0.015344957
-0.027180571 0.05753736 0.04454684 -0.0076625226 -0.0073416415 0.08370951 -0.044165593 -0.0839917
0.029580044 -0.010380668 -0.028122928 0.05614131 -0.096978605 0.002442984 0.00995378 -0.027719889
0.02482153 0.0923622 0.051244386 0.10632199 0.046805065 0.05212574 -0.10155548 0.09049156
-0.065548845 -0.05861461 0.009327787 -0.030830534 -0.020864364 -0.0019121793 0.059132632 0.04679835
-0.08465273 0.0076315757 0.01576511 0.037256166 0.003424431 -0.08501047 0.041947834 0.02907612
-0.06900251 -0.018653162 -0.095204845 -0.08535949 0.013728042 0.06784351 0.018296432 0.0902919
-0.03712833 0.030444007 0.08181173 0.07825541 0.046343032 -0.070963316 0.011357722 0.09445471
-0.015722856 0.008448441 -0.026956322 -0.023050236 0.0141308885 0.031831805 0.036762834 0.098534234
-0.0041951337 0.009108932 0.057638343 -0.051499303 0.051469453 -0.04976554 0.08049687 -0.007348925
-0.07105492 -0.014444536 0.018776128 -0.05456663 0.06646694 0.036150143 0.058610316 -0.038401324
-0.02055662 0.007668686 -0.05075553 0.041851737 0.028574333 -0.088058695 -0.07127165 0.0045513534
0.0007244804 0.043126967 0.07408638 0.0377205 0.044199336 0.094708286 -0.050449774 0.045725618
0.0566372 0.045923796 -0.098980024 0.03082234 -0.024853924 -0.02410872 -0.09148246 -0.08889975
00000000: e21b ba3c 4fc4 3ebc 4070 d23d 34cb 58bd
00000010: bfd8 96bd 4a17 44bd 934e 3d3d ae19 0f3d
00000020: 2b8e 89bd 7c6d 01bc ed70 acbd f5e8 89bd
00000030: b008 bbbd 34d0 e73c 0136 92bd fe3f 903d
00000040: 7a43 063d 23d3 9e3d d072 263d b64e 433d
00000050: 7d33 96bd 8fab bbbd f274 27bc 6def 5f3d
00000060: 08a5 673c 2c4f 83bb ba42 533c 8f92 b23c
00000070: 274d 1dbd 6e1b e93d 64b6 37bd b1a9 7d3d
00000080: f305 81bd a30b cfbb cf6c 993d 1e58 293d
00000090: 828a 283c 990e 5cbd 3fa8 cbbd 7e46 31bd
000000a0: 893e 6e3d 0721 463d 0c95 c63d 6832 f2bb
000000b0: be21 893d 413c 30bd e859 23bb 4fd6 aebc
000000c0: 2cf8 0a3d d6dc b83d a99f c43d 77a1 97bd
000000d0: d504 9b3d 1d8f 9d3d 5dce a3bc a074 863d
000000e0: 819e 84bd 3989 24bc 02c1 7fbd 1383 a63d
000000f0: e8a7 a9bd c748 20bd d018 f53c 0f28 ce3c
00000100: 4d04 cebd aa00 283d 27e3 9d3d ad62 9e3d
00000110: def2 bfbd 0b61 a5bd 7314 e23c 2360 443d
00000120: 357d dc3d cc17 733c 3989 45bd 9e7a d23d
00000130: 54c5 d0bd 5583 b4bd b6cf 313c 287c abbd
00000140: 7e17 66bd 28d5 82bd c08a 563d 083b 9f3d
00000150: 2b5a e9bc d1bd 87bd ed9f 683d c446 cb3d
00000160: ecdd bbbd df48 d63d 27cf a2bd 78e2 59bd
00000170: da11 353c b323 45bd ca8b 7d3b edc8 043d
00000180: c367 b6bc 0719 41bd c63b f4bc 5147 68bc
00000190: a0c8 a7bc 0593 bb3d cdbb bebd 5581 2e3d
000001a0: d005 c83d 8996 73bd 7dd4 913d a927 983c
000001b0: d3b8 5bbd 4cb4 9e3d 70e9 64bc 9afe b5bd
000001c0: 575a 463d 40f9 8fbc 9ece db3d 5ae8 403d
000001d0: af3e d53d 6101 b2bd dfca 49bd cbe0 f93b
000001e0: ba03 3aba 7e2c 493d 08d7 d8bb b003 c5bc
000001f0: 936c 4e3c 57be 803d 6f7d 893d 4568 a93d
00000200: d91e 20bd 178f aa3d 8c37 d03d 4538 1cbd
00000210: 9c3f 893d 586a 853c b8d4 a7bd 535c 173c
00000220: 9e49 473b e88c 85bd 6309 603c c1bb 933d
00000230: 9a62 613d 7455 30bd 1adf a3bd 5be6 cf3d
00000240: 4c09 ef3c f3ea a1bc 0f6b 023d 0cbb 7b3d
00000250: 5f14 a2bd e517 3dbd b125 ff3c 6a69 7b3c
00000260: caa9 debc 4bac 6b3d bf76 363d e615 fbbb
00000270: 2792 f0bb e46f ab3d fbe6 34bd d703 acbd
00000280: d951 f23c ad13 2abc 0e62 e6bc 6ef4 653d
00000290: b89c c6bd 781a 203b 2e15 233c d214 e3bc
000002a0: 8556 cb3c 6528 bd3d a2e5 513d 58bf d93d
000002b0: abb6 3f3d cd81 553d 52fc cfbd a453 b93d
000002c0: 793e 86bd e015 70bd 93d3 183c 5190 fcbc
000002d0: beeb aabc 17a2 faba 0f35 723d a0af 3f3d
000002e0: 695e adbd 4c12 fa3b d525 813c ec99 183d
000002f0: 6b6c 603b f819 aebd 7ed1 2b3d 0b31 ee3c
00000300: 3051 8dbd 84ce 98bc c2fa c2bd f5d0 aebd
00000310: 95eb 603c 8af1 8a3d 66e2 953c f6ea b83d
00000320: e013 18bd b665 f93c e98c a73d 5f44 a03d
00000330: 31d2 3d3d 3755 91bd bd15 3a3c 7971 c13d
00000340: 38cd 80bc 546b 0a3c 81d3 dcbc d9d3 bcbc
00000350: 3e85 673c 1162 023d a094 163d 51cc c93d
00000360: 5577 89bb a13d 153c 2f16 6c3d eff0 52bd
00000370: a2d1 523d f3d6 4bbd 8bdb a43d 40cf f0bb
00000380: 3e85 91bd c6a8 6cbc 65d0 993c 4281 5fbd
00000390: d21f 883d 2c12 143d 5f11 703d b54a 1dbd
000003a0: 5b66 a8bc 9a49 fb3b 08e5 4fbd ba6c 2b3d
000003b0: b814 ea3c 1e58 b4bd dff6 91bd 8523 953b
000003c0: 0eeb 3d3a e7a5 303d 9aba 973d d080 1a3d
000003d0: 5d0a 353d 6bf6 c13d 6ca4 4ebd c94a 3b3d
000003e0: 69fc 673d 971a 3c3d 0ab6 cabd 227f fc3c
000003f0: 759a cbbc a67f c5bc 285b bbbd 1211 b6bd

bias f4 [100]
0.045079663 -0.034039255 -0.04001412 0.0047305203 0.023495484 0.0032587952 -0.066002935 -0.060196646
0.035803735 0.05391561 -0.0033219305 -0.015369109 0.04829318 -0.06538972 -0.05253389 -0.04890154
0.08604728 -0.07296371 0.0837122 0.0419325 -0.04656256 -0.090195775 0.096611045 0.029898968
-0.06907675 -0.09406671 -0.10234867 -0.025612077 0.09734544 0.08293717 0.082730904 -0.04418741
-0.034645174 -0.102438964 0.003903571 -0.08242683 0.086834125 0.043603502 0.08375579 0.063306496
-0.04166035 0.095570855 -0.043940067 0.030661143 -0.08065979 0.05711949 -0.022315063 0.06753012
-0.059026767 0.10292143 0.030125145 -0.0062126447 -0.023542678 0.0221658 0.05818579 -0.073766656
0.076394156 0.06177883 -0.093053296 -0.05221544 0.08721086 0.050931364 -0.016268568 0.055149864
0.029329699 0.04976608 -0.05477744 0.07267663 -0.00232429 0.024454799 -0.06919694 -0.090419576
0.053971156 -0.06934001 0.072853275 -0.03232425 0.018329907 -0.014717445 -0.050042283 0.058883138
-0.010375469 0.02336523 0.102898985 -0.09727053 -0.018898007 0.05350222 -0.022779433 0.05135026
0.020722361 -0.10177675 -0.03833466 -0.0035835067 0.05635805 -0.052096978 0.05929446 -0.08651822
-0.06400829 0.01661518 -0.052274127 0.088458784
00000000: 74a5 383d bf6c 0bbd d9e5 23bd 7b02 9b3b
00000010: 9a79 c03c 8391 553b 8c2c 87bd c290 76bd
00000020: f0a6 123d 9dd6 5c3d bfb4 59bb b7ce 7bbc
00000030: 12cf 453d 0ceb 85bd c72d 57bd fb4c 48bd
00000040: 8e39 b03d ff6d 95bd 4d71 ab3d 6ac1 2b3d
00000050: 62b8 3ebd 90b8 b8bd 03dc c53d aeee f43c
00000060: 1c78 8dbd 0ca6 c0bd 2e9c d1bd 6bd0 d1bc
00000070: 0c5d c73d f7da a93d d26e a93d dcfd 34bd
00000080: 19e8 0dbd 85cb d1bd 0ed3 7f3b 66cf a8bd
00000090: 17d6 b13d 9699 323d 2888 ab3d d6a6 813d
000000a0: 0ba4 2abd a7ba c33d 80fa 33bd 142d fb3c
000000b0: f630 a5bd 20f6 693d 14ce b6bc 3b4d 8a3d
000000c0: 0dc6 71bd 78c8 d23d 02c9 f63c 7193 cbbb
000000d0: 93dc c0bc 0d95 b53c 3954 6e3d f912 97bd
000000e0: 8a74 9c3d cc0b 7d3d ba92 bebd dbdf 55bd
000000f0: 9b9b b23d 689d 503d a945 85bc d3e4 613d
00000100: d644 f03c 84d7 4b3d 4f5e 60bd 7cd7 943d
00000110: 1e53 18bb 6e55 c83c 20b7 8dbd e62d b9bd
00000120: dc10 5d3d 2302 8ebd 1934 953d 6f66 04bd
00000130: 9a28 963c 7021 71bc 23f9 4cbd 722f 713d
00000140: dffd 29bc 7068 bf3c b4bc d23d c635 c7bd
00000150: fecf 9abc 2525 5b3d ef9b babc a654 523d
00000160: f1c1 a93c 5470 d0bd ce04 1dbd 44d9 6abb
00000170: b3d7 663d a463 55bd bfde 723d 7730 b1bd
00000180: c716 83bd 8f1c 883c 651d 56bd e129 b53d

weight f4 [1, 100]
0.16834208 0.10725336 0.05244376 -0.053046454 -0.10227428 0.0983086 -0.05267732 -0.13714762
-0.08742712 -0.009364767 -0.024619324 -0.117741704 0.0065628323 0.013618725 0.14755933 -0.121693425
0.07780251 -0.09682899 -0.08231363 0.07658512 0.038092695 -0.042586457 0.04292358 -0.079523556
-0.027473142 -0.14138722 -0.055340488 -0.05864084 -0.06374082 0.016503878 -0.10731633 -0.05035573
0.09902515 -0.07760283 0.089676395 0.12055028 -0.09102685 -0.13440514 -0.10090676 0.015050904
-0.06317374 0.016689103 -0.00033265108 0.04880787 0.10932773 -0.060181454 -0.049836572 0.055945437
0.024414694 0.110421136 0.043833774 0.13264534 -0.046925675 0.034040324 0.01881251 -0.110517874
-0.02910763 -0.018306326 -0.0053804778 0.032370325 0.15601063 0.13231035 0.0418199 0.10753772
0.0988741 0.05227793 -0.050193604 -0.0076975655 -0.018987954 -0.006737174 -0.021201154 -0.068103805
-0.089178756 -0.061600562 0.077248625 0.0689995 0.17066765 -0.07861134 -0.09890417 0.20309672
-0.12308318 -0.04752128 0.10997225 0.007486472 0.0810646 -0.12691522 -0.036247555 0.0582897
-0.06293019 -0.092463255 0.0016476928 -0.081336 -0.056594584 -0.08773286 0.107321344 -0.0041211913
-0.002687852 -0.025691377 -0.040198956 0.0841803
00000000: de61 2c3e a6a7 db3d 45cf 563d 3d47 59bd
00000010: 2d75 d1bd 0556 c93d 2cc4 57bd 6d70 0cbe
00000020: fd0c b3bd ae6e 19bc 77ae c9bc 9022 f1bd
00000030: 070d d73b 1321 5f3c cb19 173e 673a f9bd
00000040: ec56 9f3d 474e c6bd 0c94 a8bd a9d8 9c3d
00000050: 1607 1c3d 236f 2ebd a3d0 2f3d 3fdd a2bd
00000060: 5b0f e1bc d0c7 10be b5ac 62bd 6131 70bd
00000070: 8c8a 82bd 2433 873c aac8 dbbd cf41 4ebd
00000080: b3cd ca3d 3cee 9ebd 42a8 b73d 11e3 f63d
00000090: 496c babd 80a1 09be 34a8 cebd 1198 763c
000000a0: 3c61 81bd 96b7 883c ac67 aeb9 c3ea 473d
000000b0: 38e7 df3d d480 76bd 6f21 4cbd 0b27 653d
000000c0: 5301 c83c 7a24 e23d 0b8b 333d 2ed4 073e
000000d0: 2335 40bd de6d 0b3d b11c 9a3c 3257 e2bd
000000e0: 2073 eebc 26f7 95bc b84e b0bb bf96 043d
000000f0: 40c1 1f3e 5d7c 073e 584b 2b3d bc3c dc3d
00000100: 817e ca3d 6221 563d cf97 4dbd dc3b fcbb
00000110: a08c 9bbc 83c3 dcbb 0bae adbc 027a 8bbd
00000120: 5aa3 b6bd df50 7cbd 8734 9e3d 9c4f 8d3d
00000130: 80c3 2e3e fbfe a0bd 458e cabd 96f8 4f3e
00000140: 0913 fcbd aca5 42bd 2239 e13d 1451 f53b
00000150: 3205 a63d 10f6 01be 5178 14bd 2ec1 6e3d
00000160: 8be1 80bd 605d bdbd 65f7 d73a 7d93 a6bd
00000170: b9cf 67bd 49ad b3bd 4bcb db3d 0f0b 87bb
00000180: ac26 30bb b976 d2bc a9a7 24bd b966 ac3d
