linear/linear.onnx (onnx, 138210 bytes, 9 tensors)

hidden_layer1.weight f4 [100, 1]
-0.23606105 -0.2043535 0.03381137 0.33283883 0.33710906 -0.3221252 -0.14382203 0.51584435
-0.34396243 0.18431623 -0.2132367 -0.23668326 -0.14539361 -0.189979 0.37139037 -0.022737209
-0.15221988 0.053282123 -0.18490174 0.24802239 0.27992868 0.18733084 0.04549019 -0.28456768
-0.119093284 -0.24834426 -0.2697778 0.23240656 0.60596025 0.021933828 -0.23198445 0.20382059
-0.2042935 0.6574739 -0.15425754 -0.24126758 -0.12766515 0.22199176 0.46564746 0.22342303
-0.16053595 0.24909975 0.1827859 0.05896295 -0.20650022 0.5336546 -0.23143463 0.21545503
-0.35344788 0.46123132 -0.20062739 0.18354239 0.50786984 -0.26551372 0.6078414 -0.12260368
-0.29228193 0.5363573 0.598352 -0.3550335 0.2151674 0.1829816 -0.0011943011 -0.18210381
-0.06059794 -0.23748925 -0.169384 -0.20273599 0.19953388 -0.37220618 -0.292755 0.4633345
0.47612926 0.19220176 0.26285595 0.039580885 -0.26743287 0.26974902 -0.29666692 0.39801982
-0.2918901 0.20407362 -0.2102819 0.049146943 0.21355276 -0.1597583 -0.01630862 0.43651748
0.38224417 0.42026013 0.18537866 -0.18012747 -0.2962812 0.23711386 -0.21137735 -0.21145393
0.048507735 -0.21898884 0.24183111 0.3298284
00000000: fdb9 71be 0b42 51be cb7d 0a3d da69 aa3e
00000010: 8f99 ac3e 98ed a4be 1546 13be 600e 043f
00000020: d81b b0be 65bd 3c3e b95a 5abe 195d 72be
00000030: 10e2 14be db89 42be e126 be3e 6243 babc
00000040: 87df 1bbe 5b3e 5a3d e256 3dbe 95f9 7d3e
00000050: d052 8f3e a8d3 3f3e ec53 3a3d dbb2 91be
00000060: 2ee7 f3bd f54d 7ebe 5120 8abe fcfb 6d3e
00000070: 3620 1b3f 92ae b33c 558d 6dbe 58b6 503e
00000080: 5132 51be 3650 283f b0f5 1dbe d90e 77be
00000090: a7ba 02be cf51 633e 5869 ee3e 02c9 643e
000000a0: 8963 24be 0114 7f3e 3a2c 3b3e 2283 713d
000000b0: cb74 53be 969d 083f 33fd 6cbe 3ea0 5c3e
000000c0: 1ff7 b4be 8326 ec3e 4471 4dbe 89f2 3b3e
000000d0: c203 023f 6af1 87be 7e9b 1b3f a317 fbbd
000000e0: faa5 95be b64e 093f 992d 193f f3c6 b5be
000000f0: d854 5c3e 875f 3b3e 188a 9cba 6c79 3abe
00000100: 8c35 78bd 6230 73be 0073 2dbe 069a 4fbe
00000110: 9c52 4c3e cf91 bebe fce3 95be 2e3a ed3e
00000120: 37c7 f33e 8ad0 443e 0e95 863e 911f 223d
00000130: f6ec 88be 8b1c 8a3e bae4 97be 41c9 cb3e
00000140: 9f72 95be adf8 503e 2354 57be 4e4e 493d
00000150: 93ad 5a3e ae97 23be a899 85bc 387f df3e
00000160: 82b5 c33e 562c d73e e7d3 3d3e 5673 38be
00000170: 2bb2 97be facd 723e 4e73 58be 6187 58be
00000180: 0cb0 463d 9c3e 60be 93a2 773e 45df a83e

hidden_layer1.bias f4 [100]
-0.45843822 -0.21780066 0.1475335 -0.6474931 -1.1749489 -0.50170946 0.19922733 -0.6118148
-1.1878772 0.20327851 -0.0501873 -0.5252414 0.90788734 -0.104427345 0.16888693 0.34845218
0.06908854 0.8489492 0.009064172 0.08893725 -1.032918 -0.37287474 0.8444984 -0.8669409
0.6189913 -0.09067936 -0.67751366 0.98042774 -1.0800512 0.8971732 -0.31370026 -0.42970634
0.45732176 -0.9194745 0.7334529 -0.14739016 0.3502821 -0.9346209 0.7312552 -0.68335533
0.48178843 -1.0453447 -0.10614813 1.0138527 -0.16268729 0.69617873 -0.5324681 0.65787286
-1.4104213 0.48951486 -0.20403227 -0.006025434 0.41156152 -0.78159106 0.8135136 0.4813274
-0.029883213 0.9388518 0.5620688 -1.388047 -0.87089354 0.12973732 -0.20896193 -0.034003902
0.7528576 -0.33976138 -0.021322085 -0.24418232 -0.45998022 -1.4017789 -1.108757 0.75732493
0.6212067 0.29024962 -1.0598876 0.6567616 -0.78093195 -0.80098253 -0.9692158 0.9387174
-0.29317796 -0.052146155 -0.32154784 0.9940909 0.456729 0.77475184 1.0142636 -0.5852682
-1.163 -1.017954 0.12075774 -0.007316084 -0.8829071 -0.77228546 0.64423025 -0.0024653904
0.6998361 -0.31296203 -0.5980978 -0.38054365
00000000: 6ab8 eabe 2307 5fbe 0613 173e 1cc2 25bf
00000010: ba64 96bf 0870 00bf 4002 4c3e e59f 1cbf
00000020: 5c0c 98bf 3e28 503e 3391 4dbd 3876 06bf
00000030: 4e6b 683f 01de d5bd b2f0 2c3e 5368 b23e
00000040: 4b7e 8d3d bc54 593f e581 143c bc24 b63d
00000050: a836 84bf 70e9 bebe 0c31 583f d7ef 5dbf
00000060: 3776 1e3f 1ab6 b9bd 8971 2dbf 50fd 7a3f
00000070: 1e3f 8abf 25ad 653f 529d a0be 7802 dcbe
00000080: 1426 ea3e ae62 6bbf 92c3 3b3f 72ed 16be
00000090: 2d58 b33e 5143 6fbf 8a33 3b3f 60f0 2ebf
000000a0: f9ac f63e dbcd 85bf 3164 d9bd edc5 813f
000000b0: 7f97 26be c538 323f d44f 08bf 5b6a 283f
000000c0: af88 b4bf b1a1 fa3e d6ed 50be 0171 c5bb
000000d0: 31b8 d23e 5a16 48bf 6d42 503f 8c70 f63e
000000e0: a4cd f4bc 9758 703f bee3 0f3f 86ab b1bf
000000f0: e1f2 5ebf dcd9 043e 1efa 55be ad47 0bbd
00000100: 47bb 403f 34f5 adbe a7ab aebc ee0a 7abe
00000110: 8782 ebbe 7e6d b3bf c0eb 8dbf 0ce0 413f
00000120: 6707 1f3f 999b 943e 66aa 87bf 8721 283f
00000130: 28eb 47bf 310d 4dbf 871e 78bf c94f 703f
00000140: 6c1b 96be 3597 55bd eba1 a4be be7c 7e3f
00000150: 62d8 e93e 2356 463f 64d3 813f 23d4 15bf
00000160: 2fdd 94bf 514c 82bf d64f f73d c3bb efbb
00000170: 3306 62bf 80b4 45bf 46ec 243f 6392 21bb
00000180: 7528 333f 8f3c a0be f01c 19bf 9ed6 c2be

hidden_layer2.weight f4 [100, 100]
0.0018622978 0.043620035 -0.035863087 0.03225803 -0.079991296 -0.09972421 0.02084347 -0.08228589
0.040792204 -0.087727845 0.094508775 0.036227968 -0.081588976 -0.036937043 0.06791267 -0.028005183
-0.06774833 -0.055701103 0.014773145 -0.001986379 0.023889113 -0.09771981 -0.06997053 -0.05464533
0.05988616 -0.023226961 -0.036102246 -0.045191586 -0.020843718 0.023955287 -0.099911906 0.08912867
-0.05354634 0.00882939 0.021357497 0.060888883 -0.032368325 0.052049536 -0.039025713 0.06163032
0.027690627 0.0007245977 -0.08305272 0.07560527 -0.040546264 0.021397252 0.02551902 -0.10219986
0.0034772388 0.029286342 0.010164732 0.053670812 0.020706171 0.06315382 -0.008947251 -0.06765432
0.07481048 0.049718764 0.05824418 -0.04741174 0.048294816 0.092242226 0.032447606 -0.03609843
-0.08486243 0.011521972 -0.020190965 -0.059418183 -0.025605096 0.031214625 0.00709253 -0.023709396
-0.06633373 0.0086538 0.050580896 0.044851735 0.029585557 -0.078571014 0.06344448 0.02641745
0.099263124 0.077701524 -0.041727267 -0.06060581 0.064880945 0.06434712 -0.09671672 -0.088837504
0.035425335 0.004968647 -0.052990954 0.08064205 0.032541603 0.012852477 -0.054455515 -0.09958175
0.045588654 -0.04403224 -0.016069116 -0.07543308 0.08919728 -0.06410798 -0.027680475 0.050380737
0.0029265005 -0.0049857795 0.063918196 0.036209427 0.022205837 0.1021694 -0.03218 0.08597456
-0.08717675 -0.058202226 -0.08805174 0.0138287125 -0.028362643 0.042290192 -0.043528616 0.014175428
-0.026142696 -0.0524495 -0.0898382 0.0902294 0.038734674 0.07305222 0.0003966419 0.0058062472
-0.043499775 -0.026997348 -0.013908529 0.04137638 -0.073882125 0.05949192 0.061917588 0.043846466
0.009276351 -0.06745786 0.07440929 0.115890324 -0.084072754 0.06294767 0.06157057 -0.12555328
0.057712715 0.039888024 0.0066406126 0.04301773 -0.10240292 -0.0910944 -0.04878683 0.0323433
0.07361223 -0.004648182 -0.05919838 -0.058818676 -0.01693395 0.093024105 0.03648397 0.013750857
0.046711255 -0.057174 -0.036550663 -0.04658467 0.060187645 0.0909632 0.055134214 -0.020584889
0.06348217 -0.11279881 -0.008615906 0.003867377 -0.022762652 -0.056308802 0.05367135 -0.104367666
-0.10001702 0.07438783 -0.031417195 0.00065000664 -0.10256309 0.11399367 -0.04597185 -0.09191245
0.028184304 0.006828769 0.0008988261 0.0014613708 0.05392225 0.11544989 0.06953705 0.059202693
-0.00942044 0.018382436 -0.07973299 -0.097273834 -0.057485186 -0.018136788 0.055805933 -0.035262704
0.015709218 0.08409581 -0.048390232 0.0605255 0.09975786 -0.006934956 -0.02650912 0.08014451
0.03688251 0.011471703 0.07353999 0.00015898263 0.06563096 0.07615066 0.009839823 0.042751983
0.020632727 0.02412921 -0.071583405 -0.036819335 0.0124325855 0.12561952 -0.0245544 0.08893505
-0.066333696 0.09437939 -0.08236897 0.06538712 -0.010832014 -0.111098185 0.04755167 -0.055469807
0.02787705 0.11651994 0.074072205 -0.058464892 0.0643028 -0.051393148 0.055414595 0.07275831
-0.07228242 0.042301115 0.027263973 -0.112214565 0.038521737 -0.008023207 0.00015675493 0.050155435
-0.02310984 -0.06648602 -0.005745167 0.097016096 -0.0059950864 -0.010611663 0.06625345 0.100540005
00000000: 5818 f43a ecaa 323d 2ce5 12bd ff20 043d
00000010: 7ad2 a3bd 353c ccbd edbf aa3c 8185 a8bd
00000020: ba15 273d a8aa b3bd d18d c13d c763 143d
00000030: 1f18 a7bd 4c4b 17bd cc15 8b3d 206b e5bc
00000040: a3bf 8abd d726 64bd 100b 723c e92d 02bb
00000050: 1ab3 c33c 5321 c8bd b64c 8fbd c8d3 5fbd
00000060: 314b 753d 7846 bebc f3df 13bd d01a 39bd
00000070: 72c0 aabc e13d c43c 9d9e ccbd 1889 b63d
00000080: 6853 5bbd 25a9 103c ebf5 ae3c 9f66 793d
00000090: a694 04bd e531 553d 6dd9 1fbd 1370 7c3d
000000a0: 74d7 e23c eef2 3d3a 8b17 aabd f0d6 9a3d
000000b0: d713 26bd 4a49 af3c 440d d13c 294e d1bd
000000c0: 63e2 633b e9e9 ef3c fa89 263c edd5 5b3d
000000d0: fd9f a93c ca56 813d 7e97 12bc 598e 8abd
000000e0: 3d36 993d e7a5 4b3d 7391 6e3d d032 42bd
000000f0: c9d0 453d 7ee9 bc3d c8e7 043d f3db 13bd
00000100: 5bcc adbd a7c6 3c3c 8667 a5bc 7b60 73bd
00000110: c7c1 d1bc d0b5 ff3c 7468 e83b 353a c2bc
00000120: fbd9 87bd abc8 0d3c ea2d 4f3d 74b6 373d
00000130: 695d f23c d7e9 a0bd 2eef 813d 6869 d83c
00000140: 774a cb3d fa21 9f3d 36ea 2abd cc3d 78bd
00000150: 4de0 843d 6cc8 833d 6a13 c6bd 70f0 b5bd
00000160: 281a 113d 08d0 a23b 0b0d 59bd a927 a53d
00000170: 584a 053d 3293 523c bf0c 5fbd 84f1 cbbd
00000180: 2bbb 3a3d 265b 34bd 61a3 83bc a97c 9abd
00000190: 10ad b63d 0b4b 83bd 2ac2 e2bc 085c 4e3d
000001a0: 88ca 3f3b c05f a3bb 8be7 823d 5650 143d
000001b0: 04e9 b53c 313e d13d 2dcf 03bd 6e13 b03d
000001c0: b989 b2bd 7565 6ebd 7854 b4bd d391 623c
000001d0: c658 e8bc 7b38 2d3d 104b 32bd 0e40 683c
000001e0: 3529 d6bc 49d5 56bd 17fd b7bd 31ca b83d
000001f0: 40a8 1e3d 679c 953d 60f4 cf39 5542 be3b
00000200: d22c 32bd 8b29 ddbc 99e0 63bc 477a 293d
00000210: 834f 97bd cdad 733d 4c9d 7d3d 5a98 333d
00000220: d6fb 173c 5927 8abd e663 983d e857 ed3d
00000230: 562e acbd b5ea 803d 6c31 7c3d 0a91 00be
00000240: 2b64 6c3d a061 233d 7f99 d93b 5c33 303d
00000250: 9fb8 d1bd b38f babd b3d4 47bd 687a 043d
00000260: 02c2 963d c74f 98bb 007a 72bd daeb 70bd
00000270: 11b9 8abc 6c83 be3d 3770 153d 464b 613c
00000280: 4d54 3f3d 492f 6abd 26b6 15bd 91cf 3ebd
00000290: 5287 763d ea4a ba3d 6ad4 613d a4a1 a8bc
000002a0: f102 823d 1003 e7bd bb29 0dbc d273 7d3b
000002b0: be78 babc 0fa4 66bd 7dd6 5b3d b7be d5bd
000002c0: b9d5 ccbd a658 983d 51af 00bd 3565 2a3a
000002d0: 990c d2bd 8375 e93d fb4c 3cbd 983c bcbd
000002e0: c5e2 e63c dec3 df3b 339f 6b3a 788b bf3a
000002f0: 94dd 5c3d fe70 ec3d 7169 8e3d 867e 723d
00000300: 3058 1abc c396 963c 0d4b a3bd 8137 c7bd
00000310: 9675 6bbd 9a93 94bc c394 643d a06f 10bd
00000320: 9eb0 803c 6d3a ac3d d634 46bd 96e9 773d
00000330: d94d cc3d a13e e3bb a729 d9bc ce22 a43d
00000340: 1d12 173d cff3 3b3c 229c 963d 93b4 2639
00000350: 8669 863d e1f4 9b3d 3537 213c b41c 2f3d
00000360: f705 a93c 9faa c53c 529a 92bd dfcf 16bd
00000370: 0bb2 4b3c 67a2 003e 4f26 c9bc 9423 b63d
00000380: f6d9 87bd fb49 c13d 10b1 a8bd afe9 853d
00000390: c278 31bc 7287 e3bd 8ac5 423d 4f34 63bd
000003a0: 695e e43c 02a2 ee3d 2bb3 973d e278 6fbd
000003b0: 30b1 833d 9f81 52bd 6afa 623d 4f02 953d
000003c0: ce08 94bd ef43 2d3d b258 df3c c0d0 e5bd
000003d0: f8c8 1d3d c573 03bc 955e 2439 c96f 4d3d
000003e0: d950 bdbc d329 88bd f441 bcbb 60b0 c63d
000003f0: 6e72 c4bb 8adc 2dbc e4af 873d ebe7 cd3d

hidden_layer2.bias f4 [100]
0.030651141 -0.05272229 -0.016536115 -0.015193951 0.052852005 0.01901171 -0.11650554 -0.16091786
-0.25731346 -0.022332814 0.063101135 -0.07840424 -0.078326516 0.05466286 -0.2031437 -0.045954715
0.014147941 -0.042080853 -0.18766679 0.07025901 -0.10708744 -0.016781077 0.093595706 -0.06979342
-0.013781789 -0.11032376 -0.02720804 -0.16209702 -0.03982179 0.022577692 -0.18623488 0.19858983
0.06581589 0.09663297 0.06409606 -0.04737054 -0.10388847 -0.17766811 -0.08324166 -0.26013243
0.080280006 0.09795533 0.04747508 0.081968784 0.039229505 -0.09564211 -0.15479183 -0.060953457
0.073412515 -0.19437581 0.021287533 -0.029783763 -0.028557248 -0.35067713 -0.11202131 -0.06280476
0.02867555 0.06190794 -0.08357719 0.0009719263 -0.0977467 -0.10159784 -0.11854031 0.048839092
-0.06716265 0.09735922 -0.108358264 0.044188663 -0.24211907 0.043723658 -0.061173912 -0.008692393
0.0036981883 -0.24432965 -0.07476061 0.07072559 0.107593425 -0.06853593 -0.050096087 -0.076203674
0.09035033 0.064738944 -0.054821454 -0.12787153 0.050326455 0.025089333 -0.049929716 -0.2771819
0.044069406 0.07669274 -0.15378636 0.02903072 -0.009786083 -0.05815098 0.04989647 0.09664243
-0.11993784 -0.07236426 -0.1424276 -0.24525447
00000000: 1a18 fb3c 54f3 57bd bf76 87bc 0df0 78bc
00000010: 587b 583d 72be 9b3c 759a eebd a7c7 24be
00000020: 97be 83be 4ef3 b6bc 2b3b 813d 6792 a0bd
00000030: a769 a0bd 2ae6 5f3d e704 50be 033b 3cbd
00000040: c4cc 673c f95c 2cbd b92b 40be f5e3 8f3d
00000050: a950 dbbd 7878 89bc 1baf bf3d daef 8ebd
00000060: 03cd 61bc 6cf1 e1bd 65e3 debc c3fc 25be
00000070: 2c1c 23bd daf4 b83c 5bb4 3ebe 225b 4b3e
00000080: 7bca 863d 82e7 c53d cc44 833d 9d07 42bd
00000090: 7ac3 d4bd a1ee 35be 9a7a aabd 1430 85be
000000a0: d869 a43d ce9c c83d 3b75 423d 40df a73d
000000b0: 1eaf 203d 03e0 c3bd c081 1ebe 55aa 79bd
000000c0: 4d59 963d 740a 47be 3163 ae3c 14fd f3bc
000000d0: e4f0 e9bc f48b b3be 6e6b e5bd c89f 80bd
000000e0: fde8 ea3c 2e93 7d3d 852a abbd dfc8 7e3a
000000f0: 6c2f c8bd 8712 d0bd 43c5 f2bd 800b 483d
00000100: 928c 89bd 4564 c73d f0ea ddbd 2cff 343d
00000110: 10ee 77be 9417 333d 7f91 7abd 8a6a 0ebc
00000120: 4e5d 723b 8d31 7abe 171c 99bd 94d8 903d
00000130: f159 dc3d 915c 8cbd 8e31 4dbd ac10 9cbd
00000140: 9809 b93d da95 843d 768c 60bd c1f0 02be
00000150: 1d23 4e3d 2588 cd3c 1a83 4cbd c9ea 8dbe
00000160: 1f82 343d 1511 9d3d 2c7a 1dbe d5d1 ed3c
00000170: cf55 20bc b92f 6ebd 3e60 4c3d 77ec c53d
00000180: f8a1 f5bd b733 94bd 8ad8 11be fd23 7bbe

hidden_layer3.weight f4 [100, 100]
0.03168407 -0.06925508 0.08651226 -0.06946986 -0.0940517 0.042654335 -0.029754452 0.021922722
0.05551408 0.019473327 -0.09034008 -0.07976755 0.040670928 -0.093000785 -0.00904783 -0.090001464
-0.06228636 0.040321913 -0.0594378 -0.08326133 -0.018001383 -0.09807142 -0.019031009 0.011121493
0.0820446 0.009970397 -0.033254623 0.028174115 0.0016203863 0.09384897 0.016025484 -0.07823033
-0.075595565 0.056734085 0.06517949 0.012248413 0.004061836 0.005079395 0.09772005 0.07260824
-0.032104198 -0.087552875 -0.08756948 -0.047049966 0.017944193 -0.032742646 0.08845571 -0.06885192
-0.06480476 0.07926844 0.05810524 -0.09723898 -0.087092526 -0.016652346 -0.090812586 0.056967467
0.035845872 0.097907 -0.07156069 -0.014737027 0.06953416 0.0757096 -0.043610137 -0.046560656
0.06232498 0.07528387 -0.07199989 0.06010098 -0.08760804 0.09730084 0.012305427 -0.0006682586
-0.10030134 -0.063198924 0.049487043 0.0064124414 0.031038277 -0.027788123 -0.09725586 -0.09942587
-0.012581664 -0.0353008 0.05350182 0.053469528 0.09744147 -0.012893919 -0.06332102 0.08963734
-0.04918251 -0.013384765 0.015931161 0.0716383 -0.07947162 0.013990794 -0.043740332 0.09841934
0.03134566 0.037531916 0.08373449 -0.014872136 0.030525494 0.04316236 0.04118165 0.07838316
0.029477127 -0.10123079 0.032546174 0.05972891 -0.10696142 -0.027637405 0.051510625 -0.09738095
-0.04737788 0.07203143 0.053589214 -0.029938633 0.023983508 0.09407067 -0.023855565 -0.006239522
0.019348226 0.07867219 -0.046515718 0.048877887 0.07752653 -0.08123245 0.007277483 -0.094462775
-0.087295674 -0.082437165 -0.05104726 0.0072325794 0.080867656 -0.038611617 0.092213646 0.0021934395
-0.027270412 -0.04062104 0.04495468 -0.07707594 0.0037942773 0.047989 -0.0034192225 0.087416
0.09833706 0.007820645 -0.09486004 -0.008360941 -0.074576914 -0.030828107 -0.069103 0.08978452
0.04557099 -0.068947904 0.0014797619 -0.022627044 0.04824894 -0.08104987 0.03284448 -0.088728055
0.045926787 0.04047072 0.068759836 -0.015298813 0.08454175 -0.030202959 0.01014068 0.08831107
0.040040664 -0.090751246 0.017234702 0.0062848185 -0.009639063 -0.034069568 -0.05952468 0.063882194
-0.082107894 0.031504128 -0.0009388923 -0.047489543 0.08616018 -0.02973942 0.03083555 -0.016526435
-0.074720874 -0.04267056 -0.047606666 -0.024182148 0.05430666 -0.099277474 0.055285826 0.028031163
0.03247844 0.054128606 -0.041908458 -0.07928576 0.028359696 -0.012789614 -0.046718556 -0.09838446
-0.082452744 0.0028579659 -0.033252466 0.04517292 0.028668588 -0.07086888 0.010042976 -0.000560724
-0.041484725 0.016758002 0.0313798 0.08916673 0.09246941 0.073879436 0.068023615 0.059269637
-0.09315098 -0.056631386 -0.081058525 -0.044600427 0.06561396 -0.064656995 0.060460422 -0.082169205
0.07760822 0.017177189 -0.03990152 -0.05766287 0.053679418 -0.055393808 0.054217648 0.059634484
0.07078474 0.06699964 -0.070866406 -0.037113354 -0.02073043 0.022338577 -0.04562942 -0.08483347
0.034592513 0.011438088 0.018071273 0.08724635 0.06990973 -0.035984237 0.09679956 0.016909864
0.08524738 -0.07820633 -0.058556344 0.08337306 -0.03695824 0.012631362 -0.085059315 0.09546995
00000000: 28c7 013d 9bd5 8dbd 572d b13d 3746 8ebd
00000010: 2d9e c0bd 50b6 2e3d 9cbf f3bc 4897 b33c
00000020: bb62 633d 8786 9f3c 3804 b9bd 2b5d a3bd
00000030: 8f96 263d 3277 bebd 593d 14bc b052 b8bd
00000040: fb1f 7fbd 9728 253d 0d75 73bd eb84 aabd
00000050: a377 93bc abd9 c8bd ebe6 9bbc ec36 363c
00000060: 0007 a83d e05a 233c 0036 08bd 67cd e63c
00000070: 2463 d43a e433 c03d e047 833c 3937 a0bd
00000080: d9d1 9abd 0062 683d d37c 853d 91ad 483c
00000090: 2619 853b 0e71 a63b 7321 c83d a1b3 943d
000000a0: b17f 03bd ec4e b3bd a157 b3bd 77b7 40bd
000000b0: b3ff 923c 271d 06bd 4428 b53d 3c02 8dbd
000000c0: 5cb8 84bd 7e57 a23d c3ff 6d3d 3b25 c7bd
000000d0: 915d b2bd 806a 88bc f3fb b9bd b856 693d
000000e0: 1fd3 123d 7783 c83d 698e 92bd 9273 71bc
000000f0: ed67 8e3d a20d 9b3d 8ba0 32bd 63b6 3ebd
00000100: 7a48 7f3d 6e2e 9a3d ae74 93bd 722c 763d
00000110: d86b b3bd aa45 c73d b49c 493c 132e 2fba
00000120: ca6a cdbd 706e 81bd edb2 4a3d 751f d23b
00000130: fc43 fe3c eba3 e3bc 152e c7bd ca9f cbbd
00000140: 5323 4ebc 9297 10bd b924 5b3d dd02 5b3d
00000150: 658f c73d 0441 53bc 73ae 81bd c893 b73d
00000160: 9973 49bd c64b 5bbc 1182 823c 1ab7 923d
00000170: 04c2 a2bd a539 653c 1029 33bd 1490 c93d
00000180: 4f64 003d 11bb 193d fd7c ab3d 42aa 73bc
00000190: 9a10 fa3c 04cb 303d 17ae 283d 5a87 a03d
000001a0: 047a f13c 1752 cfbd 234f 053d 4da6 743d
000001b0: 970e dbbd d767 e2bc cefc 523d aa6f c7bd
000001c0: 4f0f 42bd 3785 933d 5d80 5b3d dd41 f5bc
000001d0: 1079 c43c 20a8 c03d bf6c c3bc e774 ccbb
000001e0: 2c80 9e3c e31e a13d 4487 3ebd 2e34 483d
000001f0: 3bc6 9e3d 335d a6bd f477 ee3b b375 c1bd
00000200: 13c8 b2bd d1d4 a8bd ef16 51bd 46ff ec3b
00000210: f19d a53d 3727 1ebd 82da bc3d cfbf 0f3b
00000220: 3366 dfbc 3f62 26bd 6622 383d fed9 9dbd
00000230: 69a9 783b 1d90 443d 0915 60bb 2907 b33d
00000240: f164 c93d 2a22 003c fb45 c2bd 54fc 08bc
00000250: c8bb 98bd 3a8b fcbc e085 8dbd f2e0 b73d
00000260: a5a8 3a3d 8f34 8dbd 92f4 c13a 5a5c b9bc
00000270: aea0 453d 79fd a5bd ef87 063d 0eb7 b5bd
00000280: ba1d 3c3d a0c4 253d f5d1 8c3d dfa7 7abc
00000290: 3a24 ad3d 326c f7bc 1825 263c 6fdc b43d
000002a0: ae01 243d cadb b9bd ca2f 8d3c e1f0 cd3b
000002b0: 29ed 1dbc 888c 0bbd 27d0 73bd abd4 823d
000002c0: 2f28 a8bd 790a 013d ff1f 76ba 6584 42bd
000002d0: c074 b03d 16a0 f3bc d69a fc3c 7262 87bc
000002e0: 4207 99bd 53c7 2ebd 35ff 42bd a419 c6bc
000002f0: a970 5e3d fd51 cbbd 6473 623d 9ca1 e53c
00000300: 1d08 053d f5b5 5d3d 34a8 2bbd 9360 a2bd
00000310: 9852 e83c 878b 51bc f55b 3fbd cb7d c9bd
00000320: fcdc a8bd b64c 3b3b bd33 08bd 3d07 393d
00000330: 63da ea3c b423 91bd 4b8b 243c 8dfd 12ba
00000340: e3eb 29bd 1448 893c 1b88 003d 0c9d b63d
00000350: 9a60 bd3d 1a4e 973d f74f 8b3d b8c4 723d
00000360: f1c5 bebd 50f6 67bd 0302 a6bd f0ae 36bd
00000370: 9d60 863d e36a 84bd 59a5 773d 5448 a8bd
00000380: 0ff1 9e3d 2db7 8c3c c76f 23bd e72f 6cbd
00000390: f3de 5b3d 9ee4 62bd 5313 5e3d 4a43 743d
000003a0: 97f7 903d 1b37 893d 6822 91bd 2c04 18bd
000003b0: ddd2 a9bc 64ff b63c eae5 3abd 2cbd adbd
000003c0: e1b0 0d3d d166 3b3c 350a 943c 37ae b23d
000003d0: d52c 8f3d 3564 13bd d93e c63d 8e86 8a3c
000003e0: 2e96 ae3d a42a a0bd c7d8 6fbd 7fbf aa3d
000003f0: 8661 17bd c6f3 4e3c 9433 aebd c085 c33d

hidden_layer3.bias f4 [100]
0.093908176 0.08415023 0.045453947 -0.09344441 -0.08337721 -0.07753825 0.03144568 -0.040790252
-0.0020273356 -0.054918867 -0.008330003 -0.029533258 0.012143077 -0.048265684 -0.022531072 0.08590296
-0.10470714 0.049696762 0.05114869 -0.025226004 -0.026480788 -0.064218126 0.08757625 -0.051633913
0.058905996 -0.04265351 0.061039623 0.029767308 -0.058372695 -0.014442748 -0.012887244 0.028655577
0.1305021 0.08556052 0.08609586 0.1237486 0.018439887 -0.0556737 0.024793085 -0.07315777
-0.10530613 0.032387946 -0.040557317 -0.0057585468 0.14166695 -0.010974026 -0.10469775 -0.03028013
-0.0146469 0.07644776 -0.07957288 0.04729049 0.07485737 0.0387139 -0.0852103 -0.14188597
-0.07564251 0.014931205 0.015008112 0.12305171 0.10744643 -0.057282995 -0.022584086 0.06932331
0.08908379 -0.10315058 -0.04655386 -0.061628085 0.08514586 -0.023363968 -0.06905833 -0.019002365
0.12199143 0.0009209093 -0.057384543 0.048225693 -0.08451933 0.13834366 -0.013677881 -0.05573686
-0.06980587 -0.023871498 0.06423351 0.02186894 -0.09577232 -0.09993381 0.06615971 -0.08222526
-0.07322423 0.014786603 0.032479808 0.085807696 -0.062487923 -0.040009942 -0.097774066 0.059180483
0.07764537 -0.003438235 0.020370213 -0.034475617
00000000: ee52 c03d f556 ac3d eb2d 3a3d c85f bfbd
00000010: acc1 aabd 60cc 9ebd 2fcd 003d ae13 27bd
00000020: 0cdd 04bb 9bf2 60bd 917a 08bc bbef f1bc
00000030: c2f3 463c 3db2 45bd 1593 b8bc e4ed af3d
00000040: b270 d6bd d58e 4b3d 4a81 513d c4a6 cebc
00000050: 3dee d8bc cb84 83bd 2d5b b33d 157e 53bd
00000060: 6a47 713d 72b5 2ebd af04 7a3d 92da f33c
00000070: 3518 6fbd 47a1 6cbc 0525 53bc 1abf ea3c
00000080: 58a2 053e 5b3a af3d 0753 b03d e86f fd3d
00000090: 3f0f 973c 1b0a 64bd de1a cb3c bed3 95bd
000000a0: beaa d7bd 39a9 043d 6e1f 26bd 31b2 bcbb
000000b0: 2411 113e 67cc 33bc c66b d6bd 090e f8bc
000000c0: 8df9 6fbc a590 9c3d 1bf7 a2bd acb3 413d
000000d0: d24e 993d 7792 1e3d bd82 aebd 8e4a 11be
000000e0: 76ea 9abd 03a2 743c 96e4 753c 8902 fc3d
000000f0: e00c dc3d 93a1 6abd 4302 b9bc 61f9 8d3d
00000100: 9071 b63d 9c40 d3bd 43af 3ebd bb6d 7cbd
00000110: f460 ae3d cb65 bfbc 746e 8dbd d9aa 9bbc
00000120: a5d6 f93d 2d69 713a 0e0c 6bbd 4e88 453d
00000130: 7818 adbd f6a9 0d3e 3119 60bc 554c 64bd
00000140: 61f6 8ebd 298e c3bc dc8c 833d 7e26 b33c
00000150: 4724 c4bd 19aa ccbd be7e 873d b865 a8bd
00000160: 96f6 95bd 8243 723c 8c09 053d f2bb af3d
00000170: 56f3 7fbd 77e1 23bd c53d c8bd 3c67 723d
00000180: 8904 9f3d 0354 61bb 6fdf a63c 4e36 0dbd

hidden_layer4.weight f4 [100, 100]
-0.03018909 0.08103824 0.0046136524 -0.008616097 -0.036906864 0.03793298 0.10065878 0.07737427
0.024682993 0.023606319 0.013075285 0.030128438 0.0939643 0.0041061575 -0.09481527 -0.04729816
-0.08140347 0.06293989 0.0038154759 -0.025654642 0.037542406 0.005858857 0.029663216 -0.06562524
-0.03943721 0.081347875 0.0201473 0.00073236786 0.023834199 0.015456004 0.060974073 0.01799189
-0.010166161 0.08500538 0.0647186 -0.0630226 0.05854577 -0.054299694 0.00036451328 -0.03900616
-0.09006627 0.02920992 0.06954925 0.053749036 -0.009371885 0.034848157 0.03826536 -0.060080186
-0.010783997 0.02564941 0.043306656 0.0051112697 0.09172087 0.02659569 0.068402156 0.07296442
-0.06268543 -0.055125333 0.010417055 -0.032565635 -0.039034642 -0.010974244 -0.04868813 -0.06840212
0.00064093736 -0.030706704 0.08862068 0.053092852 0.04017888 0.09465254 0.007319688 0.067787126
0.08453601 -0.088639595 -0.07498475 0.060216196 0.06637338 -0.0067901486 0.0274592 0.031223333
-0.01002793 0.07903812 -0.062094398 -0.037678946 0.056795422 -0.076257735 -0.07234588 -0.01532263
-0.00906629 -0.06312167 -0.07701701 -0.019748313 0.020751856 -0.050059356 -0.07453772 -0.056094564
0.012707286 0.026845688 0.06381052 0.08780907 0.09407172 -0.06394575 0.042397816 0.02559843
0.093961544 -0.06194151 0.098714806 0.0028274464 0.038980786 0.03676195 0.077153966 0.021145135
0.09399744 0.07667577 0.0726251 -0.04913277 -0.09144218 -0.047717836 0.08102465 0.079444736
-0.06039598 0.08329172 0.029221127 0.04700688 -0.0017825895 -0.087837376 0.0083652465 -0.011112714
0.079958275 0.07104318 0.012629134 -0.060182445 -0.048892535 -0.03544714 -0.092099324 -0.011801207
-0.07114529 -0.09635502 0.0064643635 0.023402842 -0.04495771 0.0038196114 -0.058548067 -0.05137728
-0.078685716 0.00075954234 -0.092034884 0.092313275 -0.072967656 0.015022183 -0.08945452 -0.022627706
-0.012590725 -0.07427919 -0.054484744 0.0051349616 -0.03902674 -0.011423774 -0.06594173 0.08620661
-0.049606677 -0.073869884 -0.04115375 0.06072272 0.038643014 0.10034076 0.005538634 0.046641912
0.0066857003 -0.0061077243 0.06927476 -0.086915225 -0.03644856 -0.07588563 -0.013963187 -0.065965235
-0.09903923 -0.063189276 0.07810615 0.056264687 0.071559176 0.018666241 0.03760689 -0.0008546407
-0.059655722 0.07150401 0.003939192 0.09077254 -0.04126438 -0.092421055 -0.031090494 -0.016949559
0.017569562 -0.01366254 0.09118555 0.055063035 -0.04445698 0.07155356 0.025665047 -0.02654496
0.04238243 0.013416747 0.09169231 0.038880903 0.063080445 0.086952865 -0.071264714 -0.0819795
-0.011884206 -0.093373545 -0.02353068 0.003476159 0.059835646 0.044310126 -0.006530787 0.028177021
0.018577714 0.046482284 -0.021249216 0.09317482 0.035190158 -0.08072862 0.08434417 0.06684414
0.035504617 0.039340165 -0.091975965 0.032788463 0.0857116 0.057562396 0.021258358 -0.06215317
-0.07181184 0.066132866 0.068287395 -0.043437995 -0.070754655 -0.048503656 0.06584147 0.037293877
0.012651405 -0.0583974 0.0065736063 0.05356295 -0.06056809 0.07731695 -0.08131428 0.10008552
-0.011161536 -0.05075806 0.009973246 -0.027739689 -0.052420415 -0.052693985 0.01105817 0.052893955
00000000: 1c4f f7bc 60f7 a53d 1f2e 973b 882a 0dbc
00000010: a72b 17bd 9d5f 1b3d 3126 ce3d 6776 9e3d
00000020: fd33 ca3c 0a62 c13c b839 563c eacf f63c
00000030: 5b70 c03d f28c 863b 822e c2bd b7bb 41bd
00000040: ddb6 a6bd a1e6 803d 100d 7a3b af29 d2bc
00000050: 11c6 193d a8fb bf3b 4600 f33c 8766 86bd
00000060: e988 21bd b799 a63d f30b a53c 60fc 3f3a
00000070: f03f c33c 2e3b 7d3c f3bf 793d ba63 933c
00000080: f88f 26bc 4d17 ae3d 2f8b 843d fe11 81bd
00000090: b0cd 6f3d 5b69 5ebd 251c bf39 ecc4 1fbd
000000a0: aa74 b8bd a449 ef3c d66f 8e3d f327 5c3d
000000b0: 898c 19bc f1bc 0e3d 23bc 1c3d a416 76bd
000000c0: 5daf 30bc b61e d23c 5262 313d 707c a73b
000000d0: 27d8 bb3d 34df d93c 6e16 8c3d 5f6e 953d
000000e0: 3861 80bd 1acb 61bd 4cac 2a3c 8b63 05bd
000000f0: cae2 1fbd 51cd 33bc 346d 47bd 6916 8cbd
00000100: 9404 283a a08c fbbc c27e b53d e477 593d
00000110: 9c92 243d 31d9 c13d fed9 ef3b fad3 8a3d
00000120: 3721 ad3d ad88 b5bd 9b91 99bd 42a5 763d
00000130: c4ee 873d e57f debb 1ef2 e03c 13c8 ff3c
00000140: 304c 24bc bdde a13d b256 7ebd 3d55 1abd
00000150: 51a2 683d 042d 9cbd 142a 94bd c50b 7bbc
00000160: c78a 14bc ef45 81bd 18bb 9dbd 37c7 a1bc
00000170: ccff a93c 0a0b 4dbd 3ba7 98bd 6ac3 65bd
00000180: 3832 503c 7deb db3c 17af 823d 3ed5 b33d
00000190: ada8 c03d fdf5 82bd 55a9 2d3d ccb3 d13c
000001a0: e96e c03d 61b6 7dbd fd2a ca3d ae4c 393b
000001b0: 51aa 1f3d b393 163d e602 9e3d 9038 ad3c
000001c0: bb81 c03d 3008 9d3d 78bc 943d 723f 49bd
000001d0: 0a46 bbbd c773 43bd 40f0 a53d ecb3 a23d
000001e0: c661 77bd d994 aa3d 2561 ef3c 498a 403d
000001f0: c7a5 e9ba 15e4 b3bd 630e 093c 1a12 36bc
00000200: 2ac1 a33d 167f 913d 6dea 4e3c de81 76bd
00000210: 8a43 48bd 0531 11bd 929e bcbd da59 41bc
00000220: 9fb4 91bd c855 c5bd 03d3 d33b 51b7 bf3c
00000230: 9325 38bd 7252 7a3b 19d0 6fbd fc70 52bd
00000240: fa25 a1bd 061c 473a c97c bcbd be0e bd3d
00000250: 1170 95bd 9a1f 763c ee33 b7bd bd5d b9bc
00000260: 5449 4ebc b01f 98bd 652b 5fbd 2e43 a83b
00000270: 81da 1fbd c82a 3bbc 750c 87bd 178d b03d
00000280: 5f30 4bbd 1849 97bd d690 28bd 63b8 783d
00000290: 2348 1e3d 757f cd3d 6e7d b53b 970b 3f3d
000002a0: b813 db3b 4e23 c8bb eddf 8d3d 9c00 b2bd
000002b0: 164b 15bd ed69 9bbd dac5 64bc c818 87bd
000002c0: 14d5 cabd 6169 81bd 1ef6 9f3d cd75 663d
000002d0: 9e8d 923d f2e9 983c af09 1a3d f709 60ba
000002e0: 8f59 74bd b270 923d 5614 813b f4e6 b93d
000002f0: d704 29bd 4047 bdbd 7eb1 febc cdd9 8abc
00000300: 0bee 8f3c d9d8 5fbc 7dbf ba3d c789 613d
00000310: 8618 36bd ac8a 923d 813f d23c d174 d9bc
00000320: 3399 2d3d ead1 5b3c 2ec9 bb3d 9541 1f3d
00000330: 5230 813d 5814 b23d 3cf3 91bd dee4 a7bd
00000340: f9b5 42bc a13a bfbd 6ac3 c0bc 45d0 633b
00000350: 3916 753d 897e 353d 3600 d6bb 7fd3 e63c
00000360: 4a30 983c 3564 3e3d d612 aebc 71d2 be3d
00000370: 8e23 103d 0c55 a5bd a3bc ac3d 95e5 883d
00000380: 4a6d 113d 2723 213d e55d bcbd 324d 063d
00000390: 9089 af3d 8cc6 6b3d 0226 ae3c 5394 7ebd
000003a0: 1612 93bd ab70 873d 43da 8b3d 0aec 31bd
000003b0: d1e7 90bd c5ab 46bd e5d7 863d 77c1 183d
000003c0: d747 4f3c 1d32 6fbd 6867 d73b d364 5b3d
000003d0: 3f16 78bd 5958 9e3d 1a88 a6bd a3f9 cc3d
000003e0: e0de 36bc afe7 4fbd d366 233c 583e e3bc
000003f0: cab6 56bd a6d5 57bd 542d 353c 55a7 583d

hidden_layer4.bias f4 [100]
-0.04745415 -0.033892363 -0.029888526 0.04187357 0.040551446 -0.014133511 0.10320895 -0.025385177
0.015375962 0.2147902 -0.06087817 -0.08494615 -0.03197057 -0.032567654 0.01770233 -0.02800958
-0.06627812 -0.050603487 -0.08165948 -0.041814514 0.020236777 0.06292592 0.062934555 -0.051398717
0.06657758 0.0784678 -0.029530741 -0.06051517 -0.053934537 0.17857416 -0.045558203 0.04318467
-0.093802966 -0.08394697 0.13271779 0.07415261 0.02687662 0.10012328 0.034787256 0.06391081
0.110871375 -0.10791734 0.043107316 -0.04801196 0.03347099 0.16696182 -0.029934667 0.07952364
-0.07936683 -0.06199298 -0.03086409 -0.039602533 0.1101934 -0.010892432 -0.06402525 -0.063507795
-0.106949255 -0.058391552 0.046103604 0.053558387 -0.0058319755 0.022596743 -0.05210697 -0.04007731
0.06940238 -0.077203035 0.021965617 0.0431312 0.090340674 0.051181726 0.054821443 -0.04570153
0.036819283 0.00737053 0.06634557 0.06121982 -0.0311295 -0.08154987 0.01778821 -0.028935656
0.12568417 0.03584716 -0.06519812 0.14848155 -0.083898075 -0.020681597 -0.011840534 -0.032912817
0.10192767 -0.033037663 0.06630067 0.0885066 -0.062335975 0.0205994 0.047907103 -0.09522332
-0.04114306 -0.02043233 0.10677121 0.019324167
00000000: 485f 42bd b8d2 0abd c8d8 f4bc 9f83 2b3d
00000010: 4619 263d 3e90 67bc 375f d33d 93f4 cfbc
00000020: 75eb 7b3c f6f1 5b3e 635b 79bd 3ff8 adbd
00000030: 93f3 02bd a965 05bd 7a04 913c 5974 e5bc
00000040: d3bc 87bd 9a45 4fbd 163d a7bd b245 2bbd
00000050: 99c7 a53c 4edf 803d d5e3 803d 7687 52bd
00000060: d459 883d bab3 a03d 74ea f1bc c1de 77bd
00000070: 76ea 5cbd 25dc 363e 3d9b 3abd 69e2 303d
00000080: c51b c0bd 64ec abbd 2ce7 073e 53dd 973d
00000090: 5b2c dc3c 6f0d cd3d 157d 0e3d ace3 823d
000000a0: 8810 e33d c403 ddbd 4c91 303d 30a8 44bd
000000b0: e018 093d 0af8 2a3e 8c39 f5bc 4add a23d
000000c0: 148b a2bd 5aec 7dbd b0d6 fcbc 4436 22bd
000000d0: 14ad e13d 2c76 32bc ac1f 83bd 6010 82bd
000000e0: 3608 dbbd fb2b 6fbd 22d7 3c3d 0a60 5b3d
000000f0: 281a bfbb ce1c b93c 1e6e 55bd 1b28 24bd
00000100: d622 8e3d a01c 9ebd 3df1 b33c 57aa 303d
00000110: 8804 b93d eea3 513d 738c 603d 8731 3bbd
00000120: d1cf 163d 7d84 f13b 30e0 873d a2c1 7a3d
00000130: 4b03 ffbc 9e03 a7bd 95b8 913c 780a edbc
00000140: 5ab3 003e 79d4 123d 9886 85bd 8c0b 183e
00000150: c1d2 abbd 746c a9bc cdfe 41bc 97cf 06bd
00000160: 74bf d03d 8052 07bd a5c8 873d f342 b53d
00000170: 0254 7fbd 13c0 a83c 3d3a 443d 7204 c3bd
00000180: a085 28bd b461 a7bc ddaa da3d b74d 9e3c

output_layer.weight f4 [1, 100]
0.05788241 -0.10862258 -0.099436596 -0.03914099 0.005624576 -0.059827283 0.55488104 0.094547614
0.28218913 0.714218 0.2775642 -0.14049803 0.02389353 0.08480926 0.020103272 -0.08611118
-0.032235537 0.074286625 -0.0947123 0.051534113 0.027697451 -0.053454757 0.14899863 -0.09881489
0.30703378 -0.07096304 -0.0045049367 0.1476483 0.33941555 0.6975118 -0.10474401 -0.07632542
-0.110426925 0.18306132 0.33801797 0.11403383 0.3398258 0.07457088 0.0009144606 0.031610332
0.16077334 -0.13483746 0.006754567 -0.06500803 -0.12876803 0.57560486 -0.017856836 -0.07182531
-0.09363032 -0.1029718 0.07486912 -0.038694374 0.63470143 0.003181512 0.0018534475 0.059286077
-0.12313146 -0.054416034 0.04001526 0.4613914 -0.07696358 -0.03272262 0.076505445 0.043642204
0.022353064 -0.087501146 0.13642015 -0.087863885 0.011725725 0.112617895 -0.04808363 -0.09430621
0.08277307 0.0535941 -0.061107483 -0.06862908 0.275257 0.0042804843 0.13111457 0.15306114
0.3764951 0.092593744 0.09664181 0.6021103 -0.06511336 -0.055499554 -0.10261361 0.37869167
0.0780793 0.062871866 0.13484389 -0.03844564 -0.07781903 -0.033250257 0.09998254 -0.07521202
-0.022945836 0.24699928 0.076903716 0.111447185
00000000: 1b16 6d3d 8475 debd 6aa5 cbbd 4d52 20bd
00000010: 5d4e b83b 740d 75bd af0c 0e3f 2ea2 c13d
00000020: 187b 903e fed6 363f e51c 8e3e b7de 0fbe
00000030: 5dbc c33c 7ab0 ad3d 9eaf a43c 0f5b b0bd
00000040: 6909 04bd 9623 983d 86f8 c1bd 6f15 533d
00000050: c4e5 e23c 60f3 5abd 1993 183e 765f cabd
00000060: 8833 9d3e 1255 91bd 269e 93bb 1e31 173e
00000070: e0c7 ad3e 2290 323f 0784 d6bd 8050 9cbd
00000080: 8327 e2bd 6d74 3b3e b110 ad3e 928a e93d
00000090: a6fd ad3e 9eb8 983d 69b8 6f3a d679 013d
000000a0: c4a1 243e d512 0abe 6a55 dd3b ee22 85bd
000000b0: c4db 03be d75a 133f 8048 92bc 2619 93bd
000000c0: 41c1 bfbd e1e2 d2bd fb54 993d fe7d 1ebd
000000d0: cb7b 223f ea80 503b 61ef f23a f5d5 723d
000000e0: 592c fcbd 59e3 5ebd 0be7 233d 7e3b ec3e
000000f0: 159f 9dbd 2708 06bd e3ae 9c3d 2bc2 323d
00000100: c61d b73c cd33 b3bd b9b1 0b3e fbf1 b3bd
00000110: 411d 403c 36a4 e63d 57f3 44bd 9d23 c1bd
00000120: ed84 a93d 7d85 5b3d d74b 7abd 678d 8cbd
00000130: 7cee 8c3e 4e43 8c3b e642 063e 0fbc 1c3e
00000140: f7c3 c03e caa1 bd3d 24ec c53d e723 1a3f
00000150: 275a 85bd 8053 63bd 1627 d2bd e0e3 c13e
00000160: 0ae8 9f3d f7c2 803d 8414 0a3e 2d79 1dbd
00000170: 955f 9fbd 6c31 08bd a5c3 cc3d c208 9abd
00000180: e8f8 bbbc 61ed 7c3e b27f 9d3d 6c3e e43d
