MultipleClassifier-Iris/iris.pth (torch, 16391 bytes, 10 tensors)

hidden_layer1.weight f4 [8, 4]
0	0xbe359503	-0.17732625
1	0xbdf8c148	-0.121462405
2	0x3ea51dc4	0.32249272
3	0xbdae1f68	-0.08502084
4	0x3da273b6	0.07932226
5	0xbeff2863	-0.498355
6	0x3f193d80	0.59859467
7	0x3f128aae	0.5724286
8	0xbe94b49f	-0.29044053
9	0xbe6a9dea	-0.22911802
10	0xbed1edba	-0.41001683
11	0xbeb821de	-0.3596334
12	0x3c935a12	0.017987285
13	0xbe9f7c7a	-0.31149656
14	0xbe96fb04	-0.29488385
15	0x3e2a7895	0.16647561
16	0x3e72e0ce	0.23718569
17	0xbe952557	-0.2913005
18	0xbc329960	-0.010900825
19	0x3fccc554	1.599772
20	0x3f1e5e92	0.6186305
21	0x3f031394	0.5120175
22	0xbf5aa5d5	-0.8540929
23	0xbe80aba3	-0.25130948
24	0x3eae34cc	0.34024656
25	0x3f1b1103	0.6057283
26	0x3ee2f842	0.4433003
27	0xbf83eb1d	-1.0306126
28	0xbebcc54d	-0.3686928
29	0xbf08e512	-0.53474534
30	0x3f59e2e7	0.8511185
31	0x3feb5a60	1.8386955

hidden_layer1.bias f4 [8]
0	0xbe48f853	-0.19625978
1	0x3e771fbe	0.24133202
2	0x3eec7df9	0.4618986
3	0xbed47265	-0.41493526
4	0xbf691610	-0.9104929
5	0x3ee3e4d5	0.44510522
6	0x3f350e64	0.70725083
7	0xbfa615cb	-1.2975401

hidden_layer2.weight f4 [15, 8]
0	0x3df710d9	0.1206376
1	0x3d85e21a	0.06537266
2	0x3e387b0a	0.18015686
3	0x3eac581d	0.33660975
4	0x3e397ba9	0.18113579
5	0xbec7a154	-0.3899027
6	0x3dd57e56	0.10424487
7	0x3edbc67a	0.42924863
8	0x3eaf6c2b	0.34262213
9	0xbcbc74bf	-0.023004888
10	0x3e545d0d	0.20738621
11	0xbeac4b10	-0.33651018
12	0xbe120586	-0.1425992
13	0xbdc10222	-0.09424235
14	0xbe41e2b1	-0.18934132
15	0xbdc81b57	-0.0977084
16	0xbea4470a	-0.32085449
17	0x3eacdba8	0.33761334
18	0x3e9c89f6	0.30574006
19	0x3e794e28	0.2434622
20	0x3f0a9291	0.5412989
21	0xbe9989d7	-0.29987976
22	0x3ce2c5ea	0.027682263
23	0xbe88eead	-0.26744595
24	0xbdebe20d	-0.11517725
25	0xbcb3129a	-0.021859456
26	0x3e826cb5	0.25473562
27	0x3d7fe15f	0.06247079
28	0xbd1ea673	-0.038732957
29	0x3d12eb3a	0.03586886
30	0xbe9f80ba	-0.31152898
31	0xbe0b372f	-0.1359527
32	0x3e7d570c	0.24740237
33	0xbeee06a8	-0.46489453
34	0x3b6b439e	0.0035898457
35	0x3e99acb0	0.30014563
36	0xbe8a2c49	-0.26986912
37	0x3e7fa8f4	0.24966794
38	0x3d53238e	0.05154758
39	0x3da735e8	0.08164579
40	0xbe73a607	-0.23793803
41	0x3e1839fc	0.1486587
42	0xbd3fe0ff	-0.046845432
43	0x3ec2550d	0.37955514
44	0x3f9f4a24	1.2444501
45	0xbb75d837	-0.0037512907
46	0xbf6abe54	-0.9169667
47	0x3f8a7f62	1.0820124
48	0x3dde3634	0.10850182
49	0x3eda8726	0.42681235
50	0xbdb9c902	-0.09071542
51	0xbe622877	-0.22085749
52	0x3ed5e3d5	0.41775385
53	0xbe44ef95	-0.19232018
54	0xbe4d8e2e	-0.20073768
55	0x3f1c3d58	0.61031103
56	0x3e18f9af	0.14938997
57	0xbef8fc37	-0.48629925
58	0xbe840517	-0.25785133
59	0x3d920e72	0.071316615
60	0xbeb2429b	-0.3481644
61	0x3f006b2b	0.50163525
62	0x3e940a3d	0.2891406
63	0x3e4c18f1	0.1993139
64	0xbe2fb314	-0.17158157
65	0x3e80c690	0.2515149
66	0xbe26ba91	-0.16282107
67	0x3de6bdb4	0.11266652
68	0x3e73fb67	0.23826371
69	0xbf0954de	-0.5364512
70	0xbe93edbf	-0.28892323
71	0x3f91ec41	1.1400224
72	0x3e40ac6f	0.18815778
73	0x3c122f02	0.00892234
74	0x3e3621f1	0.17786385
75	0xbda97a18	-0.08275241
76	0xbcfedfc8	-0.031112567
77	0xbe9e01a7	-0.30860636
78	0xbe90c786	-0.28277224
79	0x3d659f1c	0.05605994
80	0xbe48023f	-0.19532107
81	0xbdb4e5d2	-0.08832897
82	0xbc107a6e	-0.008818252
83	0xbdd18667	-0.10230713
84	0xbe5ec283	-0.21753888
85	0xbe72773b	-0.23678295
86	0xbe6c7c5a	-0.23094311
87	0x3ea69188	0.32532907
88	0xbea0df5e	-0.31420416
89	0x3ea4f4a6	0.32217902
90	0xbe59a4a7	-0.21254216
91	0xbea178e5	-0.31537548
92	0x3f43b24a	0.7644392
93	0xbd0f3614	-0.034963682
94	0xbc5f3096	-0.013622424
95	0x3eb20d57	0.34775802
96	0x3e82e14a	0.25562507
97	0x3e1cfc29	0.15330566
98	0x3e1ec164	0.1550346
99	0xbed361bf	-0.41285512
100	0xbecc2412	-0.3987127
101	0x3e90ed1b	0.28305897
102	0x3f162b0f	0.5865945
103	0xbf197742	-0.599476
104	0xbea4875a	-0.32134515
105	0xbded80f1	-0.11596859
106	0x3e903efb	0.2817305
107	0xbdb30dbb	-0.08742853
108	0x3cfb027e	0.030640837
109	0x3de51f9e	0.11187671
110	0x3daf0952	0.085466996
111	0x3dd84dac	0.1056169
112	0xbe5cf814	-0.2157901
113	0x3ebe1dbe	0.37132066
114	0xbeacd8cf	-0.33759162
115	0xbca6a2a4	-0.020341225
116	0xbdfbb16a	-0.122896984
117	0xbf1c5e8b	-0.6108176
118	0x3ebb0717	0.36528847
119	0xbdcc8da2	-0.09987952

hidden_layer2.bias f4 [15]
0	0xbcc4b696	-0.024012845
1	0x3dd23dfd	0.102657296
2	0x3e81a55c	0.25321472
3	0x3db92d31	0.09041823
4	0xbe9674fe	-0.29386133
5	0x3d4481fc	0.047975525
6	0xbde5ce4d	-0.112209894
7	0x3e00dc10	0.12583947
8	0xbe73b8d5	-0.23800977
9	0xbe4d486e	-0.20047161
10	0xbea8c198	-0.329602
11	0xbe416a5e	-0.18888232
12	0x3e00c824	0.12576348
13	0xbc8cbd14	-0.017180003
14	0x3e3459d8	0.17612398

hidden_layer3.weight f4 [100, 15]
0	0x3e5ee022	0.21765187
1	0x3e485e9b	0.19567339
2	0xbe1f0364	-0.15528637
3	0x3e5e3680	0.21700478
4	0xbe098323	-0.13428931
5	0xbdcb0f48	-0.09915024
6	0x3e857cf9	0.2607191
7	0x3d31b370	0.043384016
8	0x3e87d4aa	0.26529437
9	0x3d75ade1	0.059980277
10	0xbe3fd824	-0.18734795
11	0xbde93386	-0.113867804
12	0x3e4121a2	0.18860486
13	0xbe177238	-0.14789665
14	0x3e07c96e	0.13260433
15	0x3e1684fd	0.14699169
16	0x3dd47ccb	0.10375365
17	0x3d927d80	0.071528435
18	0xbe5bb52e	-0.21455833
19	0xbe80a70e	-0.25127453
20	0xbe8f8373	-0.28029975
21	0xbe8b2f54	-0.27184546
22	0x3e613162	0.21991494
23	0x3e115d7e	0.1419582
24	0x3e1ba752	0.15200546
25	0x3e8073c3	0.2508832
26	0x3e6f2018	0.23352087
27	0xbdd973c2	-0.10617782
28	0x3e24ad93	0.16081838
29	0xbe62e0d9	-0.22156085
30	0x3b86ea2e	0.004117272
31	0x3d7f320a	0.06230358
32	0xbdf52a2a	-0.11970933
33	0x3e2cc398	0.16871488
34	0x3e16a69f	0.14711998
35	0xbc8173a6	-0.015802216
36	0xbe35620d	-0.17713185
37	0x3e2ff248	0.17182267
38	0xbe51e036	-0.20495686
39	0xbe36e5f2	-0.17861155
40	0xbdf2ce9d	-0.118558146
41	0x3b86ec01	0.0041174893
42	0xbe70bea5	-0.23510225
43	0xbe631d7d	-0.22179218
44	0xbe6d3d66	-0.23167953
45	0xbe70519e	-0.23468634
46	0x3e56c839	0.20974816
47	0xbe28c6ab	-0.16482036
48	0xbe259e97	-0.16173778
49	0xbe707137	-0.23480688
50	0x3b7be166	0.0038433908
51	0xbddc5f0b	-0.107603155
52	0xbe44eadd	-0.19230218
53	0xbe851e5a	-0.2599972
54	0x3dd1165a	0.10209341
55	0x3ca1ab34	0.019734956
56	0xbdea750c	-0.11448106
57	0xbda1cff7	-0.07900994
58	0xbde5ec45	-0.112267055
59	0xbe84d109	-0.2594073
60	0xbdc5993b	-0.09648367
61	0xbd50c9e7	-0.0509738
62	0x3e744083	0.23852734
63	0x3df43c86	0.119256064
64	0xbd9ed370	-0.07755172
65	0x3db0c7c2	0.08631851
66	0xbe0d762c	-0.1381461
67	0x3dc60642	0.09669162
68	0x3e356b57	0.17716728
69	0x3dd1b9f3	0.10240545
70	0x3d778b1d	0.060435403
71	0xbde6d6f0	-0.11271465
72	0xbe469513	-0.19392805
73	0xbe71c02f	-0.23608468
74	0x3e54e78a	0.2079145
75	0xbcb2ea33	-0.02184019
76	0xbe645777	-0.2229899
77	0x3e964b04	0.29354107
78	0xbe80760b	-0.2509006
79	0xbe308925	-0.17239816
80	0xbd59627b	-0.053072434
81	0xbd723ba3	-0.059138905
82	0xbe1ae8db	-0.1512789
83	0xbe9e3fc1	-0.30908015
84	0xbdc36c5f	-0.095421545
85	0xbe55aeed	-0.2086751
86	0x3e872b54	0.26400244
87	0x3e10860e	0.14113638
88	0x3d8bc9c9	0.06825597
89	0x3e960eab	0.29308066
90	0xbd9f438b	-0.07776555
91	0x3de99a63	0.114064
92	0x3e4bd596	0.19905695
93	0xbe318d0b	-0.1733896
94	0x3db41901	0.087938316
95	0x3e99b22b	0.30018744
96	0xbb68d2a8	-0.0035525952
97	0x3e2297c9	0.15878214
98	0xbcf4273b	-0.029803863
99	0xbd61eac5	-0.055155534
100	0x3e32fe6e	0.1747987
101	0xbd28e4cd	-0.041233826
102	0xbc5207cd	-0.012819243
103	0x3df4d79f	0.11955189
104	0xbe1b81f2	-0.15186289
105	0x3d0711f6	0.032976113
106	0xbe1fd1a1	-0.15607311
107	0xbcc0f953	-0.023556387
108	0x3c4f8244	0.012665335
109	0x3d62c89f	0.05536711
110	0x3d33c773	0.04389138
111	0x3cb6883d	0.02228176
112	0xbd8aaa37	-0.06770747
113	0xbe9de21e	-0.30836576
114	0x3d85d69d	0.06535075
115	0x3e2f8636	0.17141041
116	0x3dd7598b	0.10515126
117	0x3dcca19b	0.09991761
118	0x3e66164b	0.22469442
119	0x3e343a1a	0.17600289
120	0x3e475b42	0.19468406
121	0xbda2505d	-0.07925484
122	0x3d838123	0.06421115
123	0x3e5d1b40	0.21592426
124	0xbd936737	-0.07197421
125	0x3eba0e03	0.36338815
126	0x3e95d9eb	0.2926782
127	0xbe82f7a0	-0.25579548
128	0x3e8bcf43	0.27306566
129	0xbd29e91c	-0.041482076
130	0x3e5b65bb	0.21425526
131	0x3e2d68a3	0.16934447
132	0x3d86d504	0.06583598
133	0xbe43401e	-0.19067428
134	0x3e140faa	0.144591
135	0xbdbf3afb	-0.093374215
136	0x3df2e3aa	0.1185983
137	0x3b916292	0.0044367993
138	0xbdc80cb3	-0.09768047
139	0x3df0d199	0.117587276
140	0x3bf0dc03	0.007350446
141	0x3d32dd53	0.043668102
142	0x3dfd519b	0.12369081
143	0xbc6adabc	-0.014334377
144	0x3d386f86	0.045028232
145	0x3e53c446	0.20680341
146	0xbcc61d59	-0.024183916
147	0xbe0adb53	-0.13560228
148	0xbe4dd373	-0.20100193
149	0x3e234810	0.15945458
150	0xbd13a71d	-0.036048044
151	0xbd668912	-0.056283064
152	0x3e19331e	0.14960906
153	0xbe3a036f	-0.18165372
154	0x3d7ad3b2	0.061237045
155	0xbca19832	-0.019725893
156	0x3d0622d0	0.032748044
157	0xbe8777bb	-0.26458535
158	0xbaa6b215	-0.0012717868
159	0x3e1193db	0.14216559
160	0x3e6afba6	0.22947559
161	0xbe3ee840	-0.18643284
162	0xbe3e77d3	-0.18600397
163	0xbe264bbc	-0.16239828
164	0x3d93eb7f	0.07222652
165	0x3e7674cd	0.24067993
166	0x3d652637	0.055944648
167	0xbe0de784	-0.13857847
168	0x3e80b83a	0.25140554
169	0x3def769d	0.116925456
170	0x3d96215b	0.07330581
171	0x3e075e8e	0.13219664
172	0x3d1dab51	0.03849346
173	0xbdc78b2f	-0.09743344
174	0xbd2cf322	-0.042224057
175	0xbc7cc740	-0.015428364
176	0x3d9a1ab3	0.07524624
177	0x3d66f47f	0.056385513
178	0x3e39d6cb	0.18148343
179	0x3e5892c8	0.21149743
180	0x3e77b081	0.24188425
181	0x3d549b17	0.051905718
182	0xbd22cb46	-0.039744638
183	0xbce43369	-0.027856546
184	0x3d022b88	0.031779796
185	0xbe85024d	-0.25978318
186	0x3e582d0c	0.21110934
187	0xbe662c37	-0.22477804
188	0x3e6582bb	0.22413151
189	0x3e7d43e6	0.24732932
190	0x3e7752f1	0.24152733
191	0xbdfd18be	-0.12358235
192	0x3b45867b	0.003013997
193	0xbe1ad432	-0.15120009
194	0x3e8bd3a8	0.27309918
195	0x3e27a475	0.16371329
196	0xbe8d637b	-0.2761496
197	0x3e9f4c9c	0.31113136
198	0xbe64c92d	-0.22342367
199	0xbd92d898	-0.07170218
200	0xbdd4d90e	-0.103929624
201	0x3b06ce86	0.0020569875
202	0xbe8353e2	-0.25649935
203	0xbe8f0383	-0.27932367
204	0x3d73a5b9	0.059484217
205	0x3e685d73	0.22691898
206	0x3eab1174	0.33411753
207	0x3d167ec4	0.036741987
208	0xbe2dd067	-0.1697403
209	0x3e6f48fe	0.23367688
210	0x3e293381	0.16523553
211	0x3e132c98	0.1437248
212	0x3bc021d8	0.0058634095
213	0xbd99f06d	-0.07516561
214	0x3d940a8b	0.072285734
215	0x3e5dfaed	0.21677752
216	0x3e4adec3	0.1981154
217	0x3e6f2684	0.23354536
218	0x3d806435	0.06269113
219	0x3df0d385	0.11759094
220	0x3e7ed980	0.24887657
221	0xbdf1e522	-0.11811282
222	0x3e538611	0.20656611
223	0xbe84b9d6	-0.25923032
224	0x3e57c758	0.21072137
225	0x3da1eaeb	0.07906135
226	0xbd9c7d49	-0.07641084
227	0xbdcf09f8	-0.10109323
228	0x3e80e441	0.25174144
229	0xbe827f57	-0.25487778
230	0xbe42cd5d	-0.19023652
231	0x3e1963b9	0.14979447
232	0xbd4c02ea	-0.049807467
233	0xbd2c79ca	-0.042108335
234	0x3cdeb7f1	0.02718732
235	0x3dfdbf16	0.123899624
236	0x3dcb50b8	0.09927505
237	0xbc4dd1f1	-0.012562261
238	0xbcd6196e	-0.026135173
239	0xbe596f46	-0.21233854
240	0x3e6377f4	0.22213727
241	0x3e541f71	0.20715119
242	0xbcf9aff3	-0.030479407
243	0x3dc1a3cc	0.0945507
244	0x3dee82c3	0.116460346
245	0xbd5e3909	-0.05425361
246	0x3e954479	0.29153803
247	0xbdc6031d	-0.096685626
248	0xbb062fe1	-0.0020475315
249	0x3d04f800	0.032463074
250	0xbe3525f9	-0.17690267
251	0x3e7b28ca	0.24527279
252	0x3da7a206	0.081852004
253	0x3d09d0cf	0.0336464
254	0xbd435fbc	-0.04769872
255	0x3d2daf11	0.042403284

hidden_layer3.bias f4 [100]
0	0xbdd06d78	-0.101771295
1	0x3cebc4a3	0.028780287
2	0xbd0c9005	-0.034317035
3	0xbe209ec8	-0.1568557
4	0xbc2af740	-0.010434926
5	0x3ea7bca4	0.3276111
6	0xbe082bed	-0.13298006
7	0x3e274be0	0.16337538
8	0xbe947985	-0.28998962
9	0x3e8286c1	0.25493434
10	0xbd81b420	-0.06333184
11	0x3e55d078	0.20880306
12	0xbdde4272	-0.10852517
13	0x3dbe80ec	0.09301934
14	0xbcc6956b	-0.02424117
15	0x3d98fb9f	0.07469868
16	0x3e78aec5	0.2428542
17	0xbd9c12dc	-0.07620785
18	0x3e38d0c6	0.18048391
19	0xbe0942dc	-0.13404411
20	0xbe1ab911	-0.1510966
21	0xbd4a6827	-0.049415734
22	0x3e13d7d2	0.14437798
23	0xbdf472e2	-0.11935975
24	0x3e2e658b	0.17030923
25	0x3e480524	0.19533211
26	0x3d6fb90b	0.05852608
27	0x3e078372	0.13233736
28	0x3e2c56be	0.16829965
29	0x3dbb5ae0	0.091481924
30	0x3e841448	0.25796723
31	0x3cd4ca4e	0.025975373
32	0xbe4115a2	-0.18855909
33	0xbdd33160	-0.10312152
34	0xbde664df	-0.112497084
35	0x3e9229c8	0.28547502
36	0xbe216e87	-0.15764819
37	0xbe65b409	-0.22431959
38	0xbd2795bf	-0.040914293
39	0x3d62ccae	0.05537098
40	0x3e5db549	0.21651186
41	0xbd94ad66	-0.072596356
42	0x3de79a22	0.113086954
43	0xbe865c08	-0.2624209
44	0xbe635960	-0.22202063
45	0xbe33bd1c	-0.17552608
46	0xbd31fec7	-0.043455865
47	0xbdd44d63	-0.10366323
48	0xbe7be658	-0.24599588
49	0xbe193949	-0.14963259
50	0x3d670a27	0.056406166
51	0x3e624371	0.2209604
52	0x3db5e879	0.08882231
53	0x3e34be11	0.1765063
54	0xbe22ab36	-0.15885624
55	0xbe657d7f	-0.22411154
56	0x3e1b3092	0.15155247
57	0xbe18fe63	-0.14940791
58	0xbe370fb1	-0.1787708
59	0x3e63145a	0.22175732
60	0x3e5ce927	0.21573316
61	0xbd8dea2a	-0.06929429
62	0xbddf1665	-0.10892943
63	0xbdd7d024	-0.105377465
64	0xbd1a0c94	-0.03760965
65	0xbe4be3e9	-0.1991116
66	0xbe02095e	-0.12698886
67	0xbe67a008	-0.22619641
68	0x3e901964	0.28144372
69	0x3db8ac3e	0.090172276
70	0xbe641bd2	-0.22276238
71	0x3b3938a0	0.002826251
72	0xbcb52429	-0.022111969
73	0xbe08f231	-0.13373639
74	0xbdd7a711	-0.10529912
75	0xbdbd7f47	-0.09252792
76	0x3e8bc797	0.27300712
77	0xbe84f2a5	-0.25966373
78	0xbb8be330	-0.004269026
79	0xbe88201f	-0.26587006
80	0xbe1456ba	-0.14486209
81	0x3e18ea9f	0.14933251
82	0x3e3154cf	0.17317508
83	0xbc3afa4e	-0.011412216
84	0x3e28fa0e	0.16501638
85	0xbc68aec2	-0.014201822
86	0xbcaeecca	-0.021353144
87	0xbe7c44fe	-0.24635693
88	0xbd2b1ed8	-0.04177746
89	0x3bee739f	0.0072769667
90	0x3e10f3ef	0.14155553
91	0xbd9be6e3	-0.076123975
92	0xbdcc54a1	-0.09977079
93	0x3d60b34a	0.054858483
94	0xbc86c883	-0.016453033
95	0xbe77888e	-0.24173185
96	0x3dba9e08	0.09112173
97	0xbe69a369	-0.22816242
98	0x3dfa0e58	0.12209767
99	0xbd77d74f	-0.06050807

hidden_layer4.weight f4 [15, 100]
0	0x3d4ba12a	0.049714245
1	0x3da36887	0.079789214
2	0xbc9d4722	-0.019198958
3	0xbcb8ce2e	-0.022559252
4	0xbc6861f3	-0.014183509
5	0x3e1ed4d7	0.1551088
6	0xbe192c23	-0.14958243
7	0x3d6cf56c	0.05785124
8	0xbdd375bb	-0.1032519
9	0x3d9453be	0.07242535
10	0xbdf70748	-0.12061936
11	0x3cfea166	0.03108282
12	0x3d4fa2d9	0.050692413
13	0x3dd16e67	0.10226136
14	0xbc52f2a4	-0.012875233
15	0xbc48170c	-0.012212526
16	0x3dba822b	0.09106859
17	0x3dae0d24	0.084986
18	0xbb404ade	-0.00293415
19	0x3e3d2b59	0.18473567
20	0xbde33dd8	-0.1109578
21	0xbd3f8d47	-0.046765592
22	0x3ca0e6e3	0.019641345
23	0xbc4a918e	-0.0123638045
24	0x3d8a4266	0.06750946
25	0x3dd65c7d	0.104668595
26	0xbd66e7f7	-0.056373563
27	0xbe1eb9e5	-0.155006
28	0x3da88c73	0.082299136
29	0xbe038530	-0.12843776
30	0x3e66dbaa	0.22544733
31	0xbc4ab81b	-0.012372996
32	0x3d47ef06	0.048811935
33	0x3cf1f150	0.029534012
34	0x3c89410e	0.016754653
35	0xbcabba9b	-0.020963004
36	0x3d1afa50	0.037836373
37	0xbc99f671	-0.01879427
38	0xbd6eaf3a	-0.058272578
39	0xbed866ec	-0.42266023
40	0xbd86807e	-0.06567477
41	0xbdf0fecb	-0.11767348
42	0xbe17f8df	-0.1484103
43	0xbcc70940	-0.024296403
44	0x3cfa5a02	0.030560497
45	0x3d2f757d	0.042836655
46	0xbe313f32	-0.17309263
47	0xbd77ddd8	-0.0605143
48	0xbdd132f0	-0.10214794
49	0x3c3cab46	0.011515444
50	0xbcdd4897	-0.027012153
51	0x3dfd01ad	0.12353835
52	0x3de37e58	0.111080825
53	0x3c9fa875	0.019489506
54	0xbc50f2e7	-0.012753225
55	0xbd8b2c2b	-0.06795534
56	0x3e41aa2d	0.18912573
57	0xbc944b9d	-0.018102461
58	0x3c7911d8	0.015202008
59	0xbd1bd5f5	-0.038045842
60	0x3d19e223	0.037569176
61	0xbe8afa96	-0.27144307
62	0xbc402d5c	-0.0117295645
63	0xbd984410	-0.07434857
64	0x3e1b9aed	0.15195818
65	0xbd75523d	-0.05989288
66	0xbe172038	-0.14758384
67	0xbc346a86	-0.011011725
68	0xbd14f969	-0.03637067
69	0xbd8d4939	-0.06898732
70	0xbe733ab1	-0.23752858
71	0x3d4066c6	0.046973012
72	0xbcf73add	-0.030179435
73	0xbe99ad46	-0.3001501
74	0xbe8651b5	-0.26234213
75	0xbe3a7af2	-0.18210962
76	0x3d1c44f5	0.0381517
77	0xbe003825	-0.12521417
78	0xbc91842f	-0.017763225
79	0xbc089031	-0.008335159
80	0x3da57eed	0.0808085
81	0xbdccdaea	-0.10002692
82	0xbd616df5	-0.055036504
83	0xbd7117d5	-0.05886062
84	0xbe7162b0	-0.23572803
85	0xbd7c7c92	-0.061642237
86	0xbea0f41f	-0.3143625
87	0xbd4c2754	-0.049842194
88	0xbe4d234b	-0.20032994
89	0xbcc1f34e	-0.023675587
90	0xbc347ca7	-0.011016048
91	0xbe49f1e9	-0.19721188
92	0x3ddfa98f	0.109210126
93	0xbdb16040	-0.08660936
94	0x3d96f752	0.07371391
95	0xbd560431	-0.05225009
96	0x3d603ff2	0.054748483
97	0xbf0c2000	-0.5473633
98	0x3d0558ef	0.032555517
99	0x3cba97d6	0.02277748
100	0x3d5d4600	0.054021835
101	0x3dba3d89	0.09093768
102	0x3de6f585	0.11277298
103	0xbd020765	-0.031745333
104	0xbd9fb652	-0.07798447
105	0xbe000c5c	-0.12504715
106	0xbc3c87f1	-0.01150702
107	0xbdca4d8f	-0.098780744
108	0x3cd78b57	0.02631156
109	0xbcacb6fa	-0.021083344
110	0x3d3d5e7c	0.046232685
111	0xbc357024	-0.0110741
112	0xbce71caa	-0.02821191
113	0xbcf67a98	-0.030087754
114	0x3d294da2	0.041333802
115	0xbd69ba02	-0.057062156
116	0xbd5afd85	-0.05346443
117	0xbd86bacd	-0.06578598
118	0xbd770c41	-0.06031442
119	0xbe07ba14	-0.13254577
120	0xbd6571b3	-0.056016635
121	0xbd70419f	-0.05865633
122	0x3d6dfa6f	0.05810016
123	0x3cd8216e	0.026383128
124	0xbd52dcd5	-0.051480133
125	0x3df07883	0.11741736
126	0xbd934601	-0.071910866
127	0x3dda92a7	0.10672503
128	0xbccf28db	-0.025288036
129	0xbb3f4916	-0.002918785
130	0xbe1cf8e3	-0.15329318
131	0x3d152442	0.03641153
132	0xbdb31ff3	-0.08746328
133	0xbd4da6ae	-0.050207786
134	0xbc4beb9b	-0.012446309
135	0x3cd491c6	0.025948416
136	0x3d5975b0	0.05309075
137	0xbc2ab9d8	-0.010420285
138	0xbd4edece	-0.05050545
139	0x3dc5c460	0.09656596
140	0x3d8c6cee	0.06856714
141	0xbd9f3d37	-0.07775348
142	0xbd48dd63	-0.049039256
143	0x3ca3d9f4	0.02000139
144	0x3dc708b9	0.097184606
145	0x3da65c79	0.081231065
146	0xbd4747e0	-0.04865253
147	0xbccb5dec	-0.024825059
148	0xbd96db9a	-0.073661044
149	0xbb9cfda2	-0.0047909776
150	0x3cb224de	0.021746095
151	0xbdb122d6	-0.086492226
152	0x3cd8101e	0.026374873
153	0x3d60d89e	0.054894082
154	0xbd28fc9d	-0.041256536
155	0x3bdb1090	0.006685324
156	0xbdffd411	-0.1249162
157	0xbd55ca0d	-0.052194644
158	0xbc3a4060	-0.011367887
159	0x3bef9fc2	0.007312746
160	0xbd961a30	-0.073292136
161	0x3d8dc456	0.06922214
162	0x3daef67d	0.08543108
163	0xbdd455b9	-0.10367913
164	0x3d4a7c15	0.04943474
165	0xbc157c08	-0.00912381
166	0x3db983cf	0.090583436
167	0x3d5ceb3f	0.053935286
168	0xbd371e3c	-0.044706568
169	0x3e026781	0.12734796
170	0x3cff2de1	0.031149806
171	0x3dc1bf9e	0.09460376
172	0x3cbda71c	0.023150973
173	0x3db4a6fa	0.08820911
174	0x3ce4b442	0.027917985
175	0x3db2ed5a	0.087366775
176	0x3cad0319	0.021119641
177	0x3ddbd614	0.107341915
178	0x3d8d2029	0.068909
179	0x3da878ae	0.08226143
180	0x3c12db9f	0.008963495
181	0xbcc3ccfb	-0.023901453
182	0xbceabd57	-0.028654737
183	0x3d412ed3	0.047163796
184	0x3c968bbd	0.01837718
185	0xbd967e6f	-0.07348334
186	0xbc105d93	-0.008811372
187	0x3d8a7ae5	0.067617215
188	0xbcde987e	-0.027172323
189	0x3d2bb669	0.041922007
190	0xbd520585	-0.051274795
191	0x3cbf2d79	0.023337113
192	0xbd5d79c3	-0.0540712
193	0x3d5866a4	0.05283226
194	0xbd3ba8ad	-0.04581516
195	0x3d9af4a8	0.07566196
196	0x3d5b913a	0.053605296
197	0x3d82798c	0.063708395
198	0xbcb36549	-0.021898882
199	0x3cb0a977	0.021565182
200	0x3ca4fada	0.020139147
201	0x3ddcc596	0.10779874
202	0xbd2d4cc4	-0.042309538
203	0x3d606c66	0.054790877
204	0x3cc135c8	0.023585215
205	0xbe4ba5c4	-0.19887453
206	0xbda134df	-0.078714125
207	0xbc4d5f45	-0.012534921
208	0xbee8f6d7	-0.45500824
209	0xbc872120	-0.016495287
210	0xbd93a7c2	-0.07209732
211	0xbde0868d	-0.109631635
212	0xbe101418	-0.14070165
213	0xbeb80ef1	-0.359489
214	0xbda4a43d	-0.080391385
215	0x3d461981	0.048364166
216	0xbe869439	-0.2628496
217	0x3d90b437	0.07065623
218	0xbdf27de0	-0.11840415
219	0xbede2c99	-0.433934
220	0x3c3657d6	0.01112934
221	0xbd299f12	-0.041411467
222	0x3d9815b0	0.074260116
223	0x3e046f85	0.12933166
224	0xbd2d2b39	-0.04227755
225	0x3dd0f69a	0.102032855
226	0x3d58da2b	0.052942436
227	0x3e1f0b15	0.15531571
228	0xbe1d926d	-0.15387888
229	0xbd853008	-0.06503302
230	0xbe6b6358	-0.22987115
231	0x3e68f167	0.22748338
232	0xbd86d09b	-0.06582757
233	0xbe99a645	-0.30009666
234	0xbddc9b31	-0.10771788
235	0x3e29b46b	0.1657273
236	0xbd802c20	-0.06258416
237	0xbdf86ba2	-0.12129904
238	0x3df3a997	0.11897581
239	0xbdee1f27	-0.116270356
240	0x3e2acb78	0.1667918
241	0x3de1f24e	0.11032544
242	0xbdc75284	-0.097325355
243	0xbd886299	-0.06659431
244	0x3e23bdc2	0.15990356
245	0xbd236ddc	-0.039899692
246	0xbd27fbe2	-0.0410117
247	0xbdadb33a	-0.084814504
248	0x3dd96d29	0.10616524
249	0x3d6f0c25	0.05836119
250	0x3da696cf	0.08134233
251	0xbc374215	-0.011185189
252	0xbe11af81	-0.14227106
253	0x3ddccb66	0.10780983
254	0x3df21a8c	0.1182147
255	0x3d1a4df8	0.037672013

hidden_layer4.bias f4 [15]
0	0x3e110136	0.14160618
1	0xbd9951ff	-0.07486343
2	0xbd9ba19c	-0.07599184
3	0x3ddfc33d	0.109259106
4	0xbcc55153	-0.02408663
5	0x3ef634ac	0.4808706
6	0xbc7ab3c4	-0.0153016485
7	0xbcddaa20	-0.027058661
8	0x3ce9703c	0.0284959
9	0x3d3209b6	0.043466292
10	0x3db7d59d	0.089762904
11	0x3d536d6c	0.051618025
12	0xbe932504	-0.28739178
13	0xbcef0f1f	-0.029182015
14	0xbe71370e	-0.23556158

output_layer.weight f4 [3, 15]
0	0x3dd81d22	0.10552432
1	0x3d448520	0.04797852
2	0x3f380dd5	0.71896106
3	0x3eb82b17	0.35970375
4	0xbe13f962	-0.144506
5	0xbdba3e3a	-0.090939
6	0x3e2bc2b1	0.16773488
7	0x3c89ff6c	0.016845427
8	0xbde24910	-0.11049092
9	0xbe139e4a	-0.14415851
10	0xbd0f67b8	-0.035011023
11	0xbe094771	-0.13406159
12	0xbd7bd471	-0.061481897
13	0x3da58c94	0.08083454
14	0x3d321a5a	0.043482162
15	0xbf1b3a6b	-0.60636014
16	0x3d3d3eca	0.04620246
17	0xbf2bde90	-0.6713648
18	0x3e45102d	0.19244452
19	0x3e873c35	0.26413122
20	0x3f2c0d4c	0.6720779
21	0xbedd75b8	-0.43253875
22	0x3d7eef9c	0.062240228
23	0xbf06c686	-0.5264667
24	0xbdefadb3	-0.11703052
25	0x3e29c228	0.16577971
26	0xbd57dfe7	-0.052703764
27	0xbde36b94	-0.11104503
28	0x3c553fc8	0.013015695
29	0x3de7b1c1	0.11313201
30	0x3f0f8a31	0.5607024
31	0xbda4578a	-0.08024509
32	0xbd8288d8	-0.06373757
33	0xbec2c18f	-0.38038298
34	0x3e368415	0.17823823
35	0xbf1dc0d5	-0.61622363
36	0x3ef865c9	0.48515156
37	0xbc0b11fa	-0.008488173
38	0x3ea3f17e	0.3202018
39	0x3e7bc969	0.2458855
40	0xbedfb478	-0.43692374
41	0x3b0d2fe1	0.002154343
42	0x3e1522e6	0.14564094
43	0x3d9a9ca1	0.07549406
44	0xbe0be589	-0.1366178

output_layer.bias f4 [3]
0	0x3e7d6dbd	0.24748893
1	0x3ee4d8d2	0.4469667
2	0x3ea67aa3	0.3251544
