MultipleClassifier-Iris/iris2.pth (torch, 17159 bytes, 10 tensors)

weight f4 [8, 4]
00000000: c4c9 ea3e 9457 da3e 02cd e9bd f496 a1be
00000010: 2d39 20bf 9327 3ebe 4a57 803f 28b9 973f
00000020: eab9 953e e249 afbe a0f6 313f c2b5 16be
00000030: cb23 623e c7a8 113f b621 353d 1379 b8be
00000040: 0d80 a9be 9fe0 d3bd 5077 a73d cf72 fa3e
00000050: f16c febd 197a 58be f949 903e 9dc3 493e
00000060: e920 b13e 1b9e cdbe fafa d53e 4623 913e
00000070: 7a4b 81bd 6551 57be 6d6f 0f3f 30bc ca3d
0.4585706 0.42644942 -0.11416055 -0.3156048 -0.62587243 -0.18569784 1.0026639 1.185338
0.29243404 -0.34236056 0.69516945 -0.14717773 0.22083966 0.5689816 0.044221602 -0.36029872
-0.33105507 -0.103455774 0.08177054 0.48915717 -0.12423123 -0.21140327 0.28181437 0.19703527
0.3459542 -0.40159687 0.41793042 0.28347224 -0.06313224 -0.21027143 0.560294 0.09899175

bias f4 [8]
00000000: f827 893e b7c1 10bf 5767 1abe 22c6 183f
00000010: 4d2a 0d3c 04a1 653e e8a5 d8be b383 d83e
0.26788306 -0.56545585 -0.15078484 0.59677327 0.008616042 0.22424704 -0.42314076 0.4228798

weight f4 [15, 8]
00000000: 842c a9ba c94e b0be 34e8 393e 922a ab3e
00000010: 11e2 073e 02f8 3fbe d780 573e 1726 bfbe
00000020: 8aae 833d 910b 023d 6189 5cbe 8733 2d3e
00000030: 65dc 6b3e 296c ccbd 8a51 29be 25bb 493e
00000040: 8aed cebd c4d6 2bbe 7b53 a6be 817f 49bd
00000050: 172f 9a3e 8eab 913e 68fc 6f3d 4f24 823e
00000060: e896 cb3d e9b0 a3be e52e 3ebd 0eee 903d
00000070: b7a7 963e cffc 32be 0641 313e 6a55 1abd
00000080: c1ae 563e b9a7 433f d043 ba3e 2a54 3ebe
00000090: 2f6a 77be 07e6 5abe c075 d83e 3caa d43d
000000a0: 15e7 c33d 9241 9fbe 1c7c 48be 1224 90be
000000b0: 381e a9be 3aa5 873e 7eb4 a8be b94f 663c
000000c0: 002c c1be 0cc4 563f 0e93 da3e 4a24 653e
000000d0: bcbd b53d a4ef e83e f329 833e d3e0 343e
000000e0: fdaf da3e bec0 3dbf cfd0 8f3e 3848 f03e
000000f0: 1781 363d 8602 52bd 7f6b 2ebe 3ee5 41be
00000100: d4ea aabe 57e1 13be 69e8 fdbd 4dab 833d
00000110: b7f0 ad3d 49e1 dd3c cdf7 88be d126 8abe
00000120: b05a c13e 7426 08bf 8cf0 b23d 3609 b13e
00000130: d39e c3be 86e1 ba3c fa85 c4bd b783 35be
00000140: 4ed8 5c3e 78fc 71be 822f bd3e 52db e23d
00000150: 9d8c f0bd 8891 2cbc ef7c 1b3d 65ab a03e
00000160: 3fb6 21be bb0b 06bd bef7 393d 8910 733e
00000170: baeb 6ebe 7a99 84be 0f3e 683e 3efb ce3e
00000180: 834b 38be 67e4 9e3e 5f60 a8be daba ae3e
00000190: 6dee d2bc 4d2c 71bb 2281 1fbe a9f6 603e
000001a0: d30a 94bd 3b84 bebe b02e 1fbe 4936 b33e
000001b0: 8a30 a6bd 01b3 dd3d 9a0d a03c 5f1d 9a3e
000001c0: 3843 0dbe 0b8a 2e3f 9a8c 8f3e 65c2 8ebe
000001d0: 112d a33e b5b0 4bbd 9aee d83e 0210 40be
-0.0012906943 -0.34435108 0.18154985 0.33430916 0.13269831 -0.18746951 0.21045242 -0.37333748
0.06429775 0.03174931 -0.21536781 0.16914187 0.23033293 -0.099815674 -0.16535011 0.19700296
-0.10103901 -0.16781145 -0.32485566 -0.049193863 0.30114052 0.28451198 0.058590323 0.25418326
0.099408925 -0.3197091 -0.04643144 0.07076655 0.2942483 -0.17479251 0.1730996 -0.037679113
0.20965101 0.764278 0.36379862 -0.18586794 -0.241616 -0.21376811 0.42277336 0.10384032
0.0956556 -0.31104714 -0.19578594 -0.2815252 -0.33030868 0.26493245 -0.32950205 0.014057093
-0.37728882 0.83892894 0.4269032 0.22377124 0.088740796 0.4549533 0.25617942 0.17663889
0.42712393 -0.74122226 0.28088996 0.469301 0.044556703 -0.051271938 -0.17033194 -0.18935105
-0.33382285 -0.14441429 -0.12397844 0.064291574 0.08493178 0.027084963 -0.26751557 -0.2698274
0.37764502 -0.53183675 0.08737287 0.3457734 -0.3820711 0.022812616 -0.095958665 -0.17726026
0.21566889 -0.23631465 0.36950308 0.11076988 -0.1174557 -0.010532744 0.037960943 0.31380764
-0.15792178 -0.03272603 0.04540228 0.23736776 -0.2333211 -0.25898343 0.22679923 0.40426058
-0.17997555 0.31033632 -0.32886025 0.3412693 -0.025748456 -0.0036800087 -0.15576604 0.21969093
-0.07228627 -0.3721026 -0.15545154 0.35002354 -0.08114727 0.10825158 0.019537736 0.30100533
-0.13795173 0.68179387 0.28036958 -0.27882686 0.3187032 -0.049729068 0.4236954 -0.18756106

bias f4 [15]
00000000: ca33 62be 27be 97be a44b 973e ade4 07be
00000010: 0c11 c13d 755f 1cbe f144 9ebd 3881 003f
00000020: 952d cabc 35d0 44be 9b37 783c 03fc 9b3e
00000030: 4b54 44bd 4da3 b23e dcea 433e
-0.22090068 -0.29637262 0.29549897 -0.13270827 0.094270796 -0.15270789 -0.07727993 0.5019717
-0.024679938 -0.1922005 0.015149976 0.30465707 -0.04793195 0.34890214 0.1913256

weight f4 [100, 15]
00000000: 87f8 723d d973 20be 324e d5bd 9b59 3cbe
00000010: 9738 473e 5d3f bf3c 32f1 5d3d 9ff0 cbbc
00000020: 9233 26be 5a2a 56bd edc2 22be f8e7 df3c
00000030: b639 3abd 0d50 fabd ca12 50bd 215a a53d
00000040: c777 033e 544c 64be 649e 19be e198 2cbe
00000050: 7c17 433e f70c 7b3d dcba 1e3e af50 643e
00000060: 0301 1e3d 5ced 70bb 151e c5bd e55f bdbb
00000070: eb65 143e b0a8 ba3c fd7e 5abe 1ecf 1c3e
00000080: 6190 29bc abf4 ed3c 26b8 2f3e 2478 7b3e
00000090: d63c a63e 64ce 083d 1d3c 3c3e 2ff1 62bd
000000a0: bc2b 993d e843 5ebe 207f f4bb 1858 7bbe
000000b0: 29c0 403e d0c4 f83c c95a 483e eb24 5f3e
000000c0: 9a84 17be 1714 8a3d ec49 febc 1049 73be
000000d0: a47b 913c b5ab 753c 22e5 a13d 8fe5 933d
000000e0: 3475 5abe 0017 f53d 3c67 2ebc 1ac5 84bd
000000f0: 6ffd 5ebe 607e 4c3e 24b3 833e 06ee 753e
00000100: 54f7 e3bd ea59 9b3d 1ed3 06be 4a8d 08be
00000110: 0f78 7f3e 82ca 0fbe 6723 923d be2d 483e
00000120: 797f 653d 2b52 f13c 605b 413d c369 a6bd
00000130: d9c6 783d 123f c1bc 10d0 6a3e 9ed9 0dbe
00000140: 7199 e63d e127 42be 62f2 2ebe 7973 19be
00000150: 6b42 253e b978 253e c919 513e 219b 643e
00000160: baef 1abe d238 71be 3099 4dbe d427 91bc
00000170: d042 543e 1f7f d03d c0e6 71be 3660 61be
00000180: eb8f 7e3e 13d9 0e3e fb13 253c 2814 4dbe
00000190: e2ad 6abd ecc2 71be 0da5 623e b6d5 83be
000001a0: c6c2 d4bc 474e 813e 2a75 263e 096e 623a
000001b0: 2831 9cbd 5e6f 333e fa06 683d a474 5d3e
000001c0: ebcb 30bc 20dc babd 46f1 443d 2e0e 513e
000001d0: 424c 533e c5e3 673e d609 dbbb 5007 20be
000001e0: 3050 7f3e ac60 153e e089 84be 0372 a13d
000001f0: 119d 8fbd 3bc5 9b3d 893c b3bd cd8d 9e3d
00000200: 2301 82be c7e7 013e e561 a0bb 15fb 54be
00000210: a512 d6bd 80a8 59be 98df 133e d65b 11be
00000220: ba01 7dbc 2bbe 193d 6f5d 3bbd 9844 c4bd
00000230: fb49 713d 0abc 063e c2fc 4a3d 27dd 4dbe
00000240: 495f 49be 78bb 46be fd03 563c 6b69 6dbd
00000250: 0361 8b3d bb3c 5dbe 4508 483d 5061 393e
00000260: a681 3e3e afdc 083e 5d9e 80be cb61 4e3e
00000270: 1e53 eebd df25 48be fb4f 13be eb87 26bd
00000280: 2b2b b1bd 1255 6abd f1c4 66be 1e37 c1bd
00000290: 8e11 7dbd adf4 583e 3bfb 6f3e d44e 82be
000002a0: c08a 3bbe 7079 df3d 9cab 59be 4db5 513e
000002b0: c7b7 07be 5e4e 493e b541 5fbe fb6f 24bd
000002c0: 9ae8 373e 4fe1 cfbd 9e6c 57be c1ce ff3d
000002d0: c6c3 543e 0ba7 e43a ab9e 91bd 7908 0bbe
000002e0: 40ef 35be 91a7 81be 6ca2 5bbd 4f66 1abd
000002f0: 18ae 033d b105 64bd cabc a73d c92f 2b3e
00000300: 33ad 51bd 6a46 75be d2cc 87be 1a56 c23c
00000310: 3fd1 26be feb3 ed3d 1b3e 313e 1062 8b3e
00000320: 923c 99bd 7d19 d239 bc35 81be 9413 9a3d
00000330: 174b ad3c c8c3 183e b259 c2bd 1e45 ea3d
00000340: 3e91 8d3d a5e2 723e 0d3d 57be 1ea3 203e
00000350: 1a6a 54be 4fd9 6abe 88e6 b63d 293a 5a3e
00000360: d746 5dbe ae88 883e 19ff 793e c5e1 34be
00000370: 0ebf 4abe 0c96 423e 8f0f 5a3a 541d 71be
00000380: b0e4 b1bd 2da0 18be ae12 ca3d aa17 ecbd
00000390: f349 253e 7b86 273d f7c2 1dbe 6b55 5ebe
000003a0: dcdf 173e f22a 6ebe d8c5 b93d 6262 f7bd
000003b0: c469 24bb 1f59 713e dd58 e63d da5c 353e
000003c0: ac77 64be d63b 43bd cd7c 76be 48b1 75bd
000003d0: 495d c53e 0a10 c83d 0e3d c63e 8163 4abe
000003e0: 7a1b 66be 2348 73be 031c 813e f90b 523e
000003f0: dc64 74be 99c5 063e 3c76 9dbd e843 633e
0.059319045 -0.15669192 -0.10415305 -0.18393557 0.19455181 0.023345644 0.0541851 -0.02489501
-0.1623061 -0.052286483 -0.15894671 0.027332291 -0.045465194 -0.122223 -0.05079917 0.08073831
0.1283866 -0.22294742 -0.15001827 -0.16855194 0.19051927 0.06129166 0.15500969 0.22296403
0.038575184 -0.003676257 -0.09624878 -0.005779254 0.14492004 0.022785515 -0.21337505 0.15313384
-0.010349364 0.02904733 0.17160091 0.24557549 0.3246829 0.033399954 0.18382306 -0.05540579
0.07479045 -0.21705592 -0.0074614435 -0.24545324 0.18823303 0.030367285 0.19565882 0.21791427
-0.14796677 0.06742113 -0.031041108 -0.2375834 0.017759152 0.014994551 0.07905032 0.07221519
-0.21333772 0.119672775 -0.01064473 -0.06482907 -0.21776365 0.19970083 0.2572261 0.2401658
-0.111311585 0.07585509 -0.13166472 -0.13335148 0.24948142 -0.14042094 0.07135659 0.195487
0.05602977 0.029458126 0.047206283 -0.08125641 0.06073651 -0.023589645 0.22930932 -0.13852546
0.112597354 -0.18960525 -0.17084649 -0.14985456 0.16138618 0.16159333 0.20419993 0.22324802
-0.15130511 -0.23556831 -0.20077968 -0.017719187 0.20728612 0.101804964 -0.2362318 -0.22009358
0.24859588 0.13949995 0.0100755645 -0.2002722 -0.057294734 -0.23609513 0.22133274 -0.25748986
-0.025971781 0.25255033 0.16255632 0.00086376123 -0.07626563 0.17522952 0.05664728 0.21626526
-0.010790805 -0.09124017 0.04808166 0.20415565 0.20634559 0.22645481 -0.006684522 -0.1562779
0.24932933 0.14587659 -0.2588644 0.07883074 -0.0701238 0.07605978 -0.087517805 0.0774189
-0.25391492 0.12686072 -0.0048944824 -0.20798905 -0.10452775 -0.21255684 0.14440763 -0.14195189
-0.015442306 0.037534874 -0.045743402 -0.09583396 0.058908444 0.13157669 0.049557455 -0.20103894
-0.19665255 -0.19407451 0.013062474 -0.057961863 0.06805613 -0.21605198 0.04883601 0.18103528
0.18604144 0.13365434 -0.25120822 0.20154493 -0.11636947 -0.19545697 -0.14385979 -0.040656965
-0.08650812 -0.057210036 -0.22536065 -0.09434341 -0.06178432 0.21187086 0.2343568 -0.25450766
-0.18314648 0.10911834 -0.2125687 0.20479317 -0.13253699 0.19658801 -0.21802409 -0.040145855
0.17959824 -0.10150396 -0.21037528 0.12490607 0.20777807 0.0017444802 -0.07110342 -0.13577451
-0.17767048 -0.25323156 -0.053621694 -0.037695225 0.03214845 -0.05566949 0.081903055 0.16717447
-0.051190566 -0.23952642 -0.26523453 0.023722697 -0.16290759 0.116065964 0.17308848 0.27223253
-0.07482256 0.00040073312 -0.2523631 0.075232655 0.02115397 0.14918435 -0.09489764 0.11438964
0.069124684 0.2371927 -0.21019383 0.15687224 -0.207436 -0.22934459 0.08930689 0.21311249
-0.21609055 0.26666778 0.24413718 -0.17664249 -0.19799444 0.19002551 0.00083183585 -0.23546344
-0.08686197 -0.14904852 0.09866844 -0.11527951 0.1614149 0.040899735 -0.15406404 -0.21712272
0.1483149 -0.2325857 0.09070939 -0.12079312 -0.0025087455 0.23569153 0.11247418 0.17711201
-0.22311276 -0.047664486 -0.24071045 -0.05998352 0.38547733 0.09768684 0.38718456 -0.1976452
-0.22471419 -0.23757987 0.25216684 0.2051238 -0.238666 0.13161315 -0.07688567 0.22193873

bias f4 [100]
00000000: decb 283e c528 6e3d e427 89bd 0a2f 8c3d
00000010: 47d1 2bbe 1833 28be 3bf5 b13c f046 423e
00000020: 8bfc 47be 1dc8 873e 3a61 89bc c038 f5bd
00000030: eea8 a53d b04a 62be 824e 383e d9c8 863e
00000040: 01a3 05be 85de 333d af60 23be 3aef 01be
00000050: c0fb 163e 9f77 18be b733 663e 61a9 ff3c
00000060: b59e 46be b0bd 16be c72e 4bbe 8282 a33d
00000070: 95aa 64be 3183 e43c 77b8 653e 5ba4 783e
00000080: 20dd 343d 1461 3bbe 926c 863b 1513 223e
00000090: 676a f43b 10ed 69be 08e6 83be 2963 303e
000000a0: 1eaa 173e aed2 263e 5c6a 173e 00eb 8abc
000000b0: 2d30 ffbb 09c6 07be 01be 3e3e 1a63 5dbe
000000c0: feff ad3d a7f0 a0bd d2ee b3bc 2a5e f1bc
000000d0: 47a7 98bd 88aa 5dbe 8325 ba3d b35e 603e
000000e0: 11f0 16be 0e4d ea3c 011b b5bd adcd 523d
000000f0: 860a 39bd 541f e63c 9426 9e3d d8aa 82be
00000100: 885d 77bc e90f 0f3e a5a9 5ebe a1a7 283e
00000110: 8768 bebd bf6c 023e e8f3 613e 12de 0e3e
00000120: 0514 223e bb15 97bd 3aa4 2bbe 5aca 23be
00000130: b1c3 8e3e 5b90 213e c3e0 3abe 2183 7ebc
00000140: 39d8 a9bd f7cf 4d3e 835c 64be 24ee cf3d
00000150: c6d2 5a3e c8ff 553e 81ca 4ebe 0c34 ba3d
00000160: 2e55 373e ab67 6fbe 0699 6e3e 5ab0 803e
00000170: 8935 40be 57a4 f53c 9dbd d4bc 941f 773e
00000180: 573f 283e c920 3b3e dfce 533e 9806 a9bc
0.16484019 0.05814435 -0.06697062 0.068449095 -0.16779052 -0.1642574 0.02172338 0.18972373
-0.19529931 0.26519862 -0.016769994 -0.11973715 0.080888614 -0.22098804 0.17998698 0.2632511
-0.13050462 0.043913383 -0.1595485 -0.12688914 0.14744473 -0.14889382 0.22480665 0.031208696
-0.1939648 -0.14720798 -0.19842063 0.07983877 -0.22330697 0.027894588 0.22433649 0.24281447
0.044156194 -0.18298751 0.004102298 0.15827592 0.007458973 -0.22844338 -0.25761437 0.17225327
0.14810988 0.16291305 0.14786667 -0.01695776 -0.0077877254 -0.13259138 0.18627168 -0.21619835
0.08496092 -0.07858401 -0.021964464 -0.029463846 -0.074537806 -0.21647084 0.09089186 0.21911125
-0.14740016 0.028601196 -0.08843041 0.05146568 -0.04517605 0.02809111 0.07722202 -0.25520968
-0.015097983 0.13970913 -0.21744402 0.16470195 -0.09297281 0.12736796 0.22065699 0.139519
0.1582795 -0.07377192 -0.16761866 -0.1599516 0.27883676 0.15777723 -0.18249802 -0.015534193
-0.08293194 0.20098864 -0.22300915 0.101528436 0.21369466 0.20898354 -0.20194437 0.090919584
0.17903587 -0.2337939 0.23300561 0.25134546 -0.18770422 0.02998559 -0.02596932 0.2413314
0.16430412 0.18274225 0.20684384 -0.020633027

weight f4 [15, 100]
00000000: ed2d 95bd 7a03 c43c 1933 f7bd e590 ca3d
00000010: ae3d a8bd b511 37bd 78b5 85bd c4ce 333d
00000020: 99ed da3c e23e b5bd a839 98bd 7bb7 e6bd
00000030: 95f6 e93c f984 483d cadf 3abd 236d a53d
00000040: 8053 163d 412d cf3c 448c bd3c 862d b4bc
00000050: d8e3 18bd 23fb d73d 46b0 9abd 17f9 72bd
00000060: 60ed 693d 543d 973d 041f 8e3d b9b1 9b3d
00000070: cc21 4cbd 6b77 3ebd 4cb8 b8bd ec52 193d
00000080: fd6f 2d3d 084a 153d 2cf8 a4bd eecd a9bd
00000090: deef 40bd 2f28 543d 216b a8bd f8d5 c9bd
000000a0: 1c26 263d cd1d 233d c4a9 b8bd 4586 b0bd
000000b0: bd77 593d 58c4 a13d 8b77 2ebd 4a20 fdbc
000000c0: 4063 853d a45a 753a 451e f2bd 08e4 9dbc
000000d0: d96f fbbc e2f2 8cbc 5bae 553d 656d 81bb
000000e0: 0710 d53d 4222 c0bc 70bd a3bd 88fb 4b3d
000000f0: db7b e4bd dab7 87bd 6052 a83c 8912 fc3c
00000100: 25e8 9fbc 3a38 973d bd3d 913d d4c2 123d
00000110: 39e0 173b eb69 c0bd 33b6 b2bb fa80 46bd
00000120: 5a60 d7bd a4e3 debc 8037 9d3c 0b3f 813d
00000130: 41f9 bdbc 2368 e73c cb06 0c3d 9c85 143d
00000140: 4fad bebd be46 46bd 514a d3bc b7bb a8bd
00000150: f28c 07bd c32f 1fbd 305d a33d 6e1c 8fbd
00000160: 1f2b abbd 0090 853d 7fa5 b63b 6540 b5bd
00000170: 319f b83d 1581 94bd 3cfc 48bd 223e 303d
00000180: cc05 943d 5e93 0c3d d83b 663c 34e5 7c3d
00000190: 01cb 91bc 541d 713d d29b 88bd 54e6 b23d
000001a0: 23e2 fabc 780d 723d a0af c7bd 00c4 50be
000001b0: aa1f a73d 4e75 383d edc7 503d 66b8 5abd
000001c0: e671 80bd 9188 00be dd8c 86bc 1fad 4b3d
000001d0: 4299 81be ab5a afbc 507e c9bd 8cb9 a33d
000001e0: 7a6f f7bc bea2 1bbc 9fbb 38be 42ed b8bd
000001f0: 6192 423d d98f bbbd 815b a33c 4a48 71bd
00000200: 6b13 ccbd 9986 46bd b919 b63d 77cd c23a
00000210: 87bb 44bd e558 21be fb39 2fbd 2e05 16be
00000220: 800b 2fbd d98c 713c 970e 1fbd 7c07 89bc
00000230: d216 19be 6967 49be 1989 f1bc 04c6 8e3d
00000240: 656e 8d3d 0b2b 973c 5155 ef3b 9e7b 8b3b
00000250: da61 0dbd aac2 703c 1f97 35be 8db9 c43d
00000260: ac25 f8bd 34bc 3dbd e7d2 9ebc 3502 f83c
00000270: 9f3e 63bd b3aa f53d bff8 e0bd ad19 4f3c
00000280: cee8 0cbe 18d8 cbbd 9649 63bd 5883 70be
00000290: 0a5c 813d 4d90 7abb 5009 a93c ca71 333b
000002a0: 86e3 abbd f44e 673d 568d 1c3c 271a c7bd
000002b0: c3d4 98bd d6ff b2bd bdb6 9bbc 10fe 24bc
000002c0: ab5c ba3d b377 14be 40c7 92bc e92c f53c
000002d0: bacc cf3d 979a 0e3e cae2 bdbd f245 b6bd
000002e0: 6010 c1bd dd51 6d3d 3dc1 8d3c 8842 eb3a
000002f0: 5f0f 7e3d 83b0 d9bd 4d88 813b 39b5 1cbc
00000300: b780 a0bc e57e 823c 47a1 b33d 6620 4ebd
00000310: 2fbb b23d 217d 583c 65a9 d43d c918 1d3d
00000320: 71dd 083d 674e 1dbc 3cea 1dbd 0a43 4e3d
00000330: f389 ae3d f2a1 5ebb 69fe bf3d 4855 79bd
00000340: 8b5a f8bb f33c 55bd 9087 83bd 85c5 44bd
00000350: de7c eabc c36a 6fbd 53bd 8dbd 4dd2 d63c
00000360: 1e93 3abe 77f4 a93d f341 073c e945 bc3c
00000370: 62d6 563d edd7 743c 7f9b 27be 1c32 94bd
00000380: 2233 66bd e969 aabd 2c57 883d 278c a7ba
00000390: 9724 43bd 1131 4cbd 3cf6 dfbd 2e8d 343c
000003a0: 96aa 043c a1a8 fdbd 637d afbd 3587 acbd
000003b0: ae20 56bd 6b71 afbd 12c0 84bd cc1a edbd
000003c0: f9ea e1bd 186a d0bd dc8c 763d 8773 a53d
000003d0: c56e 623d a530 e0bb b8c2 f93c a723 413d
000003e0: 4112 79bd ea72 b0bb 0749 5bbd 6b5c cd3d
000003f0: b0a0 b2bd ad33 123d 6294 be3d 1aec 58bd
-0.0728415 0.023927439 -0.12070293 0.09890918 -0.082148895 -0.04469462 -0.06528753 0.04389836
0.026724624 -0.088498846 -0.07432872 -0.11265465 0.028559962 0.048954938 -0.045623578 0.08077457
0.036700726 0.025290133 0.023138173 -0.021994364 -0.037326664 0.105459474 -0.07553153 -0.05931958
0.057111144 0.07384744 0.069395095 0.07602257 -0.04983692 -0.046500605 -0.09019527 0.037432596
0.04234313 0.036447555 -0.080551475 -0.08291231 -0.047103755 0.051796135 -0.08223558 -0.098552644
0.040563688 0.039823342 -0.09016755 -0.0861936 0.053092707 0.07898778 -0.042594474 -0.030899186
0.06513071 0.0009359515 -0.1182218 -0.019273773 -0.030692982 -0.01720566 0.05216823 -0.0039498084
0.104034476 -0.023453835 -0.07995117 0.049800426 -0.11156436 -0.06626864 0.020547092 0.030770557
-0.019519875 0.07383771 0.07091854 0.035830334 0.0023174419 -0.09395202 -0.0054538487 -0.048462845
-0.105164245 -0.027208157 0.019191504 0.063108526 -0.023190143 0.028247898 0.034186166 0.036260232
-0.093104 -0.04840731 -0.025792273 -0.08238929 -0.0330934 -0.03886391 0.079767585 -0.069878444
-0.08357834 0.065216064 0.005573928 -0.08850173 0.09014738 -0.07251183 -0.049068674 0.043028004
0.07227668 0.034320228 0.014052354 0.061742023 -0.017796995 0.05886586 -0.06670345 0.08735338
-0.030625409 0.059094876 -0.09750295 -0.20387268 0.08160336 0.045033745 0.050971914 -0.053398512
-0.062717244 -0.12552096 -0.01642459 0.049725648 -0.2531224 -0.021405539 -0.09838545 0.07994375
-0.030204523 -0.00949925 -0.18040322 -0.09029628 0.04750288 -0.09158296 0.019941093 -0.05890683
-0.09964641 -0.048468206 0.08891625 0.0014862259 -0.048030403 -0.15756567 -0.042779904 -0.14650413
-0.042735577 0.014743053 -0.038832273 -0.016727202 -0.14950112 -0.19668354 -0.029484319 0.06971362
0.06905822 0.018453142 0.0073038717 0.0042566797 -0.034517147 0.014694849 -0.1773343 0.096057035
-0.1211656 -0.046322063 -0.019387675 0.03027449 -0.055479642 0.11995449 -0.109849446 0.012640399
-0.13760683 -0.09953326 -0.0554901 -0.23487604 0.06316383 -0.0038232983 0.020634323 0.0027381056
-0.08393006 0.05647178 0.0095551815 -0.09721785 -0.07462456 -0.08740203 -0.019008035 -0.010070339
0.09099706 -0.14498787 -0.017917275 0.029928641 0.1014647 0.13926159 -0.09271772 -0.0890006
-0.094269514 0.0579394 0.017304057 0.0017948905 0.062026378 -0.1062937 0.003953016 -0.009564691
-0.019592626 0.015929649 0.087709956 -0.050323866 0.08727109 0.013213427 0.10383872 0.038353715
0.033414308 -0.009601212 -0.03855346 0.050356902 0.085224055 -0.0033971039 0.09374697 -0.060872346
-0.007579153 -0.05206008 -0.06422341 -0.04803993 -0.028623994 -0.058451425 -0.06920876 0.026223326
-0.18220183 0.08298581 0.00825547 0.022982555 0.052450545 0.014944059 -0.16367911 -0.0723612
-0.056201108 -0.08320982 0.06657252 -0.0012782858 -0.047642317 -0.04985148 -0.10935637 0.011019988
0.0080973115 -0.12385679 -0.085688375 -0.08424226 -0.05227726 -0.08566555 -0.06481947 -0.11577377
-0.110311456 -0.10176486 0.060192928 0.08078676 0.05528142 -0.0068417364 0.030488357 0.04715314
-0.060808424 -0.0053847926 -0.05353644 0.10027393 -0.08722055 0.035693813 0.093056455 -0.05295954

bias f4 [15]
00000000: db2b b43a 17c6 883d a4d7 14be 855e db3d
00000010: 9d5b 5dbd acab e23d b63b f53c 0b8f 2a3e
00000020: d00b e43d 7837 1e3e e2a1 46bc e25e b43d
00000030: 5a86 d83d eefc 2dbc 2bce f03c
0.001374598 0.06678408 -0.14535385 0.107113875 -0.054042447 0.110679 0.029935699 0.16656129
0.111350656 0.15450847 -0.012123557 0.0880716 0.105725005 -0.010619385 0.029395184

weight f4 [3, 15]
00000000: 0484 96bd b5a4 c33e b199 b1bd 4277 a03c
00000010: de28 383e c56d 433e e050 123e 0e91 953e
00000020: 517f c93e ed61 02bd 8c38 27bd a00b 8b3e
00000030: 7820 82bd 954b 733c 535e 683e aefe aebd
00000040: 6e22 9cbe 74e7 d0be 132d bbbe 9618 a23d
00000050: d128 a13e 0387 66be cd45 4f3d ac7b d4be
00000060: 0ccd 8f3e f639 62bd 0672 1fbe 6b9d a43e
00000070: ae8c f93d de2b 953d 26d2 60be 8e88 1ebc
00000080: 0f3a 253d e738 bc3e 480a 433d ca59 26be
00000090: c6c9 4bbe a239 dcbe 3cb9 2cbe b300 7cbe
000000a0: 6835 8d3d a1ef e53d fa4f c7be c115 503e
000000b0: 6218 343e
-0.07349399 0.382116 -0.086718924 0.019588117 0.1798434 0.19084843 0.14288664 0.2921223
0.39354947 -0.03183167 -0.04082541 0.27157307 -0.06353849 0.014849563 0.22692232 -0.0854467
-0.30495018 -0.40801585 -0.36557826 0.07914846 0.31476453 -0.2251244 0.050603677 -0.41500604
0.28086126 -0.055231057 -0.1557084 0.3215135 0.12185036 0.072837576 -0.21955165 -0.009676112
0.040338572 0.36762163 0.047617227 -0.1624519 -0.19901189 -0.4301272 -0.16867536 -0.24609642
0.06894952 0.11227346 -0.38928205 0.20320798 0.17587426

bias f4 [3]
00000000: 0e98 913e 2d7d 9b3e e68b 453e
0.2843632 0.3036894 0.19291648
