linear/test2/pow2.pth (torch, 125575 bytes, 9 tensors)

hidden_layer1.weight f4 [100, 1]
0	0x3ee58915	0.44831148
1	0xbe976959	-0.2957256
2	0x3e38cc15	0.18046601
3	0x3d3f663c	0.046728358
4	0xbec2ce05	-0.38047805
5	0xbdf817cc	-0.12113914
6	0xbe950f8a	-0.29113418
7	0xbe2d66a3	-0.16933684
8	0x3e7b12fe	0.24518964
9	0x3e47ca2f	0.1951072
10	0xbe1446d9	-0.14480151
11	0x3ecfb38e	0.40566677
12	0xbe8edfac	-0.27905023
13	0xbe412625	-0.18862207
14	0x3d0f651f	0.035008546
15	0xbeae1a99	-0.34004667
16	0x3ee70c36	0.45126504
17	0xbeae644d	-0.34060898
18	0xbe9482a6	-0.29005927
19	0x3e4b0384	0.1982556
20	0x3e7618fa	0.24032965
21	0x3e82bcf5	0.25534788
22	0xbe8dea7f	-0.2771797
23	0x3e442569	0.19154896
24	0x3e62245d	0.22084184
25	0x3e46782e	0.19381782
26	0x3cfc7788	0.030818716
27	0x3e60b9b7	0.21945845
28	0x3e688bbc	0.22709554
29	0x3ea6800c	0.32519567
30	0xbe5486fb	-0.20754616
31	0x3e4e0cbb	0.20122044
32	0x3e5408bd	0.20706458
33	0xbec983ff	-0.39358518
34	0xbe556a66	-0.20841369
35	0x3e5b8c40	0.2144022
36	0x3e4048a1	0.18777706
37	0xbe3fe5a2	-0.18739942
38	0x3e4d6dc6	0.20061406
39	0xbe9592a4	-0.2921344
40	0xbdf57047	-0.11984306
41	0xbe08a60a	-0.13344589
42	0x3e419916	0.18906054
43	0x3ecdfb3a	0.40230733
44	0xbe1a000d	-0.15039082
45	0xbeae5f30	-0.34056997
46	0xbe36e18e	-0.1785948
47	0xbe882196	-0.26588124
48	0xbe7d508f	-0.24737762
49	0x3e511dbc	0.20421499
50	0x3eba379e	0.36370558
51	0xbea82c0e	-0.3284611
52	0x3e3eb6e3	0.18624453
53	0x3d822224	0.06354168
54	0xbe453c88	-0.19261372
55	0x3e7108d3	0.23538522
56	0x3d67b210	0.056566298
57	0x3e343854	0.17599612
58	0xbdd58c1b	-0.104271136
59	0x3e6bf708	0.23043454
60	0xbe85ec03	-0.26156625
61	0xbe938924	-0.28815567
62	0xbe0b9404	-0.13630682
63	0xbea3337e	-0.31875223
64	0x3edf208d	0.43579522
65	0x3e55bb78	0.20872295
66	0xbeaad33a	-0.33364278
67	0x3e47d3a5	0.1951433
68	0x3da4d739	0.08048863
69	0xbec3b66c	-0.38225114
70	0x3e506fb2	0.20355108
71	0x3e569e0e	0.2095873
72	0x3e8803ca	0.2656539
73	0x3e43a3eb	0.19105498
74	0xbdca5fe7	-0.09881573
75	0x3e69bc39	0.22825707
76	0x3e6f714d	0.23383065
77	0xbe1c6660	-0.15273428
78	0x3e436490	0.1908133
79	0x3e35a698	0.17739332
80	0x3e82f8fb	0.25580582
81	0x3e870456	0.26370496
82	0xbe6fda3a	-0.2342309
83	0xbe2cc0c2	-0.16870406
84	0x3e83db95	0.25753465
85	0xbe2b3209	-0.16718306
86	0x3d0622a2	0.032747872
87	0x3eb9ab69	0.36263588
88	0x3e798dfc	0.24370569
89	0x3e3e6f13	0.18597059
90	0x3e838da6	0.25694007
91	0xbe470db3	-0.1943882
92	0xbe9c2dc0	-0.30503654
93	0x3e931a8e	0.28731197
94	0xbe2b13b5	-0.16706736
95	0xbe97d3b2	-0.29653698
96	0xbe29262a	-0.16518465
97	0xbe089d51	-0.13341261
98	0x3d8cd0c5	0.06875757
99	0x3e3c89e8	0.18411982

hidden_layer1.bias f4 [100]
0	0x3e8d5332	0.27602535
1	0x3e06d90c	0.13168734
2	0x3d8648fa	0.06556888
3	0x3f2d0149	0.67580086
4	0xbfb42670	-1.407423
5	0x3ef792e8	0.48354268
6	0xbf49beb3	-0.7880661
7	0x3e1a3395	0.1505874
8	0xbf8bcc05	-1.0921637
9	0x3ecac290	0.39601564
10	0x3eaff7f4	0.3436886
11	0x3e8ecd9b	0.2789124
12	0xbece399b	-0.40278324
13	0xbda05482	-0.078286186
14	0x3f49b3eb	0.7879016
15	0xbfa12295	-1.2588679
16	0x3ed670ab	0.41882834
17	0xbfa86fa4	-1.315907
18	0xbf5a59b7	-0.85293144
19	0x3f518194	0.81838346
20	0xbf8519dd	-1.0398518
21	0xbfa162f1	-1.260832
22	0xbf40fed4	-0.75388837
23	0xbf4717ba	-0.7777058
24	0xbf859b0e	-1.0437944
25	0x3edf2b47	0.43587705
26	0xbd5aa342	-0.05337835
27	0xbec7ef13	-0.39049587
28	0x3f0ece11	0.5578318
29	0xbecd9fb1	-0.40160897
30	0x3ec36f5f	0.38170907
31	0x3f6abe8f	0.9169702
32	0x3f185e71	0.59519106
33	0xbfc67834	-1.5505433
34	0xbe6edd20	-0.2332654
35	0xbf4ec357	-0.80766815
36	0xbf193810	-0.5985117
37	0x3c4c0d5b	0.012454356
38	0xbeb67ebd	-0.3564357
39	0xbea21be9	-0.3166192
40	0x3f02251e	0.50837886
41	0x3eb199f2	0.34687763
42	0x3e979350	0.29604578
43	0x3ea260aa	0.31714374
44	0x3ed8e22e	0.4236006
45	0xbf2a6466	-0.66559446
46	0x3ecc2be4	0.39877236
47	0xbf1c7f9f	-0.61132234
48	0xbef4b4cd	-0.4779419
49	0x3f57abc4	0.8424647
50	0x3e6e8935	0.23294528
51	0xbf49dbb4	-0.78850865
52	0xbf195e13	-0.5990917
53	0x3f8c7fa1	1.0976449
54	0x3d777b97	0.0604206
55	0x3c2fee9c	0.010738041
56	0x3f5eba1a	0.8700272
57	0xbeb1f743	-0.34758958
58	0x3f47446a	0.77838767
59	0xbf6c39fd	-0.92275983
60	0xbf326264	-0.6968138
61	0xbf602752	-0.8756
62	0x3eac52f3	0.33657035
63	0xbf954cc5	-1.1664053
64	0x3f3a8438	0.72858
65	0xbf1cb652	-0.612157
66	0xbf97085c	-1.1799426
67	0xbf31b654	-0.69418836
68	0x3fad2593	1.3527092
69	0xbfc8bf79	-1.5683433
70	0xbf4723a7	-0.77788776
71	0xbf3f41f0	-0.7470999
72	0xbfa274d4	-1.2691903
73	0xbd9db1e0	-0.076999426
74	0x3f19edf2	0.601287
75	0xbf3d54fb	-0.73957795
76	0xbf83e7c2	-1.0305102
77	0x3eb510bc	0.3536433
78	0x3ec33f43	0.38134202
79	0x37d970b5	2.59209e-05
80	0xbbb1a7e5	-0.005421626
81	0xbf9ed016	-1.2407253
82	0xbe335e8a	-0.17516533
83	0x3dbf110b	0.093294226
84	0xbf9e2adc	-1.235683
85	0x3dd0b536	0.10190813
86	0x3f8426b8	1.0324316
87	0x3cebc0a7	0.028778387
88	0xbedef51b	-0.43546376
89	0x3ee7d1da	0.45277292
90	0xbf9a8a62	-1.2073481
91	0xbd43f1c7	-0.047838
92	0xbf4384b9	-0.76374394
93	0x3f059887	0.52185863
94	0x3f119f8c	0.56884074
95	0xbf695b71	-0.91155154
96	0x3e2130f0	0.15741324
97	0x3f111bcf	0.5668306
98	0x3f9c76fb	1.222381
99	0x3e54947e	0.2075977

hidden_layer2.weight f4 [100, 100]
0	0xbd09d787	-0.03365281
1	0xbd185020	-0.03718579
2	0x3cf0aab3	0.02937827
3	0x3d9b6924	0.07588413
4	0x3de64e40	0.11245394
5	0x3d16c202	0.036806114
6	0xbd52679d	-0.051368345
7	0xbba09cc7	-0.004901502
8	0xbc6091f8	-0.013706677
9	0x3d17ef84	0.037093654
10	0x3d93cb16	0.0721647
11	0xbd0e7693	-0.03478105
12	0x3deafaea	0.11473639
13	0xbc8619ce	-0.016369727
14	0x3b97262e	0.0046127057
15	0xbd455bac	-0.04818313
16	0xbc879aad	-0.016553247
17	0x3c4ac79b	0.012376691
18	0xbd89cc28	-0.06728393
19	0x3d1444cb	0.03619842
20	0x3d87cd36	0.06630938
21	0x3dd5c1c6	0.1043735
22	0xbd58dd7a	-0.05294559
23	0xbcb86e51	-0.02251354
24	0xbd957b8a	-0.07298954
25	0x3cd7c2a9	0.026337938
26	0xbcbf99a1	-0.023388686
27	0x3dc6a38b	0.09699162
28	0x3d63408c	0.05548148
29	0xbd9668ff	-0.07344245
30	0x3dcb6ecf	0.099332444
31	0x3d60c515	0.054875452
32	0x3db642ff	0.08899497
33	0x3ddc730a	0.107641295
34	0x3db6cab1	0.08925379
35	0x3d6d3825	0.05791487
36	0x3da27f05	0.07934383
37	0x3dc81694	0.097699314
38	0x3da8d6d8	0.08244103
39	0x3cc9e14e	0.024643566
40	0x3b36023c	0.0027772328
41	0xbcf26bf2	-0.029592488
42	0x3dc6beaa	0.09704335
43	0x3d20f571	0.03929657
44	0xbd4db8a7	-0.050224926
45	0x3dbfdb4a	0.09367998
46	0xba6c574f	-0.00090156955
47	0x3cc4c247	0.02401842
48	0x3ddaaaa6	0.1067708
49	0xbd437d11	-0.047726694
50	0x3c6733ec	0.0141115
51	0x3d900bd6	0.070335075
52	0xbd6d931e	-0.05800163
53	0xbd2830b6	-0.04106208
54	0xbd2bd1a3	-0.041947972
55	0xbd97c9f4	-0.074115664
56	0xbd56dae1	-0.052454833
57	0x3dde0d09	0.1084233
58	0xbbe7111a	-0.007051599
59	0xbd81c785	-0.063368835
60	0x3b5edca0	0.0034006014
61	0x3dbff16e	0.09372221
62	0x3c853b1c	0.016263537
63	0x3d3fdb32	0.0468399
64	0xbcdfec24	-0.02733428
65	0xbdabdcd8	-0.08391732
66	0x3daaba71	0.08336342
67	0x3d503bf1	0.050838415
68	0xbdf0388e	-0.11729537
69	0xbd2f3019	-0.04277048
70	0xbd1e3dec	-0.038633272
71	0xbd910979	-0.07081885
72	0xbd5bca0a	-0.053659476
73	0xbd131423	-0.035907876
74	0x3de21ddc	0.110408515
75	0xbd3369b2	-0.04380197
76	0xbcc23391	-0.02370623
77	0x3cd75920	0.026287615
78	0x3da396b0	0.07987726
79	0x3dc60d42	0.096704975
80	0xbcc7f8a7	-0.024410559
81	0xbd151f64	-0.03640689
82	0x3b82a350	0.0039867535
83	0xbd13f37c	-0.036120877
84	0xbd49a922	-0.049233563
85	0x3bb4eedb	0.005521638
86	0xbd513c3c	-0.051082835
87	0xbc2b8b50	-0.010470226
88	0x3cb2853c	0.021792047
89	0xbd935836	-0.07194559
90	0xbd6352e4	-0.055498973
91	0xbdaaf714	-0.08347908
92	0xbd04b292	-0.03239686
93	0xbc7c7d09	-0.01541067
94	0xbcc05bb0	-0.02348122
95	0xbcb3a883	-0.021930939
96	0xbd423059	-0.04740939
97	0x3c6a64ab	0.014306228
98	0x3d7c10d6	0.061539494
99	0x3da65cb1	0.08123148
100	0x3c17ab29	0.009257116
101	0xbd7faf02	-0.06242276
102	0xbce90b9c	-0.028447919
103	0xbc3e7e10	-0.011626735
104	0xbd08f8f0	-0.03344053
105	0xbcc29e6c	-0.023757182
106	0xbc72fa38	-0.014830165
107	0x3d8cd6b2	0.068768874
108	0xbc8e03ea	-0.01733585
109	0x3d854a64	0.065083295
110	0xb9b9941e	-0.00035396306
111	0xbbeab444	-0.0071626026
112	0x3d04235e	0.03226029
113	0x3d87b213	0.06625762
114	0x3cc252a2	0.023721043
115	0xbdf8242b	-0.121162735
116	0x3e165eed	0.14684649
117	0xbdb435d2	-0.08799328
118	0xbd3325a4	-0.04373707
119	0x3dc76385	0.09735779
120	0x3da202ac	0.07910666
121	0x3c42ec84	0.01189721
122	0xbcb75a1f	-0.02238184
123	0xbc9455d0	-0.018107325
124	0x3c34495a	0.0110038165
125	0x3ba91595	0.0051600435
126	0xbda3b1f5	-0.07992927
127	0x3d813326	0.06308584
128	0x3da16eed	0.078824855
129	0x3d0c33a7	0.034228947
130	0xbda9a6c6	-0.08283763
131	0x3dc9b80b	0.098495565
132	0x3d4bf2a9	0.049791966
133	0xbcc6f729	-0.024287777
134	0xbd8f3fe5	-0.06994609
135	0xbd73a44e	-0.059482865
136	0xbb6d123b	-0.0036174196
137	0x3d96bd4d	0.07360325
138	0xbb96c5bc	-0.0046012085
139	0xbde7cfd6	-0.113189384
140	0x3dd676c3	0.10471871
141	0x3dbbce4d	0.09170208
142	0xbdc50a83	-0.096211456
143	0x3c9d2fd0	0.019187838
144	0x3d8f1dbb	0.069880925
145	0x3c757949	0.01498253
146	0xbd7a0c61	-0.06104696
147	0xbdb7c667	-0.08973389
148	0xbd7e0839	-0.06201956
149	0x3d8ccd79	0.06875128
150	0x3de23371	0.11044968
151	0xbcf57892	-0.029964719
152	0x3d2b77f0	0.04186243
153	0xbd5f60be	-0.05453562
154	0xbcd93779	-0.02651571
155	0x3d633e22	0.055479176
156	0x3d93c48d	0.072152235
157	0x3d81cb85	0.063376464
158	0x3cf5000c	0.029907249
159	0xbd48b211	-0.048997942
160	0x3bca5dbb	0.0061757243
161	0xbc28646a	-0.010277847
162	0x3d735dcc	0.059415624
163	0xbc8d2b59	-0.017232584
164	0x3dcd864d	0.100353815
165	0x3d3b951d	0.045796502
166	0xbd9a9ee9	-0.07549841
167	0xbc89b5cc	-0.01681032
168	0x3d7127fb	0.05887602
169	0xbdbfd606	-0.093669936
170	0xbcd401f6	-0.025879841
171	0x3d07c747	0.03314903
172	0x3d78742f	0.060657676
173	0x3d254046	0.0403445
174	0x3df4a960	0.11946368
175	0x3dfab9fb	0.12242504
176	0x3d5b1c3a	0.053493716
177	0x3d03b6d6	0.032156788
178	0xbb81a375	-0.003956253
179	0xbd0217a1	-0.031760816
180	0x3d838f54	0.06423822
181	0x3e0ac1c5	0.1355048
182	0xbd87784f	-0.06614744
183	0xbccf675e	-0.025317844
184	0xbd547cc4	-0.0518768
185	0x3dfc9c27	0.12334471
186	0xbd895109	-0.06704909
187	0x3c9ff9b3	0.019528246
188	0xbd890948	-0.066912234
189	0x3db896d8	0.09013146
190	0x3dfb8494	0.12281147
191	0xbcbcb18b	-0.023033878
192	0xbdb607c8	-0.08888203
193	0x3c6e8d79	0.014560097
194	0x3dd974cc	0.1061798
195	0x3d01a6c9	0.0316532
196	0xbc668c05	-0.014071469
197	0x3dd0758a	0.10178669
198	0x3db8167f	0.08988666
199	0x3d1318ec	0.03591244
200	0xbd3cb2ed	-0.046069074
201	0x3dd190dd	0.102327086
202	0x3d1ff07d	0.039047707
203	0x3d8883f1	0.06665791
204	0xbd139acc	-0.036036298
205	0x3d47127c	0.048601612
206	0xbd2a3bf8	-0.041561097
207	0x3d24e51f	0.04025757
208	0xbc520d56	-0.012820562
209	0xbd3f385e	-0.046684615
210	0x3dbb52fb	0.09146687
211	0xbd9837f3	-0.074325465
212	0x3c91d910	0.017803699
213	0x3dab81c2	0.08374359
214	0xbd81c2e3	-0.06336
215	0xbd5804c6	-0.052738927
216	0xbd55d5cf	-0.052205857
217	0x3c2643a2	0.010147961
218	0xbd85835a	-0.06519194
219	0xbafe65eb	-0.0019409036
220	0xbd690b35	-0.056895453
221	0x3dc2bbc3	0.09508469
222	0x3da480c4	0.080323726
223	0xbd87e606	-0.0663567
224	0x3cecf3f8	0.028924927
225	0x3d3891b7	0.04506084
226	0x3dae5928	0.08513099
227	0xbd7b00af	-0.06127995
228	0xbd1df534	-0.038563922
229	0xbca26cc9	-0.019827263
230	0xbd7e4572	-0.062077947
231	0xbd04ce27	-0.032423165
232	0xbbc48577	-0.0059973556
233	0x3dfdadd3	0.1238667
234	0xbc576e6f	-0.013148888
235	0xbcf6dfd1	-0.03013602
236	0x3d90c3bc	0.07068583
237	0x3d6c4db2	0.057691284
238	0xbd33472a	-0.04376904
239	0x3cbca0db	0.02302592
240	0x3d8a5fd5	0.0675656
241	0xbbeb5fc8	-0.007183049
242	0x3e026a51	0.12735869
243	0xbd4f2d80	-0.0505805
244	0x3cde7c4b	0.027158877
245	0x3b815f41	0.0039481227
246	0x3d2b4a3c	0.041818842
247	0x3daf9848	0.08573967
248	0xbd940c07	-0.072288565
249	0xbc74182b	-0.01489834
250	0x3cfd9689	0.03095557
251	0x3c6b7103	0.014370206
252	0xbc31001f	-0.0108032515
253	0x3d040cb7	0.03223869
254	0x3d98fcfd	0.07470129
255	0xbcd0ffc9	-0.025512593

hidden_layer2.bias f4 [100]
0	0xbd69cbc8	-0.057079107
1	0xbd54f700	-0.05199337
2	0x3c6692ca	0.014073083
3	0xbd221356	-0.03956922
4	0x3baacb2d	0.0052122087
5	0xbc77e715	-0.015130778
6	0xbe9b5127	-0.30335352
7	0xbd64e8bf	-0.055886026
8	0x3dc17a00	0.09447098
9	0xbecef280	-0.40419388
10	0x3dde09e2	0.10841729
11	0xbcf375fe	-0.029719349
12	0x3dbab97a	0.09117408
13	0xbe837248	-0.25673127
14	0xbccf39bc	-0.025296085
15	0xbdee02f5	-0.11621658
16	0xbdbb3b8b	-0.09142216
17	0x3e164b0a	0.14677063
18	0xbcc846ef	-0.024447886
19	0xbe7c9a2e	-0.2466819
20	0xbeb08f3c	-0.3448428
21	0x3ddf66b7	0.10908263
22	0xbd8a3fa1	-0.067504175
23	0xbe2b6d3a	-0.16740885
24	0xbcf33baa	-0.029691536
25	0xbe08e6de	-0.13369319
26	0xbdf9b873	-0.12193384
27	0xbdcc3fd7	-0.09973114
28	0xbd2e4a69	-0.04255143
29	0xbd82c004	-0.0638428
30	0xbd429335	-0.04750367
31	0x3d3c600a	0.045990027
32	0x3da247cf	0.07923853
33	0x3db7b864	0.089707166
34	0xbb4e2755	-0.003145655
35	0xbf06cbc1	-0.52654654
36	0xbd6f5a1d	-0.058435548
37	0xbe6aa472	-0.22914293
38	0x3bbb7baf	0.0057215313
39	0xbd4f7184	-0.050645366
40	0x3d3937e8	0.045219332
41	0xbe13898e	-0.14407942
42	0xbdfa6251	-0.122257836
43	0xbda4c95f	-0.08046221
44	0xbdccb1f8	-0.09994882
45	0xbbdaf36e	-0.006681851
46	0xbe53c6fa	-0.20681372
47	0x3cbf4d4f	0.023352293
48	0x3d6ee1d6	0.058320843
49	0xbe421a71	-0.18955399
50	0xbeae950e	-0.34098095
51	0xbdc4a7fa	-0.096023515
52	0xbe17e0be	-0.14831826
53	0xbe137116	-0.14398608
54	0xbe16dbcc	-0.14732283
55	0xb910d9be	-0.00013814025
56	0xbdedac95	-0.11605183
57	0x3d8c0967	0.06837731
58	0xbd90ea94	-0.07075992
59	0x3cacb984	0.021084554
60	0x3c130f4a	0.008975813
61	0xbcfc2984	-0.030781515
62	0xbea1fa87	-0.3163645
63	0xbe22217d	-0.15833087
64	0xbe756419	-0.23963965
65	0xbea5eabd	-0.32405654
66	0x3dcde708	0.10053831
67	0xbc969e4d	-0.01838603
68	0xbd91034d	-0.07080708
69	0xbdb7f888	-0.089829504
70	0xbe3b72e2	-0.18305543
71	0x3da0429a	0.07825203
72	0xbd42c722	-0.04755319
73	0x3cc1bead	0.023650492
74	0x3dc29189	0.09500415
75	0x3db308a8	0.087418854
76	0xbc9e2d59	-0.019308733
77	0x3e1d21bc	0.153449
78	0xbb583b2e	-0.0032994258
79	0xbdd9fd03	-0.10643961
80	0xbd20bc2a	-0.039241947
81	0x3de5331d	0.1119139
82	0x3bae9a1a	0.005328429
83	0xbe1dac14	-0.15397674
84	0x3da72686	0.08161645
85	0xbe23c70e	-0.15993902
86	0xbdc2b6c5	-0.09507517
87	0xbe1010e4	-0.14068943
88	0xbe1dce60	-0.15410757
89	0x3cf4abeb	0.029867133
90	0xbebf1c22	-0.3732615
91	0xbd843d9d	-0.06457064
92	0xbd6c7006	-0.05772402
93	0x3d9722c6	0.073796794
94	0xbc90320a	-0.017601985
95	0x38487854	4.779578e-05
96	0x3ca2aed5	0.019858757
97	0xbda04eda	-0.0782754
98	0xbd336684	-0.04379894
99	0xbdbc0311	-0.09180272

hidden_layer3.weight f4 [100, 100]
0	0xbd795d72	-0.060880132
1	0x3c3a07d4	0.011354405
2	0xbcc5416d	-0.024079049
3	0x3d850254	0.06494585
4	0xbd06a8d3	-0.032875847
5	0xbc4318e1	-0.011907787
6	0xbdf3c90f	-0.11903583
7	0xbccd8041	-0.02508557
8	0xbcc52f73	-0.024070477
9	0xbdc11ca6	-0.094292924
10	0x3d8a2268	0.06744844
11	0x3cc266af	0.023730604
12	0xbc5376d0	-0.012906745
13	0xbd873ddb	-0.06603595
14	0x3e0d0e2e	0.1377494
15	0xbd46e03e	-0.048553698
16	0xbdc9ed54	-0.0985972
17	0xbdcdac38	-0.10042614
18	0xbc04b824	-0.008100543
19	0xbcc24e31	-0.023718925
20	0xbd6af059	-0.05735812
21	0x3d863629	0.06553299
22	0x3bfd404a	0.007728611
23	0xbdb915c0	-0.090373516
24	0xbd15ecb8	-0.036602706
25	0xbd8598e8	-0.06523305
26	0x3d57282c	0.052528545
27	0xbd6416b7	-0.055685725
28	0xbd646938	-0.055764407
29	0x3d81f81b	0.063461505
30	0xbda7d8af	-0.08195626
31	0xbd89b457	-0.0672385
32	0xbda9adfe	-0.082851395
33	0x3dbed68a	0.09318264
34	0x3c41d7e7	0.01183126
35	0xbe108083	-0.14111523
36	0x3d580808	0.052742034
37	0xbdf2e2f2	-0.11859693
38	0xba1a7aa0	-0.00058929063
39	0xbddfd87a	-0.109299615
40	0x3c9ee7db	0.019397667
41	0xbd881d07	-0.066461615
42	0xbd854080	-0.06506443
43	0x3d23f9df	0.040033218
44	0x3dc1fa59	0.09471578
45	0x3c8f9104	0.017525204
46	0x3d51481b	0.051094156
47	0xbdd888c2	-0.105729595
48	0x3d925134	0.071443945
49	0x3d4c85fa	0.049932458
50	0xbdcacfbb	-0.09902903
51	0xbcd376e6	-0.025813531
52	0xbba78fb6	-0.005113567
53	0x3d8b07b2	0.06788577
54	0x3d64f2cd	0.055895615
55	0xbd254ecc	-0.04035835
56	0xbda44419	-0.08020801
57	0x3d1806c9	0.037115846
58	0xbd45b23b	-0.048265677
59	0xbd5758bf	-0.05257487
60	0xbcc9298d	-0.024555946
61	0x3d97b62c	0.074077934
62	0xbb834a0e	-0.0040066307
63	0xbdaf5238	-0.08560604
64	0x3d3cd015	0.04609688
65	0x3d218c07	0.03944018
66	0x3d15fa4a	0.036615647
67	0xbddee1af	-0.108828895
68	0x3d3b09a4	0.04566349
69	0xbdda1234	-0.10648003
70	0xbde1b628	-0.11021072
71	0x3dba0643	0.090832256
72	0x3d252735	0.040320594
73	0xbd7b9a6a	-0.061426558
74	0xbcbb6612	-0.02287582
75	0x3c7ea105	0.01554132
76	0x3ab28046	0.0013618551
77	0x3d77fb62	0.06054247
78	0x3d77ff01	0.060545925
79	0xbdd3d59b	-0.103434764
80	0x3bf85b38	0.0075792335
81	0xbc8d1549	-0.017222064
82	0x3d09b8b3	0.03362341
83	0xbd9aa620	-0.07551217
84	0x3d5fce83	0.054640304
85	0xbda3129f	-0.07962536
86	0x3d75d411	0.060016695
87	0x38581b69	5.152394e-05
88	0xbd9c32c5	-0.07626871
89	0x3bea1152	0.007143178
90	0xbe0585bf	-0.13039301
91	0xbc285a9b	-0.010275508
92	0xbce1678f	-0.0275152
93	0xb9b6ad3b	-0.00034842812
94	0x3d015ff7	0.03158566
95	0xbd73e05c	-0.059540138
96	0xbd9c5e79	-0.07635207
97	0xbd871980	-0.065966606
98	0xbd695776	-0.056968175
99	0x3d950432	0.07276191
100	0xbdac9d52	-0.08428444
101	0xbd619ff8	-0.0550842
102	0x3d9d03db	0.07666751
103	0xbd73484c	-0.05939512
104	0xbd173976	-0.036920033
105	0x3c24503b	0.010028894
106	0x3daee0e7	0.085389905
107	0xbd19a2ba	-0.037508704
108	0xbb0e665b	-0.002172849
109	0x3dc59a3c	0.096485585
110	0x3a3f4a59	0.00072971504
111	0xbd9835de	-0.07432149
112	0x3d35a5de	0.044347636
113	0xbd4c89cc	-0.0499361
114	0xbd134017	-0.035949793
115	0x3d7296e1	0.05922592
116	0xbdb6b00c	-0.08920297
117	0xbb6444d3	-0.0034831061
118	0x3c9ec895	0.019382754
119	0x3d9617c0	0.07328749
120	0x3d018317	0.031619158
121	0xbc079e67	-0.008277512
122	0x3d1e113d	0.03859066
123	0xbdbe627f	-0.092961304
124	0x3db7e8b6	0.08979933
125	0x3d53fc2f	0.051754173
126	0x3ce6e3f4	0.028184868
127	0x3c1ff9a2	0.009764107
128	0x3dc73a66	0.097279355
129	0xbd86c238	-0.06580013
130	0xbbdabbce	-0.00667522
131	0x3d290ad3	0.04127009
132	0xbd40229a	-0.046908
133	0xbc42a9a9	-0.01188127
134	0xbbbe1e32	-0.0058019394
135	0x3bd1d218	0.006403219
136	0xbda1dcfd	-0.07903478
137	0xbdbe6a7f	-0.09297656
138	0xbda26419	-0.07929248
139	0x3db65434	0.08902779
140	0xbcd16a5e	-0.025563415
141	0x3cd70e4c	0.026251934
142	0xbcd4dbaa	-0.02598365
143	0x3dc072ac	0.09396872
144	0xbd64a2e0	-0.055819392
145	0x3d692be9	0.05692664
146	0xbcb0abc3	-0.021566277
147	0xbbfa5aee	-0.007640234
148	0xbdc414cb	-0.095742784
149	0xbd1ce505	-0.038304348
150	0x3d43540b	0.04768757
151	0x3cb3ad06	0.02193309
152	0xbd90314d	-0.070406534
153	0xbc62b721	-0.013837607
154	0x3d1264a3	0.035740506
155	0x3b5c138a	0.0033580982
156	0x3d1c236f	0.03811973
157	0xbd93901d	-0.07205222
158	0x3d875e7c	0.06609818
159	0xbd6ba870	-0.05753368
160	0xbd92f59d	-0.07175753
161	0x3d668ced	0.05628674
162	0x3c5d51b4	0.013508249
163	0xbdb07e99	-0.086178966
164	0xbd73c271	-0.059511606
165	0xbdbb612c	-0.091493934
166	0x3dad01a6	0.0844758
167	0x3d22af6f	0.039718088
168	0xbcd41a21	-0.025891365
169	0x3d53725b	0.05162273
170	0x3d4f591c	0.05062209
171	0x3d8b5c9d	0.06804774
172	0x3dd63aa4	0.104604036
173	0x3ca2465e	0.019808944
174	0xbd542f34	-0.05180283
175	0x3d91ab5b	0.071127616
176	0x3cfbb495	0.030725757
177	0xbd82e464	-0.06391218
178	0x3d1c33ab	0.038135212
179	0x3c8da1b5	0.017289022
180	0xbd49dbfd	-0.049282063
181	0xbd20bb9a	-0.03924141
182	0x3d794766	0.060859106
183	0x3dd698e3	0.104783796
184	0xbcf4d445	-0.029886374
185	0x3bd74fd2	0.0065707946
186	0x3df5625b	0.119816504
187	0x3d9fc24a	0.078007296
188	0xbd50f352	-0.0510133
189	0x3c951005	0.018196115
190	0x3cf3a040	0.0297395
191	0x3dbd4ddf	0.09243368
192	0x3cf34239	0.029694663
193	0xbd999693	-0.07499423
194	0xbc752152	-0.014961557
195	0x3daff2e7	0.08591252
196	0xbd59d0ca	-0.053177632
197	0x3cb2e4f4	0.021837689
198	0xbd3a2332	-0.04544372
199	0xbd8da7be	-0.0691676
200	0xbc94c6e2	-0.018161241
201	0x3d8061f5	0.06268684
202	0x3d8a286b	0.0674599
203	0xbd025b91	-0.031825606
204	0x3daa95eb	0.08329376
205	0x3d675d9a	0.05648575
206	0x3dd0bad9	0.10191888
207	0x3da72035	0.0816044
208	0x3d3ec081	0.046570305
209	0xbd2a7ddf	-0.041623946
210	0xbc95f760	-0.018306434
211	0x3d62583e	0.055259936
212	0x3d70763a	0.0587065
213	0x3dfc8146	0.123293445
214	0x3e140275	0.14454062
215	0x3d8fec9c	0.070275515
216	0x3d86579a	0.065596774
217	0x3dfd46c5	0.12367014
218	0x3dc8cd65	0.09804801
219	0x3df2b43a	0.11850782
220	0xbcd4ffba	-0.026000846
221	0x3d814be9	0.06313307
222	0x3db1052c	0.086435646
223	0x3e067b3e	0.1313295
224	0x3d099182	0.033586033
225	0x3cd63f2c	0.02615317
226	0x3d5e9b5d	0.054347385
227	0x3c915df4	0.017744996
228	0xb8b46d3f	-8.6034175e-05
229	0x3e419f96	0.18908533
230	0x3de1ba27	0.11021834
231	0xbcce89b6	-0.02521215
232	0xbdae2241	-0.08502627
233	0x3c01b50d	0.007916701
234	0x3d08b64d	0.03337698
235	0x3e3d46ef	0.1848409
236	0xbd3dc690	-0.046331942
237	0x3c9af2ec	0.018914662
238	0x3daf74d0	0.08567202
239	0x3d795ba2	0.060878403
240	0xbccb081e	-0.024784144
241	0x3d17dcbd	0.037075747
242	0x3dad0aee	0.0844935
243	0xbd338ba8	-0.04383436
244	0xbd627f61	-0.05529726
245	0xbbae20f9	-0.0053139892
246	0x3d300ee4	0.04298295
247	0x3e04c392	0.12965229
248	0x3d8f898f	0.07008659
249	0xbcf6a9a6	-0.030110192
250	0x3d9ac0c3	0.07556298
251	0x3d55dbf6	0.052211724
252	0x3e0f1fe1	0.13977005
253	0xbd8a8a53	-0.067646645
254	0x3e052d0f	0.1300547
255	0xbca87720	-0.020564616

hidden_layer3.bias f4 [100]
0	0x3d755b2a	0.059901394
1	0x3c5ddfbb	0.013542111
2	0xbda28556	-0.07935588
3	0xbd5ed394	-0.054400995
4	0x3d88d67d	0.066815354
5	0xbd83017b	-0.06396767
6	0xbc7906ce	-0.015199376
7	0xbd98b6e1	-0.074567564
8	0x3d27c90b	0.040963214
9	0x3dcda03c	0.10040328
10	0x3d66227e	0.056185238
11	0x3ca8079a	0.020511437
12	0x3df4a228	0.11944991
13	0x3c8a0b3f	0.016851066
14	0x3d7cd9ec	0.061731264
15	0xbd2b3f3a	-0.041808344
16	0x3d699ef9	0.057036374
17	0x3aee15d0	0.001816446
18	0x3d23d538	0.039998263
19	0x3d8b52d4	0.068029076
20	0x3c9b4770	0.018954962
21	0xbd3d1d50	-0.046170533
22	0xbe1cadb8	-0.15300643
23	0x3c9f2007	0.019424452
24	0xbdc78d76	-0.097437784
25	0xbd3103a9	-0.04321638
26	0xbd2f1c7b	-0.04275177
27	0xbd48b174	-0.048997357
28	0xb9cac355	-0.00038673976
29	0xbe043bd3	-0.12913446
30	0x3da9393c	0.0826287
31	0x3d02c96d	0.031930376
32	0x3dc05a6c	0.093922466
33	0xbd4db6b1	-0.050223056
34	0x3d079a3c	0.033106074
35	0xbd86efe4	-0.06588724
36	0xbd279313	-0.040911745
37	0xbd9d5fbf	-0.07684278
38	0x3d99c239	0.07507748
39	0x3cd7f02f	0.026359646
40	0xbd9f3305	-0.07773403
41	0x3cda08e8	0.026615575
42	0xbd274b0f	-0.040843066
43	0x3d925e17	0.071468525
44	0xbdf7cd7e	-0.120997414
45	0xbd89e3e4	-0.0673292
46	0xbd366ae3	-0.04453553
47	0xbd829323	-0.0637572
48	0xbc7dc709	-0.015489348
49	0xbd3ef2ac	-0.04661815
50	0x3c4882f8	0.012238257
51	0x3d004d98	0.031324
52	0xbd802aeb	-0.06258186
53	0xbcf1ba4a	-0.029507775
54	0x3db2b468	0.08725816
55	0x3d9c6e58	0.07638234
56	0x3e1aad14	0.15105087
57	0xbe035fd7	-0.12829529
58	0xbd6a0cf6	-0.057141267
59	0xbdc37bb7	-0.09545081
60	0x3e162831	0.1466377
61	0x3d216235	0.0394003
62	0xbb47fcf3	-0.003051576
63	0x3df8e29d	0.12152598
64	0x3d8a0403	0.067390464
65	0xbdb21e7b	-0.0869722
66	0xbd107e37	-0.035276618
67	0xbcfc108e	-0.030769613
68	0xbd061d10	-0.03274256
69	0x3d572025	0.05252089
70	0x3d282f89	0.041060958
71	0xbdbde3ac	-0.092719406
72	0x3ce681f2	0.028138135
73	0x3b5e4902	0.0033918028
74	0x3ceef8b1	0.02917132
75	0x3db1afc3	0.08676102
76	0x3d05fa0f	0.032709178
77	0x3d94992f	0.0725578
78	0x3da2e534	0.07953873
79	0xbd53cd74	-0.051709607
80	0x3d986f5e	0.074431166
81	0xbcc60e46	-0.024176728
82	0xbd923083	-0.07138159
83	0x3daba4b8	0.08381027
84	0xbd8b12e3	-0.06790712
85	0x3c04cb3c	0.0081050955
86	0xbcf8eb76	-0.030385714
87	0xbce2874f	-0.02765241
88	0xbc9222a6	-0.017838787
89	0x3dd469e7	0.10371762
90	0x3be40fa9	0.0069598746
91	0xbc9c6892	-0.019092832
92	0xbd34b884	-0.04412128
93	0x3cbae461	0.022813978
94	0x3d196ce7	0.037457373
95	0x3d08526d	0.033281732
96	0x3a6f8b73	0.0009137906
97	0x3d37b0fc	0.04484652
98	0x3d48f007	0.049057033
99	0x3b573429	0.0032837486

hidden_layer4.weight f4 [100, 100]
0	0x3d601758	0.054709762
1	0xbd914d66	-0.07094841
2	0x3da21d63	0.07915761
3	0xbdb3fe55	-0.08788744
4	0x3d5345cb	0.05158023
5	0xbc8b45f2	-0.017001126
6	0xbd96e007	-0.073669486
7	0x3cc095ac	0.02350887
8	0xbd506bd8	-0.050884098
9	0xbd2965f2	-0.04135699
10	0xbceb4b08	-0.028722301
11	0x3d08f41c	0.033435926
12	0xbb09886a	-0.002098585
13	0xbd02ceed	-0.03193562
14	0xbcae22cd	-0.021256829
15	0x3d7221af	0.059114154
16	0xbd75e37f	-0.06003141
17	0xbd74e54c	-0.059788987
18	0xbd882cb4	-0.066491514
19	0xbda55daf	-0.08074509
20	0x3da88853	0.08229127
21	0xbca70c4e	-0.02039161
22	0xbd224440	-0.03961587
23	0xbc80b6f7	-0.015712244
24	0xbdac841d	-0.08423636
25	0x3db19717	0.08671396
26	0x3d69a9e8	0.0570468
27	0x3d9fedaf	0.078090064
28	0xbcd04fc0	-0.025428653
29	0x3daba90a	0.08381851
30	0x3d167d1e	0.036740415
31	0x3cd5c6cd	0.026095772
32	0x3c9e1fcf	0.019302277
33	0xbd099d0c	-0.033597037
34	0xbc854e0d	-0.01627257
35	0x3c96f433	0.01842699
36	0x3d95fd54	0.07323709
37	0x3c914301	0.017732145
38	0x3cb039cd	0.021511937
39	0xbd60e252	-0.054903336
40	0x3d00aad1	0.031412903
41	0xbcfef808	-0.03112413
42	0xbdb708f4	-0.089372545
43	0xbd90f2ee	-0.07077585
44	0xbdc3a493	-0.095528744
45	0xbda0d41f	-0.07852959
46	0xbdca19e6	-0.09868221
47	0xbc8c9566	-0.017161082
48	0x3d264d1a	0.040600874
49	0x3d41de1a	0.047330953
50	0x3cdc93a9	0.026925879
51	0xbdc5a395	-0.096503414
52	0xbc63f20d	-0.01391269
53	0x3d5c9f8e	0.0538631
54	0x3d8a7371	0.067603
55	0xbcaa99f2	-0.02082536
56	0xbbe23a44	-0.0069039185
57	0xbd18d4f1	-0.03731245
58	0xbb614a52	-0.0034376574
59	0x3d13643f	0.035984274
60	0x3d425069	0.047439966
61	0x3afb9d5d	0.0019196678
62	0xbc85eac1	-0.016347291
63	0x3d0bc564	0.034123793
64	0x3bf9b546	0.0076204864
65	0xbdbad0fe	-0.09121893
66	0xbdb903ea	-0.0903395
67	0x3dbe1455	0.09281222
68	0x3d7264ad	0.059178043
69	0xbda5acef	-0.08089625
70	0x3d4e6943	0.050393354
71	0x3cb9928c	0.022652887
72	0x3cb17533	0.02166233
73	0x3c5e3132	0.013561534
74	0x3db1f228	0.08688766
75	0xbcd73f0e	-0.026275184
76	0x3d842816	0.06452958
77	0xbdac5e31	-0.08416403
78	0x3d6984fd	0.057011593
79	0xbc551f3a	-0.013007933
80	0xbd2c4e90	-0.04206711
81	0xbb1b065e	-0.0023654918
82	0x3d5d7b81	0.05407286
83	0xbd17a249	-0.03702
84	0xbd8efcdb	-0.06981822
85	0x3d4b0084	0.04956104
86	0x3c21409d	0.009842065
87	0x3d8988e4	0.06715563
88	0xbcdd32c1	-0.02700174
89	0x3d5cc36d	0.05389731
90	0x3d9ce9ab	0.07661756
91	0x3d742198	0.05960235
92	0x3d42c9d2	0.047555752
93	0xbd5190a5	-0.051163334
94	0x3cc18825	0.02362449
95	0xbdbfa1ed	-0.09357057
96	0x3dc1487d	0.09437654
97	0xbd1fa366	-0.03897419
98	0xbd3feb60	-0.04685533
99	0x3bce3dff	0.0062940116
100	0x3da5ed0b	0.08101853
101	0x3dddeb2d	0.10835872
102	0x3df40538	0.11915058
103	0x3df5d5ff	0.12003707
104	0x3dc2cac3	0.0951133
105	0xb7dbdf90	-2.6210939e-05
106	0x3e0f49bd	0.13992973
107	0x3d3b89ed	0.045785833
108	0x3d818e27	0.063259415
109	0xbd6893c6	-0.056781553
110	0x3dc40fb4	0.09573308
111	0x3d1ac1cb	0.03778247
112	0xbd86b92e	-0.06578289
113	0x3dcaf2b8	0.09909576
114	0xbd11d430	-0.03560275
115	0xbcc8264a	-0.02443232
116	0xbce4a0e3	-0.027908748
117	0xbd50b7a9	-0.050956402
118	0x3d4fffc8	0.05078104
119	0xbc810cf7	-0.015753252
120	0x3d88fb4e	0.066885576
121	0xbd35d42d	-0.0443918
122	0xbc66984f	-0.014074399
123	0x3ddedbe6	0.10881786
124	0x3d652ba1	0.05594981
125	0x3ce45c5a	0.027876068
126	0x3da10482	0.07862188
127	0x3d74d82f	0.05977648
128	0xbd8410e3	-0.064485334
129	0xbd703c7f	-0.058651444
130	0xbd64ad26	-0.05582919
131	0xbd0e3ca4	-0.0347258
132	0xbd261b3d	-0.04055332
133	0x3e0621d2	0.13098839
134	0x3dc2b317	0.09506815
135	0xbd858c4f	-0.06520902
136	0x3da9aa82	0.08284475
137	0xbd997c86	-0.07494454
138	0x3ddfb781	0.109236725
139	0x3d54078b	0.051765006
140	0xbcc49a1e	-0.02399927
141	0xbd8a2d9b	-0.0674698
142	0xbd5d5359	-0.054034565
143	0xbd44d985	-0.048059005
144	0x3dc8ffc9	0.09814412
145	0x3c1c151c	0.009526517
146	0x3dcf91ec	0.10135254
147	0x3d19625d	0.037447322
148	0xbdb679ea	-0.08909972
149	0xbc9deb91	-0.019277366
150	0x3dc00e88	0.093777716
151	0xbd8914c6	-0.06693415
152	0x3dae56bd	0.08512638
153	0xb99506f1	-0.00028424666
154	0xbd27c431	-0.040958587
155	0xbd1445a5	-0.03619923
156	0xbd1f9251	-0.038957898
157	0x3de8a33c	0.113592595
158	0x3d9d6708	0.07685667
159	0x3e09fb85	0.13474853
160	0xbc76046d	-0.015015704
161	0x3d7bc337	0.06146547
162	0x3be249d7	0.006905775
163	0xbd00f6dc	-0.031485423
164	0xbc37d422	-0.01122001
165	0x3d9e0b32	0.07716979
166	0x3d7bf935	0.06151696
167	0xbc91e3e8	-0.01780887
168	0xbcffd89d	-0.031231219
169	0x3d91eb46	0.07124953
170	0xbd9ed676	-0.07755749
171	0x3cb8a2c4	0.02253855
172	0x3d7f960c	0.062398955
173	0x3d508e72	0.050917096
174	0xbd28e7fc	-0.041236863
175	0xbc733865	-0.0148449885
176	0x3c8ee784	0.01744438
177	0x3dbe1a72	0.09282388
178	0xbd35504d	-0.044266034
179	0x3cb4dda0	0.022078335
180	0x3d288f0b	0.04115204
181	0xbb36b43a	-0.002787842
182	0xbbdef416	-0.0068039997
183	0xbd45cda5	-0.04829182
184	0x3de251be	0.11050747
185	0xbcdbffcf	-0.026855377
186	0xbd09a81e	-0.033607595
187	0x3db4d21a	0.08829136
188	0x3cc7c342	0.024385098
189	0xba9cfe25	-0.0011977596
190	0xbd80f8e5	-0.06297473
191	0xbb04fa57	-0.0020290816
192	0x3d6a1300	0.057147026
193	0x3e1404f7	0.14455019
194	0x3de978f0	0.1140002
195	0xbbebdfb1	-0.007198297
196	0x3d257eb9	0.040404055
197	0xbd768b7c	-0.060191616
198	0x3cedee3a	0.02904426
199	0x3dae388b	0.085068785
200	0x3ca1a643	0.0197326
201	0xbcce9ef2	-0.025222275
202	0x3cc416e6	0.0239367
203	0x3d8a4c6e	0.06752859
204	0xbcc1a8ae	-0.023640003
205	0xbd32f4b3	-0.043690395
206	0xbd8cf64f	-0.06882917
207	0x3dba477d	0.090956666
208	0xbc7c22ee	-0.015389187
209	0x3d53a711	0.051673
210	0x3cba7bd9	0.022764133
211	0x3dc936fd	0.09824941
212	0x3cf67f45	0.030089984
213	0x3d7c7a78	0.061640233
214	0x3c13b540	0.009015381
215	0x3cbff2d8	0.023431227
216	0x3d94f4c6	0.07273249
217	0xbc6dec4b	-0.014521669
218	0x3d596281	0.053072456
219	0x3d9f24c1	0.07770682
220	0x3d9d4e7b	0.076809846
221	0xbc40135d	-0.011723367
222	0x3d49774c	0.049186036
223	0xbd85e539	-0.065378614
224	0xbc6454af	-0.013936206
225	0x3cc25ca7	0.02372582
226	0x3d67cc4b	0.056591313
227	0xbd93f611	-0.07224668
228	0x3c93eb3b	0.018056503
229	0xbbe06b1d	-0.0068487064
230	0x3d40216b	0.04690687
231	0xbd2663d0	-0.040622532
232	0x3ba1f41b	0.0049424297
233	0xbd393c3c	-0.04522346
234	0x3cdf0ddd	0.02722829
235	0xbc940300	-0.018067837
236	0xbc603c21	-0.013686211
237	0x3d0b5277	0.03401419
238	0xbd722c34	-0.059124187
239	0xbd8077d2	-0.06272854
240	0xbcef1cb8	-0.029188499
241	0x3cb0ec2e	0.021596994
242	0x3d316992	0.04331357
243	0xbd466d7b	-0.048444252
244	0x3d881569	0.06644709
245	0x3c5655bb	0.013081963
246	0x3d8accba	0.0677733
247	0x3d1769d5	0.036966164
248	0x3d9aae11	0.07552732
249	0xbd27e879	-0.040993188
250	0xbd8dccde	-0.06923841
251	0x3d525f6f	0.051360544
252	0xbca1dd8f	-0.019758968
253	0x3d39f906	0.045403503
254	0xbd9628c6	-0.07331996
255	0xbd96ee10	-0.073696256

hidden_layer4.bias f4 [100]
0	0xbd06bda7	-0.03289571
1	0x3ca578ce	0.020199206
2	0x3d4d2a21	0.050089005
3	0x3d1b38cb	0.03789596
4	0xbcdf3644	-0.027247556
5	0xbd05bca5	-0.03265061
6	0xbd69c7ab	-0.057075184
7	0xbda6d4ef	-0.081460826
8	0xbd5c344c	-0.05376081
9	0x3db233d4	0.08701292
10	0x3e3047c8	0.17214882
11	0x3db1b500	0.08677101
12	0xbbfdaa15	-0.0077412226
13	0xbd830592	-0.06397547
14	0xbc514953	-0.0127738295
15	0xbca9a686	-0.020709287
16	0xbd5a39bd	-0.05327772
17	0xbd3c43db	-0.04596315
18	0x3e15d2da	0.14631215
19	0x3d8c4825	0.06849698
20	0x3d823756	0.06358211
21	0xbdce53a3	-0.10074546
22	0xbce948e5	-0.028477142
23	0xbd570a56	-0.05250009
24	0x3d53b3d8	0.051685184
25	0xbbb77207	-0.00559831
26	0x3dc8d78f	0.098067395
27	0xbdbfae0a	-0.09359367
28	0x3e151652	0.14559296
29	0xbcb4813e	-0.022034284
30	0xbd42c264	-0.047548667
31	0x3dcc42d9	0.09973688
32	0x3bb59ffb	0.005542753
33	0xbc1aba0b	-0.00944377
34	0x3cdbbd72	0.026823733
35	0x3c7247d5	0.014787634
36	0x3d3f65f2	0.046728082
37	0xbd84f118	-0.064912975
38	0x3d819793	0.063277386
39	0xbd221a39	-0.03957579
40	0x3ddee4ae	0.10883461
41	0x3d880d72	0.066431895
42	0x3d7f3a84	0.062311664
43	0x3d92f524	0.07175663
44	0xbd5e329c	-0.054247484
45	0xbbb030f6	-0.0053769303
46	0x3d9d6660	0.07685542
47	0xbd391df6	-0.04519459
48	0xbbc89687	-0.00612146
49	0x3ca6bd53	0.020353949
50	0x3cc2f534	0.023798563
51	0x3e59c171	0.21265198
52	0xbd124097	-0.03570613
53	0x3a348e0f	0.00068876235
54	0x3d977b45	0.07396559
55	0xbc97cc7b	-0.018530121
56	0x3d842606	0.06452565
57	0x3c895df4	0.016768433
58	0xbda0e5d8	-0.07856339
59	0xbd21b58a	-0.03947977
60	0xbc12f451	-0.008969382
61	0x3de68e0b	0.11257561
62	0x3d3c80ff	0.046021458
63	0x3ccc2cf6	0.024923783
64	0xbd5c79ba	-0.053827025
65	0x3c4c0f44	0.0124548115
66	0x3b100dab	0.0021980803
67	0xbda936e8	-0.08262426
68	0xbda6a567	-0.08137017
69	0xbbf2bc16	-0.0074076755
70	0x3e0ca7ca	0.13735881
71	0x3de32a79	0.110920854
72	0x3d474a76	0.048654996
73	0xbd1c0cf1	-0.03809828
74	0x3d9d5434	0.07682076
75	0xbd109682	-0.035299785
76	0xbc1a2332	-0.009407805
77	0x3e123f6c	0.14282006
78	0x3bb29bcf	0.0054507027
79	0x3dc4486c	0.09584126
80	0x3dbf9788	0.09355074
81	0x3da92c64	0.0826042
82	0xbc40b0c6	-0.011760896
83	0x3c80158c	0.015635274
84	0x3d1442fd	0.036196698
85	0x3e05dc43	0.13072304
86	0xbd83e507	-0.06440168
87	0xbdb02a25	-0.086017884
88	0x3da2a5e4	0.079417974
89	0x3def30a3	0.116791986
90	0x3daf47fd	0.085586525
91	0xbd906253	-0.07050004
92	0x3dad65ee	0.08466707
93	0xbdba0a39	-0.09083981
94	0x3d8c1b5f	0.06841158
95	0xbbefc489	-0.00731713
96	0x3d9f1b04	0.07768825
97	0x3d92e160	0.07171893
98	0xbb0a2c6b	-0.0021083604
99	0x3dad605c	0.08465645

output_layer.weight f4 [1, 100]
0	0xbde19cc1	-0.110162266
1	0x3e90bbc2	0.28268248
2	0xbdc8b77c	-0.09800622
3	0x3dcf5f8c	0.10125646
4	0x3dbe28dd	0.09285138
5	0xbdb267fc	-0.0871124
6	0xbd3d5022	-0.046219
7	0x3cbbfb44	0.022946961
8	0xbd9915ab	-0.07474836
9	0x3d075a82	0.0330453
10	0x3ef06ee8	0.46959615
11	0x3e466603	0.19374852
12	0x3c9576d3	0.018245136
13	0xbda5970b	-0.0808545
14	0xbd3fb978	-0.046807736
15	0x3dca1fa9	0.0986932
16	0xbd72c7aa	-0.059272446
17	0xbced0c5d	-0.02893656
18	0x3eb18acd	0.3467621
19	0x3d80a595	0.06281582
20	0x3db4fe74	0.088375956
21	0xbd337b65	-0.04381885
22	0x3e573bfb	0.21018974
23	0xbd2cf39d	-0.042224515
24	0x3e14cbb8	0.14530838
25	0x3e8125b5	0.2522408
26	0x3de7028f	0.11279785
27	0x3df67d38	0.12035602
28	0x3eaa0f9b	0.3321503
29	0xbd9f3d05	-0.077753104
30	0x3db532e4	0.08847597
31	0x3be12422	0.0068707624
32	0x3c8b905e	0.017036613
33	0x3daf99af	0.08574235
34	0xbd85b5d5	-0.06528822
35	0x3db6fdf9	0.0893516
36	0x3e0317ca	0.12802044
37	0x3e84947a	0.2589453
38	0xbd8aa64a	-0.06769998
39	0x3dfa50b6	0.12222426
40	0x3e32befc	0.17455667
41	0x3f312d1f	0.69209474
42	0x3d974bf8	0.07387537
43	0xbd7b98fb	-0.06142519
44	0x3eaa5fe3	0.3327628
45	0x3e16adf7	0.147148
46	0x3ec962ae	0.393331
47	0xbd84aa04	-0.064777404
48	0xbcb6fef3	-0.022338366
49	0x3e05b75f	0.13058232
50	0xbd84af4e	-0.06478749
51	0x3f3dcaef	0.7413778
52	0x3e981cfc	0.29709613
53	0xbda14ceb	-0.07875999
54	0x3de82736	0.11335604
55	0xbdd01d94	-0.101618916
56	0x3e91bad0	0.2846284
57	0x3e9705d4	0.29496634
58	0xbcae2764	-0.021259017
59	0xbdc9e428	-0.098579705
60	0x3df9fe5f	0.122067206
61	0x3f29de53	0.66354865
62	0x3eb0a9ac	0.3450445
63	0x3dd1aa2f	0.10237538
64	0xbcd1217b	-0.02552866
65	0xbd179245	-0.037004728
66	0xbd0fc551	-0.035100285
67	0xbe052176	-0.13001046
68	0xb95146e0	-0.00019958196
69	0x3ea70c27	0.3262646
70	0x3eaf6737	0.34258434
71	0x3dfef766	0.12449531
72	0x3c91023d	0.017701263
73	0x3ebd4e8d	0.36973992
74	0xbd8f8a62	-0.07008816
75	0x3e9ec512	0.31009728
76	0x3ec57d20	0.38572025
77	0x3ed4c77f	0.41558453
78	0x3d6919cb	0.056909364
79	0x3e68013e	0.22656724
80	0x3eb2bdbe	0.34910387
81	0x3dc80328	0.09766227
82	0x3dc518a8	0.096238434
83	0xbdf4c37f	-0.119513504
84	0x3c8e6bc6	0.017385375
85	0x3e83242e	0.2561354
86	0x3d312388	0.043246776
87	0x3d86977d	0.06571863
88	0xbda36782	-0.07978727
89	0x3e9e951c	0.30973136
90	0xbac4cf6d	-0.0015015431
91	0x3d9dfa1f	0.077137224
92	0x3cdbdcc8	0.026838675
93	0x3dbff18e	0.09372245
94	0x3e729df3	0.23693065
95	0x3d1769a0	0.036965966
96	0x3d8e9248	0.06961495
97	0x3ba2e053	0.004970589
98	0xbcd2ada0	-0.025717556
99	0x3d0feede	0.03513991
