linear/leakyRelu/pow2.onnx (onnx, 134014 bytes, 9 tensors)

hidden_layer1.weight f4 [100, 1]
0	0x3e2c7cfb	0.16844551
1	0xbe7387da	-0.23782292
2	0x3ef1d339	0.47231463
3	0xbd301479	-0.042988274
4	0x3f08d338	0.53447294
5	0x3ed48419	0.41507033
6	0xbe7f3d4e	-0.2492573
7	0x3e5897b4	0.2115162
8	0x3e1908f9	0.14944829
9	0x3cc88e8c	0.024482034
10	0x3ee8d017	0.4547126
11	0x3eb7ebd0	0.35922098
12	0x3ec6642a	0.38748294
13	0xbcf2a842	-0.029621247
14	0x3e9720de	0.29517263
15	0xbf022645	-0.50839645
16	0x3e8e9c5c	0.27853668
17	0x3d6dcb3a	0.05805514
18	0x3c83d199	0.016091155
19	0xbebd3fc6	-0.36962718
20	0x3eedaf5f	0.4642286
21	0x3e2212d7	0.158275
22	0xbe917374	-0.28408396
23	0x3e1c0f42	0.15240195
24	0x3e7d09aa	0.24710718
25	0xbe9987b1	-0.29986337
26	0x3d551eff	0.052031513
27	0x3e687860	0.2270217
28	0x3ea3e9ec	0.32014406
29	0x3f0faa59	0.56119305
30	0x3e047ebe	0.12938973
31	0x3dddbd6e	0.108271465
32	0xbe12ef90	-0.14349198
33	0x3efc541d	0.49282923
34	0x3e828e13	0.2549902
35	0xbf0d6f6e	-0.55248153
36	0x3e1419ff	0.14463042
37	0xbebcfdef	-0.36912486
38	0x3eabc14b	0.33545908
39	0x3e449310	0.19196725
40	0x3e8334f4	0.25626338
41	0x3e6c78ba	0.23092929
42	0x3f14cbe6	0.58123624
43	0xbcdab22d	-0.026696289
44	0x3d0a3ba9	0.033748303
45	0x3e27985a	0.16366711
46	0x3e586909	0.21133818
47	0xbf0268a9	-0.5094095
48	0xbe1c9025	-0.15289362
49	0x3e9e7324	0.3094722
50	0xbeed13fa	-0.46304303
51	0x3e8aabc9	0.27084187
52	0x3df244e2	0.118295446
53	0x3b8e27ee	0.004338256
54	0x3e890f17	0.26769325
55	0x3d0db7e3	0.034599196
56	0x3ebed9f6	0.37275666
57	0x3e611111	0.21979167
58	0x3e8b7cb4	0.27243578
59	0x3dc75860	0.09733653
60	0x3e504f30	0.20342708
61	0x3eeaf199	0.4588745
62	0x3e018d42	0.12651542
63	0x3d877dc7	0.06615787
64	0xbef9b86d	-0.48773518
65	0xbec7cea0	-0.3902483
66	0x3dac88d1	0.08424533
67	0xbe86348c	-0.26211965
68	0x3e168d53	0.14702348
69	0xbd22f63e	-0.039785616
70	0x3da95ce0	0.082696676
71	0x3d17894c	0.03699617
72	0x3e2a3056	0.16620001
73	0xbee5b612	-0.4486547
74	0x3de61ba3	0.1123574
75	0xbda8cbd7	-0.08242004
76	0x3eb0ecf3	0.34555778
77	0x3ded1633	0.115765
78	0x3d0ec98b	0.034860175
79	0x3efc5dae	0.49290222
80	0x3e813cda	0.2524174
81	0x3c22c383	0.009934309
82	0x3e39dea7	0.18151341
83	0x3e39f906	0.18161401
84	0x3e1f7ff6	0.15576157
85	0x3bf09d75	0.007342989
86	0x3eb72eaf	0.35777804
87	0x3d9d2984	0.07673934
88	0xbde366ba	-0.11103578
89	0x3ea4168f	0.3204846
90	0xbef02b9b	-0.46908268
91	0x3ebe9a7f	0.37227246
92	0xbf0c04e4	-0.5469496
93	0xbc1ff99e	-0.009764103
94	0x3e914e16	0.28379887
95	0xbe8468da	-0.25861245
96	0x3da8be24	0.082393914
97	0x3def5107	0.116853766
98	0x3db43f46	0.08801131
99	0xbe278fc8	-0.16363442

hidden_layer1.bias f4 [100]
0	0x3f0b4985	0.54409057
1	0xbf58514b	-0.84499043
2	0xbf550110	-0.83204746
3	0x3e11bbd7	0.14231811
4	0xbf56f5ca	-0.83968794
5	0xbf6c1c6c	-0.9223087
6	0xbebe5a58	-0.37178302
7	0xbf124feb	-0.57153195
8	0x4017d0c8	2.372118
9	0xbec4cba0	-0.38436604
10	0xbf7ac2bd	-0.979534
11	0xbd439cfe	-0.04775714
12	0xbf58b99d	-0.84658223
13	0xbf3af3fc	-0.7302854
14	0xbf8cceb1	-1.1000577
15	0xbffa0fef	-1.9536113
16	0x3f1e4c8f	0.6183557
17	0x3f6e10e2	0.9299451
18	0x3f244650	0.6416979
19	0xbf71b81c	-0.94421554
20	0xbfbbafee	-1.4663064
21	0xbecb08e0	-0.3965521
22	0xbf09fab7	-0.53898185
23	0x401ae0d4	2.4199724
24	0xbf9fd45f	-1.2486686
25	0xbf8c8743	-1.0978779
26	0x3f549090	0.83033085
27	0x3f27399e	0.6532229
28	0xbf1f14a4	-0.6214087
29	0xbf8b5f9c	-1.0888553
30	0x3ddd3157	0.108004265
31	0x3fddf2e0	1.7339745
32	0xbf181956	-0.5941366
33	0xbf1bd55a	-0.60872424
34	0xbefac8be	-0.4898128
35	0xc00865b5	-2.1312077
36	0x3e984930	0.29743338
37	0xbf7774e0	-0.9666271
38	0x3e268d2a	0.16264787
39	0x3d82ceb1	0.063870795
40	0xbf8e8633	-1.1134704
41	0xbf074a83	-0.5284807
42	0xbfa214da	-1.2662613
43	0xbf338048	-0.70117617
44	0x3e9ab888	0.3021891
45	0xbf53f459	-0.8279472
46	0x3f0915d2	0.5354892
47	0xbffe3229	-1.9859058
48	0xbe5f442b	-0.21803348
49	0x3e88c700	0.26714325
50	0xbff0676c	-1.8781562
51	0x3e8e8a8b	0.27840075
52	0x3ff1317d	1.8843228
53	0xbd9058cb	-0.07048186
54	0x3ccd5a7a	0.025067557
55	0x3f0d3ae7	0.55168
56	0xbfa8ba0c	-1.3181777
57	0x3e9911ab	0.29896292
58	0x3ee641cb	0.4497207
59	0x3fc7cc3d	1.5609204
60	0xbeadf232	-0.33973843
61	0xbeed7306	-0.46376818
62	0x4001d57c	2.028655
63	0x3f8750f4	1.057158
64	0xbfcaa692	-1.5832083
65	0xbfb458dc	-1.4089618
66	0x3f43aa10	0.7643137
67	0xbeba0e02	-0.36338812
68	0x3f23c0d4	0.6396611
69	0x3d9f141a	0.07767506
70	0x3fa94a97	1.3225888
71	0x3f170d0d	0.5900429
72	0xbef34eb1	-0.47520974
73	0xbf837927	-1.0271348
74	0x3fe6c906	1.8030097
75	0xbea9064a	-0.3301261
76	0xbfb83aae	-1.4392908
77	0xbe0904fb	-0.13380806
78	0x3f0e515d	0.555929
79	0xbf98d0ab	-1.193868
80	0xbfa40d4f	-1.2816561
81	0x3e227862	0.15866235
82	0xbf6a8c67	-0.91620487
83	0xbe81e6a6	-0.25371283
84	0x3f2631eb	0.6491992
85	0xbf37da69	-0.7181764
86	0xbf6cd70b	-0.9251563
87	0xbe7f4709	-0.24929442
88	0x3d99cb53	0.07509484
89	0x3e71aeec	0.23601884
90	0xbf9a3b7a	-1.2049401
91	0xbf96baed	-1.1775795
92	0xc0030660	-2.047264
93	0xbe227da5	-0.15868242
94	0x3eca0e33	0.39463958
95	0xbf5b2fed	-0.85620004
96	0x3fa860fb	1.3154596
97	0xbf16e80a	-0.58947814
98	0x3fb46518	1.4093351
99	0xbed42eeb	-0.41442046

hidden_layer2.weight f4 [100, 100]
0	0x3d67cc03	0.056591045
1	0x3ca7ef29	0.020499783
2	0xbca8d78a	-0.02061059
3	0x3dd420c9	0.10357816
4	0x3d83dc12	0.064384595
5	0x3d0b2147	0.033967283
6	0x3e0a0c1a	0.13481179
7	0xbd0bec35	-0.03416081
8	0x3d993a54	0.07481828
9	0xbccaa988	-0.024739042
10	0x3cd45262	0.02591819
11	0x3c2b8018	0.010467552
12	0xbd9ad95f	-0.075609915
13	0x3bfb3e6e	0.0076673543
14	0xbd862655	-0.0655028
15	0xbd0197c6	-0.031638883
16	0x3d8a734f	0.067602746
17	0xbda2b0aa	-0.07943852
18	0xbc80220e	-0.015641239
19	0x3d93d335	0.07218019
20	0x3d390306	0.0451689
21	0xbdb6369e	-0.08897136
22	0xbccd85be	-0.025088187
23	0xbd544f0c	-0.051833197
24	0xbd411b0e	-0.047144942
25	0x3dc754d3	0.09732976
26	0x3bc7c2b4	0.0060962085
27	0xbdf6beb4	-0.120480925
28	0x3d40439c	0.046939477
29	0xbcc482b2	-0.023988102
30	0xbd9e6ade	-0.07735227
31	0x3c54bab9	0.012983971
32	0xbd3e8b8d	-0.046519805
33	0xbdb4da57	-0.088307075
34	0xbd64ad90	-0.055829585
35	0xba6dba34	-0.0009068579
36	0xbda58420	-0.080818415
37	0x3d8933b2	0.06699313
38	0x3d1fc31c	0.03900443
39	0x3d36ea4a	0.04465703
40	0xbdb7dbc4	-0.08977464
41	0x3c5a6247	0.013329095
42	0xbb9befb0	-0.0047587976
43	0x3d9035d3	0.07041516
44	0xbda1d065	-0.07901076
45	0xbd511dc4	-0.051053777
46	0xbd0a4b7e	-0.0337634
47	0x3d25cbe1	0.040477637
48	0x3d5fa754	0.054602936
49	0xbd4896d1	-0.048971955
50	0x3e05cc4a	0.13066211
51	0x3d54a02b	0.05191056
52	0x3dcb8d26	0.09939031
53	0xbd494434	-0.04913731
54	0x3cc240ef	0.023712603
55	0x3de7aa9f	0.1131184
56	0x3d812154	0.06305185
57	0xbc897dc4	-0.016783603
58	0xbd5cf7b9	-0.053947184
59	0x3c91ac8e	0.017782476
60	0xbd16828c	-0.036745593
61	0xbd8e9fbd	-0.069640614
62	0x3cfbbc1b	0.030729344
63	0x3d4ec2d4	0.05047877
64	0xbd045a13	-0.032312464
65	0x3dfcce12	0.12343992
66	0xbd9eb430	-0.07749212
67	0x3dcc64b9	0.09980149
68	0xbcd114ce	-0.025522616
69	0xbbb61282	-0.0055564055
70	0x3d93e5f2	0.07221593
71	0x3d8e6269	0.06952364
72	0xbb8e8539	-0.0043493775
73	0x3d753216	0.05986222
74	0xbb8c24ee	-0.0042768633
75	0xbd263879	-0.0405812
76	0x3d3d91b9	0.04628155
77	0x3d1275ff	0.03575706
78	0x3d9e4d8f	0.07729637
79	0x3d66b43d	0.056324232
80	0x3d1921a6	0.037385605
81	0x3d1fae36	0.0389845
82	0x3d160e1a	0.036634542
83	0xbd930c43	-0.07180073
84	0xbd2f4b2c	-0.0427963
85	0x3d9a7d43	0.07543423
86	0xbdcf49de	-0.10121511
87	0x3dadf170	0.08493316
88	0x3dea0b3f	0.11427926
89	0x3d8c0bc0	0.06838179
90	0x3e16987f	0.1470661
91	0xbccc6632	-0.024951074
92	0x3d8367b5	0.06416265
93	0xbc8094c8	-0.015695944
94	0x3da34cbd	0.07973621
95	0xbd83d8f4	-0.06437865
96	0xbdab17fc	-0.08354184
97	0xbd87f0b5	-0.06637708
98	0xbd80350a	-0.062601164
99	0x3ddc40f7	0.107545786
100	0x3b2caeaa	0.0026349225
101	0x3c398a97	0.011324546
102	0x3dde9099	0.108674236
103	0xbda1164c	-0.07865581
104	0x3da94efa	0.08267017
105	0x3dd8fe59	0.10595388
106	0x3dcab2e2	0.098974004
107	0x3dd31acf	0.10307848
108	0xbdc1b03c	-0.09457442
109	0x3c4a4b5c	0.012347069
110	0x3cd7363f	0.026270984
111	0x3dd4d7c5	0.10392717
112	0xbca6357b	-0.020289173
113	0x3d5edf5c	0.05441223
114	0xbc94e793	-0.01817683
115	0x3d3abeaf	0.045592006
116	0xbda24a52	-0.07924332
117	0x3d3d6383	0.04623748
118	0x3d935d96	0.071955845
119	0x3d2a092a	0.041512646
120	0x3ca0cf6c	0.019630156
121	0x3ca43834	0.020046331
122	0xbcb2aabe	-0.021809932
123	0xbcfba86f	-0.030719964
124	0x3dbb80e5	0.09155444
125	0x3cdf6287	0.027268661
126	0xbdb31673	-0.08744516
127	0x3cde88a6	0.027164768
128	0x3d64939b	0.05580483
129	0xbc99cfe0	-0.01877588
130	0xbd3cf902	-0.04613591
131	0xbddd9463	-0.10819318
132	0xbba6958e	-0.0050837463
133	0xbbccaa0f	-0.0062458585
134	0x3dab36be	0.083600506
135	0xbdb02f41	-0.08602763
136	0x3c5e7a08	0.013578899
137	0x3d78a53e	0.060704462
138	0xbd3519b3	-0.04421396
139	0xbda07465	-0.078347005
140	0x3dd4c476	0.103890345
141	0x3dc7f8f7	0.09764283
142	0xbca518cf	-0.020153431
143	0x3dab1ecc	0.083554834
144	0x3d476aa2	0.048685677
145	0x3d910f69	0.070830174
146	0xbdbf940e	-0.09354411
147	0x3cab9d7d	0.02094912
148	0xbdab993b	-0.08378836
149	0x3d02d0b8	0.03193733
150	0x3c315711	0.010823981
151	0x3d8c1674	0.0684022
152	0xbd3d3de8	-0.046201617
153	0xbcecaa48	-0.02888979
154	0x3d1c3ec2	0.038145788
155	0xbd9e8ed1	-0.07742084
156	0x3da75eb6	0.081723616
157	0xbd8be4f0	-0.06830776
158	0x3b7056c5	0.0036672812
159	0xbdf792a1	-0.12088514
160	0x3d5c7598	0.053823084
161	0x3d45bd42	0.048276193
162	0x3c3582a7	0.011078513
163	0x3b9de4e3	0.004818545
164	0xbc43d8c4	-0.011953536
165	0x3cdb75f6	0.026789647
166	0x3d3b427b	0.045717698
167	0x3cf1e1ad	0.029526556
168	0x3d9298df	0.07158064
169	0x3d9c3a4d	0.076283075
170	0xbc78ec41	-0.015193046
171	0x3db9727b	0.090550385
172	0xbd7b1090	-0.061295092
173	0xbd895b04	-0.06706813
174	0x3a3f7c33	0.0007304579
175	0x3b19edde	0.0023487727
176	0x3df2d221	0.11856485
177	0xbdafce55	-0.085842766
178	0x3d2bc345	0.04193427
179	0x3dd0f084	0.10202125
180	0x3d16e824	0.03684248
181	0xbcf5bd5d	-0.029997522
182	0x3c764d13	0.015033024
183	0x3cdeeb43	0.02721179
184	0x3d5b4b8d	0.053538848
185	0x3c6572f0	0.014004454
186	0x3e09bbc9	0.1345054
187	0x3d8ff841	0.070297725
188	0xbc987c0e	-0.018613841
189	0x3dcd69fb	0.1002998
190	0xbc6a309e	-0.014293818
191	0xbd1031b3	-0.035203647
192	0xbc78871d	-0.015168932
193	0x3b9ff7e0	0.004881844
194	0xb99bce31	-0.00029717528
195	0xbd809878	-0.06279081
196	0xbdae8d66	-0.08523063
197	0xba25dae0	-0.00063268654
198	0xbdd382e6	-0.10327701
199	0x3c43d899	0.011953496
200	0xbdc73f95	-0.09728924
201	0xbb7f7abf	-0.0038983074
202	0x3d9c217d	0.07623575
203	0x3b86b88b	0.0041113547
204	0xbd86cdee	-0.06582247
205	0xbbd147ec	-0.0063867476
206	0xbcc78232	-0.024354074
207	0x3d9cea78	0.07661909
208	0xbcc4e13f	-0.024033187
209	0x3d245f3f	0.040129896
210	0xbc524db4	-0.012835909
211	0x3caa9bec	0.020826302
212	0x3ce2cd50	0.027685791
213	0xbb0e62e9	-0.0021726436
214	0xbdb42b78	-0.087973535
215	0xbbd3ccd1	-0.006463625
216	0x3b723c0b	0.0036962058
217	0x3c454386	0.012040025
218	0xbdb31e73	-0.08746042
219	0xbdd5a019	-0.10430927
220	0x3d79ca18	0.060983747
221	0x3d52f012	0.05149848
222	0xbdb8ff4a	-0.090330675
223	0xbceb556f	-0.028727261
224	0xbdb7a186	-0.08966355
225	0xbda79538	-0.08182758
226	0x3cc1ad55	0.023642221
227	0xbc153a08	-0.009108074
228	0xbcf54ee4	-0.029944845
229	0xbd1d8e32	-0.038465686
230	0x3cc5554a	0.02408852
231	0x3d00e925	0.031472344
232	0x3d655501	0.05598927
233	0xbdab0207	-0.08349996
234	0x3c43cf8d	0.011951339
235	0x3da43ac1	0.08019019
236	0x3d996fd4	0.07492033
237	0xbd5a9bb6	-0.053371154
238	0x3cd720a4	0.026260681
239	0xbbec394c	-0.0072089788
240	0xbd14e945	-0.036355276
241	0x3dbb7251	0.091526635
242	0x3cd7e76f	0.026355473
243	0xbdb16111	-0.08661092
244	0x3d564b28	0.05231777
245	0x3c927b9a	0.017881203
246	0x364c3720	3.0430456e-06
247	0x3dc27a92	0.09496035
248	0x3d9cf7f9	0.076644845
249	0x3da74569	0.08167536
250	0x3d8fd8b9	0.070237584
251	0x3c73476a	0.014848569
252	0xbdc24d02	-0.09487344
253	0xbd40338f	-0.04692417
254	0xbd6ddaf8	-0.058070153
255	0x3dbad709	0.09123046

hidden_layer2.bias f4 [100]
0	0xbe5f4d9d	-0.21806951
1	0xbde188b9	-0.11012406
2	0x3cc38794	0.02386836
3	0xbdaa5678	-0.08317274
4	0xbe6b1a51	-0.22959258
5	0xbd119e43	-0.03555132
6	0xbbf8aee1	-0.0075892066
7	0x3c2807a7	0.010255731
8	0xbedd0522	-0.4316798
9	0xbd95af78	-0.07308859
10	0xbeb92b63	-0.36165914
11	0xbf384043	-0.71973056
12	0xbe92f237	-0.2870042
13	0xbdbaa90e	-0.09114276
14	0x3d311850	0.043236077
15	0x3e35a861	0.17740013
16	0x3d7d4683	0.061834823
17	0xbdedfb48	-0.11620194
18	0x3d7eb8b8	0.06218788
19	0xbd6c639c	-0.057712182
20	0xbea575e4	-0.32316506
21	0x3cdfb94c	0.027310036
22	0xbd8b9d5b	-0.068171225
23	0x3db91169	0.09036524
24	0x3c828e92	0.015937123
25	0xbe9f00e9	-0.31055382
26	0xbdd6405c	-0.10461494
27	0xbd9d32a5	-0.07675675
28	0xbe31e3e4	-0.1737209
29	0xbc95105c	-0.018196277
30	0xbda35e01	-0.07976914
31	0xbdf090a8	-0.11746341
32	0x3d0f88d7	0.03504261
33	0xbe9c6c89	-0.30551556
34	0x3d90844e	0.07056485
35	0x3de6cb32	0.11269225
36	0x3d8495ff	0.06473922
37	0x3cb88d60	0.02252835
38	0xbe2b9420	-0.16755724
39	0xbe2c6532	-0.16835478
40	0xbd8aaa58	-0.06770772
41	0xbe39cd65	-0.18144758
42	0x3d126d08	0.03574851
43	0xbe9a7bd8	-0.3017261
44	0xbec7fb91	-0.39059117
45	0xbe354135	-0.17700656
46	0xbe85d723	-0.261407
47	0xbd31c6bb	-0.043402415
48	0x3b8ee74b	0.0043610684
49	0xbe52c6f6	-0.2058371
50	0x3c0ac703	0.0084703
51	0x3d583206	0.05278208
52	0xbcd586ba	-0.02606522
53	0xbd99f260	-0.075169325
54	0xbdfe111b	-0.12405606
55	0xbdb3a08e	-0.08770858
56	0xbdb28d6d	-0.08718381
57	0xbc609b45	-0.013708894
58	0xbe5e5413	-0.2171176
59	0xbcdfcc27	-0.027319027
60	0xbd1ee39e	-0.03879129
61	0xbe9cff9e	-0.3066377
62	0xbe3372c1	-0.17524244
63	0xbe4fde2b	-0.20299594
64	0xbd9d310c	-0.076753706
65	0xbf2353a6	-0.6379951
66	0xbf922e4f	-1.1420382
67	0x3d7e4d02	0.06208516
68	0xba7adb44	-0.0009569416
69	0x3da9cd21	0.08291078
70	0xbe0c8123	-0.13721137
71	0xbe91060c	-0.28324926
72	0x3db88e53	0.09011521
73	0xbd99ac1c	-0.075035304
74	0x3c8cff21	0.017211499
75	0x3dbdf78d	0.09275732
76	0x3d2d52e5	0.042315383
77	0x3e012433	0.12611465
78	0xbe22a434	-0.15882951
79	0xbebf5e7a	-0.37376767
80	0x3d9454a9	0.0724271
81	0x3d85dba7	0.06536036
82	0xbe4e41e9	-0.2014233
83	0xbf2bbcfa	-0.6708523
84	0xbef1da81	-0.47237018
85	0x3e0da41b	0.13832133
86	0xbcc718bd	-0.024303788
87	0xbdd00f4b	-0.10159167
88	0x3d609d3c	0.05483745
89	0xbe9b88fb	-0.30377945
90	0x3c3a6756	0.011377176
91	0xbeeb8dee	-0.4600672
92	0x3c870d65	0.01648588
93	0xbdef8f6c	-0.116972774
94	0xbea0d041	-0.31408885
95	0xbe11e389	-0.14246954
96	0xbe55abc9	-0.20866312
97	0xbda590ce	-0.0808426
98	0xbe34b7cc	-0.17648238
99	0xbeeceb77	-0.46273395

hidden_layer3.weight f4 [100, 100]
0	0xbd49f203	-0.049303066
1	0x3ba5857c	0.005051313
2	0xbcc0d90b	-0.023540994
3	0xbd593d97	-0.053037252
4	0xbdbd0649	-0.092297144
5	0xbbaf58df	-0.0053511704
6	0x3a4ac28f	0.000773468
7	0x3d12f1cc	0.035875127
8	0x3dc28c31	0.09499396
9	0xbc4cf67c	-0.012509938
10	0x3cd0dc0c	0.025495552
11	0xbdc097ea	-0.09403975
12	0x3d4552c1	0.048174623
13	0x3cc1d441	0.02366078
14	0x3d894317	0.067022495
15	0x3cf82c10	0.030294448
16	0xbca67b6e	-0.020322528
17	0xbd53bff2	-0.051696725
18	0x3dcf7d46	0.10131316
19	0xbd279b4a	-0.04091958
20	0x3da8613e	0.082216725
21	0xbdaecd94	-0.08535305
22	0xbdaf04ff	-0.08545875
23	0x3dc860a3	0.09784057
24	0xbbc2d135	-0.0059453496
25	0x3b93dc71	0.0045123626
26	0x3cc39901	0.023876669
27	0x3bea1575	0.007143671
28	0x3ce0b390	0.027429372
29	0x3ce594f4	0.028025128
30	0x3d467eb8	0.048460692
31	0x3dc65605	0.09684376
32	0x3ce6325e	0.028100189
33	0xbcf3e3bd	-0.02977168
34	0xbd88dc16	-0.06682603
35	0x3c638076	0.013885608
36	0x3dbcb367	0.09213906
37	0x3dbd9a82	0.09257986
38	0x3d62e9cf	0.05539876
39	0xbc921724	-0.0178333
40	0x3dbd3ec7	0.092404895
41	0xbd98ec34	-0.07466927
42	0x3cbe8ac3	0.023259526
43	0xbda28465	-0.079354085
44	0xbda91291	-0.082554944
45	0xbdb47d28	-0.08812934
46	0x3d710a66	0.058847807
47	0x3d2280fe	0.039673798
48	0xbcedf001	-0.029045107
49	0xbc7763b6	-0.0150994565
50	0x3d95d85d	0.07316659
51	0x39d68028	0.00040912745
52	0xbd65e0ae	-0.056122474
53	0x3d48730f	0.048937853
54	0x3d370b22	0.04468835
55	0x3d2f0145	0.04272582
56	0xbdac2052	-0.08404602
57	0xbd61735c	-0.055041656
58	0xbbf76d05	-0.007550838
59	0xbd61a768	-0.05509129
60	0xbd2cb08d	-0.04216056
61	0x3d32e2d7	0.043673363
62	0xbc009fdf	-0.007850616
63	0xbd6cc621	-0.057806138
64	0xbd771d90	-0.060330927
65	0x3be1f2e3	0.0068954094
66	0x3d9d4a3e	0.07680176
67	0xbc530415	-0.012879391
68	0xbcc8c249	-0.024506705
69	0xbd91a47c	-0.07111451
70	0xbd9c35e3	-0.076274656
71	0xbdb60ffb	-0.08889767
72	0x3da02662	0.07819821
73	0x3ccad8a2	0.024761502
74	0xbd9999ec	-0.075000614
75	0x3c9f2bff	0.019430159
76	0x3bb8ba12	0.0056374157
77	0x3da2530d	0.07925997
78	0xbce7fd35	-0.02831898
79	0xbdb3609a	-0.0875866
80	0xbc9697f5	-0.018383006
81	0x3c3e7093	0.0116235195
82	0xbd7aea70	-0.061258733
83	0x3c834133	0.0160223
84	0x3d034be8	0.03205481
85	0x3c55d51e	0.013051299
86	0xbc8d55bb	-0.017252794
87	0x3cad691c	0.021168284
88	0xbd7275b5	-0.059194285
89	0xbdbaef75	-0.09127704
90	0xbcccdc5f	-0.025007425
91	0xbdc82ef1	-0.09774578
92	0x3cb06f63	0.021537488
93	0x3d50223c	0.0508139
94	0xbdb60990	-0.08888543
95	0x3d62be5d	0.055357326
96	0xbd02afb1	-0.031905834
97	0xbdc9b16c	-0.09848294
98	0xbd5afd5f	-0.05346429
99	0xbd390bd6	-0.045177303
100	0x3d612ffc	0.054977402
101	0xbd8948f1	-0.067033656
102	0x3d8e7154	0.069552094
103	0xbcefef86	-0.029289018
104	0xbaccb5b4	-0.0015618117
105	0x3dd54018	0.104126155
106	0x3d35e73c	0.044409975
107	0xbdc6e5ac	-0.09711775
108	0x3df2f832	0.11863746
109	0xbce6e397	-0.028184695
110	0xbd88d7e1	-0.06681801
111	0x3c7fa028	0.015602149
112	0x3cd80697	0.02637033
113	0xbd60e66e	-0.054907255
114	0x3cade001	0.021224977
115	0xbc0c59fb	-0.008566375
116	0xbdb43a3b	-0.08800169
117	0xba901f08	-0.0010995576
118	0x3dbbd2c2	0.09171058
119	0x3b818d60	0.003953621
120	0x3d7c93d1	0.061664406
121	0xbd0ab08f	-0.033859786
122	0xbd32ad1f	-0.043622132
123	0xbc1310a9	-0.00897614
124	0xbbaea173	-0.005329305
125	0x3d6979fc	0.0570011
126	0x3c91ba03	0.017788893
127	0x3b9e482f	0.0048303823
128	0xbcb3b0d5	-0.021934906
129	0x3da3c3fb	0.07996365
130	0xbd186aa5	-0.03721108
131	0x3d91b0cf	0.07113802
132	0x3c0ea0d7	0.008705339
133	0xbda0870e	-0.0783826
134	0xbdba79e5	-0.09105281
135	0x3d86c0a9	0.06579716
136	0xbd38726b	-0.045030992
137	0xbd17bcb8	-0.03704521
138	0x3cc66369	0.024217324
139	0x3dc77cfc	0.09740636
140	0xbd506798	-0.050880045
141	0x3e0ec5d6	0.13942656
142	0xbd8cebee	-0.068809375
143	0x3cbb4673	0.022860741
144	0x3dba5ab5	0.09099332
145	0x3d4785a7	0.048711445
146	0x3dcd49ff	0.10023879
147	0x3db0f829	0.08641083
148	0x3d946e50	0.07247603
149	0x3ded7d8f	0.11596214
150	0x3cbd8468	0.023134425
151	0xbd10f881	-0.03539324
152	0x3d1e5add	0.038660873
153	0xbd89bff5	-0.06726066
154	0x3d76c7f3	0.06024928
155	0xbd3903a0	-0.045169473
156	0xbd89adf3	-0.06722631
157	0xbdc5b545	-0.09653715
158	0xbc34680f	-0.011011138
159	0x3d2d9572	0.04237885
160	0x3dbd8410	0.092537045
161	0x3d991873	0.074753664
162	0x3d7f40e5	0.062317748
163	0x3df50819	0.11964435
164	0xbdb9fa7e	-0.09080981
165	0x3dafbce1	0.08580948
166	0xbcb6920b	-0.022286436
167	0x3d1e8efe	0.038710587
168	0x3d2003e9	0.03906623
169	0xbc41409d	-0.01179519
170	0xbd6bbac8	-0.057551175
171	0x3d21814b	0.039429944
172	0xbc754aa3	-0.014971408
173	0xbdd30db4	-0.10305348
174	0x3d32ed6b	0.04368345
175	0xbb48982d	-0.0030608282
176	0xbd8ac576	-0.06775944
177	0x3d8cef53	0.06881585
178	0xbcce6bcb	-0.025197884
179	0x3d8a987d	0.06767366
180	0xbda467a3	-0.0802758
181	0x3ba4a3c5	0.0050244057
182	0x3c9b0b42	0.018926267
183	0x3daaadb2	0.08333911
184	0x3d704d84	0.058667675
185	0x3c24e782	0.010064961
186	0xbca7f11b	-0.02050071
187	0x3dab4e99	0.08364601
188	0xbd8f4095	-0.0699474
189	0x3d1acec7	0.037794854
190	0xbaca2f94	-0.0015425556
191	0x3e145e57	0.14489113
192	0x3a0a3086	0.0005271513
193	0x3db55f3a	0.08856054
194	0xbbf183df	-0.0073704566
195	0xbd2bd55a	-0.041951515
196	0x3dba03de	0.09082769
197	0x3c85bb9a	0.016324807
198	0x3e09638b	0.13416879
199	0x3d44fb8a	0.04809145
200	0xbd22c1ab	-0.039735477
201	0x3db35ea5	0.087582864
202	0x3d6d4945	0.057931203
203	0xbdad4556	-0.084604904
204	0x3cea2c16	0.028585475
205	0x3de28d94	0.1106216
206	0x3d747503	0.059681904
207	0xbc891cda	-0.01673739
208	0x3ddca343	0.10773327
209	0xbd889333	-0.06668701
210	0xbd8a341c	-0.0674822
211	0x3e1afb88	0.15135014
212	0x3d29e873	0.041481446
213	0xbdc0b8fe	-0.094102845
214	0x3d9c4a54	0.076313645
215	0xbddeaca6	-0.10872774
216	0xbda5991f	-0.08085846
217	0x3c3e7dee	0.011626704
218	0xbbabc11e	-0.005241527
219	0x3d813f4b	0.063109
220	0x3dc1dc64	0.09465864
221	0x3d83c3ba	0.06433816
222	0xbd924205	-0.071414985
223	0xbc165d72	-0.009177553
224	0xbdb42772	-0.08796586
225	0x3db2dd43	0.087336086
226	0x3d5091d0	0.050920308
227	0x3cedc423	0.02902419
228	0x3db9c98d	0.09071646
229	0x3dc0948e	0.094033346
230	0x3cebf06e	0.02880117
231	0xbd71f6d5	-0.059073288
232	0xbd00e331	-0.031466667
233	0x3d4b89a7	0.049691822
234	0xbdaadfae	-0.08343445
235	0xbdb942df	-0.09045958
236	0xbd9b2f7a	-0.07577415
237	0x3dcee37c	0.10101983
238	0xbda53ba0	-0.08068013
239	0xbd226b56	-0.039653145
240	0xbd2dc373	-0.042422723
241	0x3c978688	0.018496767
242	0x3c90f2ce	0.017693903
243	0xbc808266	-0.015687179
244	0x3dc4d587	0.096110396
245	0x3db3da80	0.0878191
246	0xbce53258	-0.027978107
247	0xbc053233	-0.008129644
248	0x3cdd4993	0.027012622
249	0x3d9480b6	0.07251112
250	0xbd54fefb	-0.05200098
251	0xbd9ad12c	-0.075594276
252	0x3da309bb	0.0796084
253	0x3c781227	0.015141047
254	0xbd73409f	-0.0593878
255	0xbae74d20	-0.0017646886

hidden_layer3.bias f4 [100]
0	0x3dc36bb0	0.09542024
1	0xbcfbc18e	-0.030731943
2	0xbe880862	-0.26568896
3	0xbaec96aa	-0.0018050272
4	0xbc196c12	-0.009364145
5	0xbdcb880d	-0.09938059
6	0x3d6fc192	0.058534212
7	0x3ddbf01f	0.10739159
8	0xbd6edd47	-0.058316495
9	0xbc9d68cd	-0.019215012
10	0x3d1bd969	0.038049135
11	0xbe50894b	-0.20364873
12	0x3d3717d7	0.04470047
13	0xbe6a756d	-0.22896357
14	0xbea94521	-0.33060554
15	0xbc6d1e08	-0.014472492
16	0x3d1c2a20	0.03812611
17	0xbe809a24	-0.251176
18	0x3caab5c8	0.020838633
19	0xbcf3454d	-0.029696131
20	0x3d71b20f	0.0590077
21	0x3dc61bda	0.09673281
22	0x3c9e5298	0.019326493
23	0xbcb22a29	-0.02174862
24	0xbd5b3541	-0.053517584
25	0xbd052ca7	-0.032513287
26	0xbddd53c5	-0.108069934
27	0x3ccfc659	0.025363134
28	0x3dce4868	0.10072404
29	0x3d785fcf	0.060638245
30	0x3c8d1ab0	0.01722464
31	0x3d7fded1	0.062468354
32	0x3da4b24c	0.0804182
33	0xbcc38c46	-0.023870599
34	0xbdb0f7cb	-0.08641013
35	0x3d152e6b	0.03642122
36	0x3c8af6cf	0.01696339
37	0x3d8258f5	0.063646235
38	0xbd8c88bf	-0.0686202
39	0xbdf50f91	-0.1196586
40	0xbdecf7d7	-0.11570709
41	0xbe3ea2e2	-0.18616822
42	0xbde50735	-0.11183015
43	0xbbef01ca	-0.0072939144
44	0xbd3e837a	-0.046512105
45	0xbd8b002f	-0.067871444
46	0x3ccdb515	0.02511076
47	0xbe814df2	-0.2525478
48	0xbd99bd7a	-0.07506843
49	0xbe1f168b	-0.15535943
50	0x3d955494	0.072915226
51	0xbdb8212d	-0.08990703
52	0xbb301bbb	-0.0026871997
53	0x3d631e3c	0.055448756
54	0x3dc5568d	0.09635649
55	0xbdfc4359	-0.12317533
56	0x3c14dd6a	0.009085992
57	0xbe203990	-0.15646958
58	0x3d18c547	0.037297513
59	0xbe04e233	-0.12976913
60	0xbcec8232	-0.028870676
61	0xbe024783	-0.12722592
62	0xbdc2a3ba	-0.095038846
63	0xbdf99d1d	-0.1218817
64	0x3c384698	0.0112473
65	0xbcb25853	-0.021770632
66	0xbebc7dd1	-0.3681474
67	0xbda870b9	-0.08224625
68	0xbd5e3f7e	-0.05425977
69	0xbe2f9dd9	-0.17150058
70	0xbda3220b	-0.079654776
71	0x3d3fda96	0.04683932
72	0x3d4069cd	0.0469759
73	0xbe0cd8bd	-0.13754554
74	0xbca8a06b	-0.020584306
75	0xbd807d83	-0.062739395
76	0xbe400e7c	-0.18755525
77	0x3d59a477	0.05313536
78	0xbdf54feb	-0.11978134
79	0xbc9bd0bc	-0.01902043
80	0xbd556e54	-0.05210717
81	0xbd08b852	-0.033378907
82	0xbcc9d414	-0.02463726
83	0xbb442bd4	-0.002993335
84	0xbe0e9182	-0.13922694
85	0xbe24badf	-0.1608691
86	0xbda2d897	-0.079514675
87	0xbe1d9cb0	-0.15391803
88	0xbd74c6f0	-0.059760034
89	0xbe37af18	-0.17937887
90	0x3db163f7	0.08661645
91	0x3d40f52f	0.047108825
92	0xbe1d8569	-0.15382923
93	0xbd2c3cdf	-0.04205024
94	0xbd85323f	-0.06503724
95	0xbde7fac8	-0.113271296
96	0xb9e1087a	-0.0004292166
97	0xbe522898	-0.20523298
98	0xbd806f23	-0.06271198
99	0xbcedf322	-0.029046599

hidden_layer4.weight f4 [100, 100]
0	0x3d263ba8	0.040584236
1	0xbda916a6	-0.08256273
2	0x3db21e4f	0.08697187
3	0xbdade656	-0.08491199
4	0xbd6813df	-0.056659576
5	0x3d68425e	0.056703918
6	0xbd3ef72f	-0.04662245
7	0x3d1451ee	0.036210947
8	0x3cff4b2f	0.03116378
9	0xbc13d80c	-0.009023678
10	0xbbd74fd8	-0.0065707974
11	0x3da760cb	0.08172759
12	0xbc1ff780	-0.009763598
13	0x3c353c0e	0.011061681
14	0xbce398b6	-0.02778278
15	0xbd966847	-0.07344108
16	0xbd1c34c7	-0.03813627
17	0xbd1a0939	-0.03760645
18	0xbd05ba9c	-0.032648668
19	0x3d4f1f19	0.050566766
20	0xbd9f8245	-0.07788519
21	0x3c5f6358	0.013634525
22	0x3bf60100	0.0075074434
23	0xbb6ec07b	-0.0036430645
24	0x3d3cf7a7	0.046134617
25	0xba3c440e	-0.0007181772
26	0xbda66ac4	-0.08125833
27	0xbc459856	-0.0120602455
28	0xbd979877	-0.07402127
29	0x3bf5ab2a	0.007497211
30	0x3d4a2b72	0.04935784
31	0x3c60dd82	0.013724687
32	0x3da6abd9	0.08138246
33	0x3bb3558b	0.005472844
34	0xbd6d6e93	-0.05796678
35	0x3ca7e206	0.020493519
36	0xbd0dcd2c	-0.034619495
37	0x3d16ca48	0.036814004
38	0xbdb4eed9	-0.08834619
39	0x3d97958d	0.074015714
40	0x3d2ac947	0.04169586
41	0x3d59676d	0.05307715
42	0xbd894845	-0.067032374
43	0xbda88cfa	-0.08230014
44	0x3ccedd8c	0.025252126
45	0x3d6bfcf8	0.057614297
46	0xbd5120e8	-0.051056772
47	0xbd4a2562	-0.049352057
48	0xbdcd9a2d	-0.10039172
49	0x3d39fb22	0.045405515
50	0xbc430906	-0.011904007
51	0x3b4c9f12	0.0031222743
52	0xbcbeb3f7	-0.023279173
53	0x3da6e169	0.08148462
54	0xb986ef99	-0.00025736986
55	0xbc0ec93d	-0.008714971
56	0xbc6a8677	-0.0143142855
57	0xbcaa44bd	-0.02078473
58	0x3ce7a286	0.02827574
59	0x3ca20f4c	0.019782685
60	0xbd922ebc	-0.0713782
61	0xbdb1bc2b	-0.08678468
62	0xba388de1	-0.00070401846
63	0x3cd56760	0.02605027
64	0xbc2771ae	-0.010219974
65	0x3d525147	0.051347043
66	0xbdd6b599	-0.10483856
67	0x3db11bea	0.08647902
68	0x3da7465a	0.08167715
69	0xbdb7cf3b	-0.08975073
70	0x3d54f5d4	0.051992252
71	0xbcb06c49	-0.02153601
72	0x3cc88b22	0.024480406
73	0x3cc44c3c	0.023962133
74	0xbd776124	-0.060395375
75	0x3cc0a29f	0.023515044
76	0xbc2b1b02	-0.010443451
77	0x3b05cdcb	0.0020416852
78	0xbc274e38	-0.01021152
79	0x3c64d8e8	0.01396773
80	0x3d82d0ab	0.063874565
81	0x3ba0981c	0.0049009454
82	0xbd1360c1	-0.035980944
83	0x3a98f0d6	0.0011668454
84	0xbc0d8ece	-0.008640004
85	0x3cd4d509	0.02598049
86	0x3ce51943	0.027966147
87	0x3d0014cf	0.031269845
88	0x3cb06af9	0.021535384
89	0x3d9954e0	0.07486892
90	0xbcde4d97	-0.027136607
91	0x3d1c0ff7	0.038101163
92	0x3db53fdf	0.08850073
93	0xbc3e79c4	-0.011625711
94	0xbdb4a6a1	-0.088208444
95	0x3d537071	0.051620904
96	0xbd36c11f	-0.04461777
97	0xbd5b4c2a	-0.053539433
98	0xbd531296	-0.051531397
99	0x3d3abbc9	0.045589242
100	0xbd8504dc	-0.064950675
101	0x3ca84e79	0.020545231
102	0x3d24f459	0.04027209
103	0xba24c68c	-0.00062856893
104	0xbd905d39	-0.07049031
105	0xbd23b512	-0.039967604
106	0x3d40e264	0.047090903
107	0x3db41fd6	0.08795135
108	0x3dc031a7	0.093844704
109	0x3ca072c7	0.01958598
110	0xbd992e5a	-0.07479544
111	0xbd545ec6	-0.051848195
112	0xbd7ce04b	-0.06173734
113	0x3d56ac14	0.0524102
114	0x3c1d5f39	0.009605222
115	0xbd1713d6	-0.03688415
116	0x3c9b436d	0.01895305
117	0x3db6774b	0.08909472
118	0x3da5a275	0.08087627
119	0x3ccca6f0	0.024981946
120	0x3d81012a	0.0629905
121	0xbd8d8327	-0.06909781
122	0x3db39aa1	0.087697275
123	0x3d8ac730	0.06776273
124	0xbbad4296	-0.0052874787
125	0xbda4f489	-0.08054454
126	0xbc225320	-0.009907514
127	0xbbed2a90	-0.00723774
128	0x3c68fcb1	0.014220403
129	0xbc403dd9	-0.011733496
130	0xbd01c5de	-0.03168284
131	0x3ca1f14b	0.019768378
132	0x3d9652dc	0.07340023
133	0xbd803a90	-0.0626117
134	0x3be488f1	0.0069743325
135	0xbd8aa1db	-0.06769153
136	0xbcc8a84d	-0.024494315
137	0x3cb9c119	0.022675084
138	0xbbef02bf	-0.0072940285
139	0xbdb0e826	-0.08638029
140	0x3c67f0d3	0.014156538
141	0xbcf858bb	-0.030315747
142	0xbd61d8ae	-0.055138282
143	0xbdbae161	-0.09125019
144	0x3d00f32a	0.0314819
145	0xbbbfa52c	-0.0058485474
146	0xbd7249b5	-0.059152324
147	0x3d54449a	0.051823236
148	0xbd8b2f78	-0.06796163
149	0xbd5e7d5a	-0.054318763
150	0x3d3b0d68	0.045667082
151	0xbda2a43a	-0.0794148
152	0xbd5a5c23	-0.053310525
153	0xbd0e7852	-0.034782715
154	0x3da9f2d7	0.08298271
155	0x3d406034	0.046966746
156	0x3d51ab26	0.05118861
157	0xbc1c179e	-0.009527115
158	0x3d344e2e	0.04401987
159	0xbd1ffca0	-0.03905928
160	0x3d3f22f7	0.046664204
161	0xbd93dbe7	-0.072196774
162	0x3dca8708	0.098890364
163	0x3d998a5d	0.07497094
164	0xbce43cb2	-0.027860973
165	0x3d440c77	0.04786345
166	0xbdb71d5b	-0.08941146
167	0xbd698870	-0.057014883
168	0xbdb35a04	-0.087574035
169	0x3d3cc3de	0.04608523
170	0xbdb9c101	-0.09070016
171	0xbd04182b	-0.03224961
172	0x3c334601	0.010941983
173	0xbd14325e	-0.036180846
174	0xbc7bd29b	-0.0153700365
175	0xbc7b210a	-0.015327701
176	0xbd5a901a	-0.053360082
177	0xbdb6b48e	-0.08921157
178	0x3d3558f8	0.0442743
179	0x3d839573	0.064249896
180	0x3d0c8346	0.03430488
181	0x3d5e8a29	0.05433098
182	0x3dc0a38d	0.09406195
183	0xbd10ff17	-0.035399523
184	0xbc4a8f4a	-0.012363264
185	0xbd8f0d87	-0.06985002
186	0x3d444369	0.04791585
187	0xbd956b02	-0.07295801
188	0xbcc98208	-0.024598137
189	0xbdccb742	-0.09995891
190	0xbc9a744d	-0.018854285
191	0xbd9b4cbc	-0.07582995
192	0x39add347	0.00033154545
193	0x3c78ad88	0.015178092
194	0x3d2b4acd	0.041819382
195	0xbd295082	-0.041336544
196	0xbd2a4036	-0.041565143
197	0x3d3d2bce	0.046184354
198	0xbc452a80	-0.012034059
199	0x3bd736c5	0.0065678083
200	0xbd254b46	-0.04035499
201	0xbdbff939	-0.09373707
202	0xbc8acaa1	-0.016942324
203	0x3db7f84b	0.08982905
204	0x3b2f0a53	0.0026709035
205	0x3d0cbb44	0.034358278
206	0x3d366679	0.04453132
207	0x3de38a45	0.11110357
208	0x3ded5ec0	0.11590338
209	0x3c7c5cb5	0.015402962
210	0xbcfa142c	-0.030527197
211	0x3e0cc95b	0.13748686
212	0x3d1bcbef	0.038036283
213	0xbd624497	-0.055241194
214	0xbd71af7e	-0.059005253
215	0xbda8f19a	-0.08249207
216	0xbc52b044	-0.012859408
217	0xbd0e7508	-0.03477958
218	0xbcf13c8d	-0.029447818
219	0x3daa6442	0.08319904
220	0xbdacb628	-0.08433181
221	0x3d9bd1a6	0.07608347
222	0xbd1714c4	-0.036885038
223	0x3da789f4	0.08180609
224	0xbd74a99d	-0.05973207
225	0x3ca433ff	0.020044325
226	0x3dad2f06	0.08456235
227	0xbd1ce592	-0.038304873
228	0x3dcf795c	0.10130569
229	0x3dc4e07c	0.096131295
230	0x3d7ab03a	0.06120322
231	0x3cf8669a	0.030322362
232	0x3d9f13dd	0.077674605
233	0x3ca47e3b	0.020079723
234	0xbdc0688e	-0.09394942
235	0x3dc487b5	0.095961966
236	0x3dc1d1d7	0.09463852
237	0x3d82fba5	0.06395654
238	0xbc0ee202	-0.008720877
239	0xbd5e10fa	-0.05421541
240	0xbcbea941	-0.023274066
241	0xbce44e37	-0.027869327
242	0x3dbf5d0e	0.09343921
243	0xbdbad948	-0.09123474
244	0x3da716cf	0.08158647
245	0x3d13732e	0.035998516
246	0xbd75ff8a	-0.060058154
247	0xbd3553a5	-0.044269223
248	0xbdb15e77	-0.08660596
249	0x3dd1deb6	0.10247557
250	0x3cb5c90c	0.022190593
251	0xbd862336	-0.06549685
252	0x3d777196	0.06041106
253	0x3dd06f1a	0.10177441
254	0x3caafd41	0.020872714
255	0x3d819777	0.06327718

hidden_layer4.bias f4 [100]
0	0xbcee90c0	-0.029121757
1	0x3d690666	0.056890868
2	0xbcdd212c	-0.026993357
3	0xbdc1c041	-0.09460498
4	0xbd8f0256	-0.069828674
5	0x3d1ad3ba	0.037799574
6	0xbd4aa798	-0.049476236
7	0xbd920669	-0.07130129
8	0x3c77927b	0.015110607
9	0xbdf6a2a2	-0.120427385
10	0x3db86969	0.090044804
11	0x3c807e97	0.015685363
12	0xbd0b474a	-0.034003533
13	0x3d9350b5	0.07193128
14	0xbe021a9f	-0.12705468
15	0xbdae5f37	-0.085142545
16	0x3c10e3b3	0.00884335
17	0x3dd4a8b1	0.10383738
18	0xba34d687	-0.0006898422
19	0xbcade7e1	-0.021228733
20	0x3c9a3e71	0.018828603
21	0xbdc12d88	-0.094325125
22	0xbccbc923	-0.024876183
23	0x3d064fb9	0.032790873
24	0xbda8f8f0	-0.08250606
25	0x3d7a822b	0.061159294
26	0x3dc693e9	0.096961804
27	0x3d0e30c9	0.034714494
28	0x3d8d9466	0.069130704
29	0xbd4fb974	-0.05071397
30	0x3cb013ee	0.021493878
31	0xbd7e5f69	-0.06210271
32	0xbe002e16	-0.1251758
33	0x3d7e22a7	0.062044766
34	0xbd9a8614	-0.075451046
35	0xbdf9b715	-0.12193123
36	0xba85c53b	-0.0010205874
37	0xbcbb217c	-0.022843115
38	0x3ba2c1eb	0.0049669645
39	0xbd337f9e	-0.043822877
40	0xbd9d1e30	-0.076717734
41	0xbd7572ff	-0.059924122
42	0xbdc24ef7	-0.094877176
43	0xbc8f0b09	-0.017461317
44	0xbd2a8487	-0.041630294
45	0xbd9ed996	-0.07756345
46	0x3d3a9c31	0.045559112
47	0xbd055a1e	-0.032556646
48	0x3cd69d04	0.026197918
49	0x3d09d728	0.033652455
50	0xbdd34911	-0.10316671
51	0xbd77ac30	-0.060466945
52	0x3ca8deb8	0.020614013
53	0x3d822e32	0.06356467
54	0xbdbe4b49	-0.09291703
55	0xbd4065db	-0.046972137
56	0x3dbf281b	0.093338214
57	0x3c624970	0.013811454
58	0x3d2c9550	0.042134583
59	0x3d238863	0.03992499
60	0xbdbc8c0b	-0.092063986
61	0xbe1c626c	-0.1527192
62	0x3d3c011c	0.045899495
63	0x3d8e1f2c	0.06939539
64	0x3d88832b	0.06665643
65	0x3dafe251	0.08588088
66	0xbc28b6e7	-0.010297514
67	0xbdc0516e	-0.093905315
68	0x3ce9953d	0.028513545
69	0xbdeec89b	-0.11659356
70	0xbdae9839	-0.08525128
71	0x3d4c25e8	0.049840838
72	0x3cfe1dda	0.031020094
73	0xbe1e77b2	-0.15475348
74	0x3ab5bddd	0.0013865788
75	0xbd842a72	-0.06453408
76	0x3d835a83	0.06413748
77	0x3c8a318c	0.016869329
78	0x3cbc4f1e	0.022986945
79	0xbcd0af87	-0.025474323
80	0xbc6ae5fc	-0.014337059
81	0x3d33db5b	0.043910366
82	0xbdb08177	-0.086184435
83	0x3d82ed26	0.06392889
84	0x3d3e4e4e	0.046461396
85	0xbd7f600b	-0.062347453
86	0x3dd8f392	0.10593332
87	0x3d294c4d	0.04133253
88	0xbd81221b	-0.06305333
89	0xbd931015	-0.07180802
90	0xbc8d6780	-0.017261267
91	0xbd751633	-0.059835624
92	0xbd7b069c	-0.0612856
93	0xbbb5b292	-0.005544969
94	0xbd9d5655	-0.07682482
95	0xbdc2b3c3	-0.09506943
96	0xbd3e4f25	-0.046462197
97	0xbccf2453	-0.025285875
98	0x3d862496	0.06549947
99	0x3c0686db	0.008210863

output_layer.weight f4 [1, 100]
0	0xbda8abb2	-0.08235873
1	0xbd708ee0	-0.058730006
2	0x3e632c94	0.22184974
3	0xbcabae8a	-0.02095725
4	0xbd945c87	-0.07244211
5	0x3e248ccb	0.16069333
6	0xbd27d203	-0.040971767
7	0xbe0233b5	-0.12715037
8	0xbc103922	-0.008802684
9	0x3f151169	0.5822969
10	0x3d86701a	0.065643504
11	0x3e873554	0.26407874
12	0xbd6242be	-0.05523943
13	0x3e8ca150	0.27466822
14	0x3edc814e	0.43067402
15	0x3cc89534	0.024485208
16	0x3df9d558	0.12198895
17	0x3d5cbd43	0.05389143
18	0xbc7cae86	-0.015422469
19	0xbe0ee717	-0.13955341
20	0xbdb6d4be	-0.08927296
21	0xbe0db0aa	-0.13836923
22	0xbddb49c8	-0.10707432
23	0xbdee0419	-0.11621875
24	0x3b8c0e79	0.004274186
25	0xbd2c0247	-0.04199436
26	0x3d933ec7	0.07189708
27	0x3eac0962	0.3360091
28	0x3d60783b	0.05480216
29	0xbd8f38d1	-0.06993259
30	0xbd6f5864	-0.058433905
31	0x3de181b1	0.11011065
32	0x3f2eb495	0.68244296
33	0xbdbc78d4	-0.09202734
34	0x3efec78e	0.49761623
35	0x3ea0f6c7	0.31438276
36	0xbd940a38	-0.072285116
37	0x3d3f85e1	0.046758536
38	0x3edda93c	0.43293178
39	0x3aa0df6d	0.0012273617
40	0x3dae3c48	0.085075915
41	0x3e60cffa	0.21954337
42	0x3e47d6d5	0.19515546
43	0x3e020070	0.1269548
44	0xbdccb614	-0.09995666
45	0xbd157252	-0.036485977
46	0x3c237dd9	0.009978735
47	0xbd5dc091	-0.054138724
48	0x3ceda1fd	0.029007906
49	0x3ecd7826	0.40130728
50	0x3d284e2f	0.041090187
51	0xbcc34138	-0.02383481
52	0x3e0cbcd1	0.13743903
53	0x3d0bd04b	0.03413419
54	0xbb23cf5f	-0.002499543
55	0x3e12f9d2	0.14353111
56	0xbde97531	-0.113993056
57	0xbd4df702	-0.050284393
58	0x3d8a0341	0.06738902
59	0xbd8d49d6	-0.06898849
60	0xbdba46b8	-0.0909552
61	0x3eda5aa3	0.42647275
62	0x3e646a6c	0.22306222
63	0xbd5b3460	-0.053516746
64	0xbc5e79f7	-0.013578883
65	0xbc818aed	-0.015813315
66	0xbd9d31f2	-0.07675542
67	0xbdb1e902	-0.08687021
68	0xbdab404b	-0.08361872
69	0x3e8ded86	0.27720279
70	0xbd3ad4dc	-0.045613155
71	0x3e29206d	0.16516276
72	0x3c29de97	0.010368011
73	0x3ed12cbf	0.4085445
74	0x3db404b3	0.08789959
75	0x3ea6303c	0.32458675
76	0xbcb1d50c	-0.021708034
77	0x3c9318d6	0.017956179
78	0x3c305a67	0.010763741
79	0x3f0ac8d4	0.5421269
80	0xbdafa23c	-0.085758656
81	0x3cea1226	0.028573107
82	0x3e8025db	0.2502888
83	0x3cbcda6d	0.023053372
84	0x3d529866	0.05141487
85	0x3d73ebd5	0.05955108
86	0x3db0acb4	0.086266905
87	0xbd9855db	-0.07438251
88	0xbc85b4b8	-0.016321525
89	0xbd902019	-0.07037372
90	0x3cbfc8b8	0.02341114
91	0x3eb93189	0.36170605
92	0x3d224c1e	0.039623372
93	0x3d006554	0.031346634
94	0x3e3b9f98	0.18322599
95	0x3e868346	0.2627203
96	0x3d05b4ed	0.032643247
97	0xbd031dac	-0.03201072
98	0x3e0c66f3	0.13711147
99	0x3e429ec1	0.19005872
