silu50/silu.pth (torch, 125575 bytes, 9 tensors)

hidden_layer1.weight f4 [100, 1]
0	0xbe59d1d8	-0.21271455
1	0x3f0c35d4	0.54769635
2	0x3e6ae27d	0.22937961
3	0x3ec1b129	0.37830475
4	0x3f3c8dc4	0.7365382
5	0x3f69069e	0.9102572
6	0xbf48db30	-0.78459454
7	0x3e1a0c10	0.15043664
8	0x3f568275	0.8379281
9	0x3e5c602b	0.2152106
10	0xbf455c98	-0.7709441
11	0x3e58a54c	0.21156806
12	0x3d824090	0.063599706
13	0x3f64d046	0.893803
14	0x3f7ae43f	0.98004526
15	0x3f2f5797	0.68493026
16	0x3e8a6a78	0.27034354
17	0x3d77a905	0.060463924
18	0x3f6b40a2	0.91895497
19	0x3e680c78	0.22661006
20	0x3e5c8dca	0.21538463
21	0x3f28a56e	0.65877426
22	0x3e0bc83f	0.13650607
23	0x3e833ec1	0.25633815
24	0x3e4d2389	0.20033087
25	0x3f7b7c58	0.9823661
26	0xbe89b452	-0.26895386
27	0x3f019cb3	0.5062973
28	0xbe84879a	-0.25884706
29	0xbf05bdb6	-0.522426
30	0xbf61796f	-0.8807592
31	0x3dc21587	0.09476762
32	0xbf04f215	-0.5193189
33	0x3f1c27ad	0.6099804
34	0x3f1ddaf0	0.616622
35	0x3effd806	0.499695
36	0xbf3d9002	-0.74047863
37	0x3f20e293	0.62845725
38	0xbf308602	-0.6895448
39	0xbf2643a3	-0.64946955
40	0xbe96f423	-0.29483137
41	0x3ee86cd9	0.45395544
42	0xbf4b1a80	-0.7933731
43	0x3f0b4c17	0.5441298
44	0xbf2b89c8	-0.6700711
45	0x3ed7d290	0.42152834
46	0x3f579ae1	0.842207
47	0x3cf90eff	0.030402659
48	0x3eebd504	0.46060956
49	0x3eae8eaa	0.3409322
50	0xbefab973	-0.48969612
51	0xbe0c7743	-0.1371737
52	0x3f2edc5a	0.6830498
53	0x3f123a22	0.57119954
54	0x3f7091d7	0.93972534
55	0x3f798c80	0.9748001
56	0xbe88f50b	-0.26749453
57	0xbdb1e438	-0.086861074
58	0x3edc7099	0.43054655
59	0xbe8be1a0	-0.27320576
60	0xbe923ca7	-0.285619
61	0x3e8beeb4	0.27330554
62	0x3f6c5597	0.923181
63	0x3ed40700	0.4141159
64	0x3f51dc23	0.81976527
65	0x3f0354e9	0.5130144
66	0x3f02d96c	0.5111301
67	0x3f824acf	1.017908
68	0x3f4fdb6d	0.8119419
69	0x3f140d16	0.5783247
70	0x3f76ad7f	0.96358484
71	0xbec36e62	-0.38170153
72	0x3f0055eb	0.501311
73	0xbf704942	-0.9386178
74	0xbf56bba5	-0.8388007
75	0xbe9d66c9	-0.3074248
76	0xbdd03298	-0.101659
77	0x3ea71b15	0.3263785
78	0x3f15f0cd	0.5857056
79	0x3f1bf14d	0.6091507
80	0xbf0cd9f9	-0.550201
81	0x3ea2eb27	0.31820032
82	0xbe9a0fae	-0.30090088
83	0x3f28307b	0.65698975
84	0x3f61aca8	0.8815408
85	0xbefa1841	-0.4884663
86	0x3e462be2	0.19352677
87	0xbf4c63d8	-0.7983985
88	0xbe3d9619	-0.18514289
89	0x3f402265	0.7505248
90	0xbf3071aa	-0.6892344
91	0xbee0c21d	-0.43898097
92	0xbf18e348	-0.59721804
93	0x3f048460	0.5176449
94	0xbf2bed7d	-0.67159253
95	0x3f66d5ad	0.90169793
96	0x3f0b90d2	0.54517853
97	0x3ed53b29	0.41646698
98	0xbf1b4a78	-0.60660505
99	0x3d867591	0.06565393

hidden_layer1.bias f4 [100]
0	0x3f20cb9f	0.628107
1	0x3f0219d6	0.5082067
2	0x3ee7ac4e	0.45248646
3	0x3f6522a3	0.89505976
4	0xbf47515c	-0.7785852
5	0x3f5cce38	0.86252165
6	0x3f7387ed	0.9512928
7	0x3f3d1202	0.738556
8	0x3efcf35c	0.49404418
9	0x3c2d82d0	0.01059027
10	0x3f5f9ce0	0.8734875
11	0x3e330d71	0.17485596
12	0xbe9fca3d	-0.31208983
13	0xbf6b1430	-0.9182768
14	0xbf72f167	-0.948996
15	0xbf6c2b41	-0.922535
16	0x3e994e69	0.29942635
17	0x3f2a37c4	0.6649134
18	0x3f194691	0.598733
19	0xbf786075	-0.9702218
20	0x3f4e2361	0.80522734
21	0x3f33cb01	0.70231634
22	0xbe93be6c	-0.28856218
23	0xbf2170ee	-0.6306294
24	0x3ebb9fe1	0.36645415
25	0xbf43771c	-0.7635362
26	0x3f20dfd0	0.6284151
27	0xbdbcedee	-0.09225069
28	0x3f537428	0.82599115
29	0x3f53c646	0.82724416
30	0xbf71a2c1	-0.9438897
31	0xbf1d58cb	-0.6146361
32	0xbdf94770	-0.12171829
33	0xbf723b88	-0.9462209
34	0xbf7b8841	-0.9825478
35	0xbf651281	-0.8948136
36	0x3e2af2ae	0.16694137
37	0x3f0c2cdb	0.54755944
38	0xbf03c26b	-0.51468533
39	0x3f7880bf	0.9707145
40	0x3e5ba218	0.21448553
41	0xbecbe7f8	-0.39825416
42	0x3cbdd97f	0.023175
43	0xbeb6d62b	-0.35710272
44	0xbea3ee84	-0.3201791
45	0x3f4b0a0d	0.7931221
46	0xbe235d22	-0.15953496
47	0xbef20833	-0.4727188
48	0x3cf04ed2	0.02933446
49	0xbe4afc2f	-0.19822763
50	0xbe0cbab2	-0.13743094
51	0xbf001df6	-0.50045717
52	0xbf6644f0	-0.8994894
53	0xbead55dd	-0.3385457
54	0xbe64341b	-0.22285502
55	0xbf22cf68	-0.63597727
56	0x3eb44ed8	0.35216403
57	0x3f20f3d9	0.6287208
58	0xbf3d9c32	-0.7406646
59	0xbedf42b5	-0.4360558
60	0xbf0e80c6	-0.5566524
61	0xbf12356e	-0.5711278
62	0xbf6350ed	-0.8879536
63	0xbeb88a38	-0.36042953
64	0x3cf0b6a5	0.029383967
65	0x3f2297b3	0.63512725
66	0xbf29508b	-0.66138524
67	0x3a8c2557	0.001069228
68	0xbf1929a8	-0.5982919
69	0x3f60d343	0.8782236
70	0x3f3360d1	0.70069605
71	0xbc904ddc	-0.017615251
72	0xbebc2275	-0.3674504
73	0x3f0c6ce8	0.5485368
74	0x3f22e23c	0.63626456
75	0x3ec33a1b	0.38130268
76	0x3d26f652	0.040762253
77	0xbeacf2dc	-0.33779037
78	0xbf41742a	-0.7556788
79	0xbf583cf5	-0.84468013
80	0x3f4aa014	0.7915051
81	0x3f5d3b8f	0.86419004
82	0x3f0e4c7a	0.55585444
83	0xbf047cb5	-0.5175279
84	0xbf1eb3ef	-0.61993307
85	0xbf573b8e	-0.8407525
86	0x3f70048e	0.9375695
87	0x3f1f22a8	0.62162256
88	0x3e703b11	0.23460032
89	0x3ea97eff	0.33104703
90	0x3f43c8b3	0.7647812
91	0x3f74502b	0.95434827
92	0xbf628e87	-0.8849873
93	0xbef01ea6	-0.46898383
94	0xbd7b85dc	-0.061406955
95	0xbf7e122d	-0.99246484
96	0x3f3fef4e	0.74974525
97	0x3f36ed54	0.71455884
98	0x3f040863	0.515753
99	0xbf1240c4	-0.57130075

hidden_layer2.weight f4 [100, 100]
0	0x3d24caaf	0.040232357
1	0x3db7e47b	0.08979126
2	0x3d83db63	0.06438329
3	0xbd10148e	-0.035175852
4	0xbda3d1b2	-0.079989806
5	0x3d39a90b	0.045327228
6	0xbc3a9c8e	-0.011389865
7	0x3d9fbace	0.07799302
8	0x3d1724fe	0.036900513
9	0x3d5a8be6	0.053356074
10	0x3d39b850	0.04534179
11	0x3d10ac75	0.035320718
12	0xbd9f5561	-0.077799566
13	0xbd7c06d0	-0.061529934
14	0x3dd24b66	0.10268287
15	0xbd91c657	-0.071179084
16	0xbcd107cd	-0.025516415
17	0xbd887267	-0.066624455
18	0xbceca005	-0.028884897
19	0x3d01897f	0.031625267
20	0x3d68232f	0.05667418
21	0xbd27da3b	-0.040979605
22	0xbd819a91	-0.06328309
23	0x3dbe0da4	0.092799455
24	0xbdb4a211	-0.08819974
25	0xbd8c5a14	-0.068531185
26	0x3c86016f	0.016358105
27	0xbd866bc7	-0.06563526
28	0x3d2e701c	0.042587385
29	0xbd2b3186	-0.041795276
30	0x3d9d57ef	0.076827876
31	0xbca03687	-0.01955725
32	0x3d62bf79	0.055358384
33	0xbd929128	-0.071565926
34	0x3dc1e977	0.09468358
35	0xbc4a1401	-0.012333871
36	0x3d970978	0.07374853
37	0x3d39daf7	0.045374837
38	0xbda5dcb7	-0.08098739
39	0xbd2a80e1	-0.041626815
40	0x3da7a5e0	0.08185935
41	0x3d9d9d8c	0.07696065
42	0x3d052281	0.03250361
43	0x3bd72501	0.0065656905
44	0xbc0f2fe8	-0.008739449
45	0xbd65a006	-0.056060813
46	0x3dcc3c89	0.09972484
47	0xbdb22c07	-0.08699804
48	0x3da08101	0.078371055
49	0x3c6cacab	0.014445464
50	0xbcd4b81e	-0.0259667
51	0x3d009fb0	0.03140229
52	0xbd4c83ee	-0.049930505
53	0x3dc04197	0.0938751
54	0xbdb176c8	-0.08665234
55	0xbdabf057	-0.083954506
56	0xbad7e830	-0.0016472396
57	0x3bd3b4f4	0.0064607803
58	0xbb5154ab	-0.0031941335
59	0x3d441203	0.04786874
60	0xbdb24416	-0.087043926
61	0x3d890f1c	0.06692335
62	0x3d981167	0.07425194
63	0xbc7d6c51	-0.015467719
64	0xbd910442	-0.0708089
65	0x3da4649a	0.08027001
66	0x3d02106f	0.031753954
67	0x3d84b5b3	0.06479969
68	0x3d1783fa	0.036991097
69	0x3d960607	0.073253684
70	0x3d18f44d	0.03734236
71	0x3dca457b	0.098765336
72	0x3d476d4c	0.048688218
73	0x3d945b03	0.072439216
74	0xbd9a616d	-0.07538114
75	0xbd7c4d40	-0.06159711
76	0x3c8c43c9	0.017122166
77	0x3da3daa2	0.08000685
78	0xbd823a63	-0.06358793
79	0x3ccba31f	0.024858056
80	0xbcce4d3f	-0.025183318
81	0xbd51981f	-0.051170465
82	0x3d918e31	0.07107199
83	0xbcf060d6	-0.02934305
84	0x3ce10429	0.027467804
85	0x3d20b353	0.039233517
86	0x3d0934ab	0.033497494
87	0x3daeabe0	0.08528876
88	0x3d2bb0bf	0.041916605
89	0xbd35332c	-0.044238254
90	0xbd7c71fe	-0.06163215
91	0xbcf6206b	-0.030044755
92	0x3c2c5dc9	0.010520407
93	0x3d2b0e8b	0.041761916
94	0x3d95523c	0.072910756
95	0x3b59c61d	0.0033229657
96	0x3d250dc9	0.04029635
97	0x3d5a0c21	0.053234223
98	0x3dab2154	0.08355966
99	0xbda23187	-0.07919603
100	0x3d603951	0.05474216
101	0xbda09531	-0.07840956
102	0xbbd42cd6	-0.0064750714
103	0xbcdd68e4	-0.027027555
104	0x3da86dbf	0.082240574
105	0xbc1915af	-0.009343549
106	0xbd8f3282	-0.069920555
107	0xbcd657be	-0.026164886
108	0xbc054999	-0.008135223
109	0xbd912aac	-0.07088217
110	0xbdb6fa64	-0.08934477
111	0x3d1a8367	0.03772297
112	0xbd1b17a9	-0.03786436
113	0xbdabdbe8	-0.08391553
114	0xbd4edb8a	-0.050502338
115	0x3d362eb0	0.04447812
116	0x3dc4d31a	0.09610577
117	0xbd628dff	-0.0553112
118	0x3d457024	0.04820265
119	0xbdb7e8fe	-0.089799866
120	0x3d96d28e	0.07364379
121	0x3db1bc7a	0.08678527
122	0xbdcd30ef	-0.10019099
123	0x3d9af21f	0.07565712
124	0x3d9312b3	0.07181301
125	0xbd892359	-0.06696195
126	0x3b4bbcc5	0.0031087857
127	0xbdc3b985	-0.095568694
128	0xbc09a66f	-0.008401497
129	0x3db9441f	0.09046196
130	0xbcb1048c	-0.021608613
131	0xbc329196	-0.010898968
132	0xbdb2c247	-0.08728462
133	0x3d9e3912	0.07725729
134	0xbc412a38	-0.011789851
135	0x3dbc9564	0.092081815
136	0xbc3f586a	-0.011678794
137	0xbda8b718	-0.08238047
138	0xbb5aa922	-0.0033364971
139	0x3d340256	0.04394754
140	0xbd171aef	-0.03689092
141	0x3d781cc0	0.060574293
142	0x3dbb0f0d	0.0913373
143	0x3d1b36ef	0.037894186
144	0xbd0c8805	-0.034309406
145	0xbcc9294e	-0.024555828
146	0xbd7c9133	-0.06166191
147	0x3b1a2125	0.002351829
148	0x3d91ef93	0.07125773
149	0xbc5fbbf0	-0.013655648
150	0x3d916ef0	0.07101238
151	0x3d0eef38	0.034896106
152	0xbce05244	-0.027382977
153	0x3da6c122	0.08142306
154	0xbc283f5b	-0.010269011
155	0x3a4605fa	0.0007553991
156	0xbd866716	-0.06562631
157	0xbc66201d	-0.014045742
158	0x3db4ed9f	0.08834385
159	0xbd8d02d5	-0.06885306
160	0x3d353581	0.04424048
161	0x3c18f849	0.00933654
162	0xbd8de55d	-0.06928513
163	0x3c7b6e84	0.015346173
164	0xbccd8023	-0.025085514
165	0x3dad0402	0.0844803
166	0x3dc54c7c	0.09633729
167	0xbb7bb914	-0.0038409876
168	0x3cd7edd6	0.026358526
169	0xbd809831	-0.06279028
170	0x3c8bd725	0.017070362
171	0xbd9842c0	-0.074346066
172	0xbc977a9c	-0.018491082
173	0xbd5dbb1e	-0.054133527
174	0xbd79586d	-0.060875345
175	0x3cacbc5f	0.021085916
176	0xbd5df3b9	-0.05418751
177	0xbd14befd	-0.036314953
178	0xbd824562	-0.0636089
179	0x3d943c4f	0.072380655
180	0xbd595cb1	-0.053066913
181	0x3d68681b	0.056739908
182	0x3db5ce88	0.08877283
183	0xbdb7f915	-0.089830555
184	0x3d7866be	0.060644858
185	0x3dc0b2be	0.09409092
186	0x3a8cc1e4	0.0010738936
187	0xbdb86f68	-0.09005624
188	0x3da259bf	0.07927274
189	0x3c379625	0.011205231
190	0xbc8ff2c0	-0.017571807
191	0xbd2e9d6b	-0.042630594
192	0x3d181b62	0.03713549
193	0x3d2c2781	0.04202986
194	0x3da4fb81	0.08055783
195	0x3d54992f	0.0519039
196	0x3d041727	0.032248642
197	0x3da6b5bc	0.08140132
198	0xbdc858f0	-0.097825885
199	0xbdbfa1ba	-0.09357019
200	0xbdaac5f0	-0.08338535
201	0xbd873e0d	-0.06603632
202	0xbd97bcfc	-0.07409093
203	0xbd53590f	-0.051598605
204	0xbb867d69	-0.0041043055
205	0x3d881dbc	0.066462964
206	0x3c9abc1b	0.018888524
207	0x3dc214cf	0.09476625
208	0x3dd2ac11	0.10286725
209	0xbd8c614c	-0.068544954
210	0x3d5504e3	0.052006613
211	0xbd79703b	-0.060898047
212	0x3dae6bc6	0.0851665
213	0xbc2e51a9	-0.0106395865
214	0xbdbcd389	-0.09220035
215	0x3d8977b7	0.06712287
216	0x3d5fe134	0.05465813
217	0xbdb91af5	-0.09038345
218	0x3dba5c2b	0.09099611
219	0x3d16b77c	0.036796078
220	0x3b2ce0e3	0.002637916
221	0x3c5adbb1	0.013358043
222	0x3dc1f492	0.09470476
223	0x3dbbcb06	0.09169583
224	0xbd8a7fa7	-0.06762629
225	0xbdb3f7e3	-0.08787515
226	0xbc2f7389	-0.010708698
227	0xbd17463f	-0.036932226
228	0x3cc85638	0.024455175
229	0x3d9f5e75	0.07781688
230	0x3cb8446d	0.022493565
231	0x3dc36784	0.095412284
232	0x3c333b51	0.010939435
233	0xbd19513c	-0.037430987
234	0x3d83ec2f	0.06441533
235	0x3d672d09	0.056439433
236	0xbcabaad2	-0.020955477
237	0xbc55c9c0	-0.013048589
238	0xbda0b08e	-0.07846175
239	0x3d4489ff	0.047983166
240	0xbc167f9d	-0.009185699
241	0xbd94dc28	-0.07268554
242	0x3d9074db	0.070535384
243	0xbdbb5315	-0.09146706
244	0x3d7a597e	0.061120503
245	0x3d8bfdc1	0.06835509
246	0x3c1be4d1	0.009515003
247	0x3c458ee9	0.012057998
248	0x3d5968d4	0.053078488
249	0xbc9658c5	-0.018352875
250	0x3c958d7d	0.018255943
251	0xbc7a904c	-0.015293192
252	0xbdba7439	-0.09104199
253	0x3dadd927	0.08488684
254	0x3db86576	0.09003727
255	0x3da285b3	0.07935657

hidden_layer2.bias f4 [100]
0	0x3d4c51ca	0.049882688
1	0xbd299d3c	-0.041409716
2	0x3dac6d27	0.08419257
3	0x3cdc9af3	0.026929354
4	0xbced8ae5	-0.028996894
5	0x3d445e72	0.047941633
6	0xbda39b9a	-0.07988663
7	0xbd8f80d7	-0.07006996
8	0x3d994a41	0.07484866
9	0x3d979ee5	0.074033536
10	0x3dc66027	0.09686308
11	0x3c993e3a	0.01870643
12	0x3d48c2a1	0.049013738
13	0xbd96cd6d	-0.073634006
14	0xbdb6f738	-0.08933872
15	0x3d2f90aa	0.04286257
16	0xbaff7c89	-0.001949207
17	0x3cb3d323	0.021951264
18	0xbd938de7	-0.072048
19	0xbdab867d	-0.08375261
20	0xbd69952c	-0.057027027
21	0xbdb78e03	-0.089626335
22	0xbdaadae6	-0.08342533
23	0xbdcbcaf2	-0.09950818
24	0x3d4f0a33	0.050546836
25	0x3da5be76	0.08092968
26	0x3da4146a	0.08011706
27	0xbd1de651	-0.038549725
28	0xbb94b8df	-0.00453864
29	0xbd799d8e	-0.06094127
30	0xbd2f9e73	-0.04287572
31	0x3d071675	0.0329804
32	0x3bf13801	0.0073614125
33	0xbb5bc10d	-0.0033531815
34	0xbbd69d1b	-0.00654949
35	0xbdb55f23	-0.088560365
36	0xbb3d04c0	-0.0028841943
37	0x3bc1e8f5	0.005917663
38	0x3da9aed3	0.08285298
39	0xbbaef717	-0.005339514
40	0x3cb1b48b	0.021692535
41	0x3dbee8c4	0.0932174
42	0xbd9e9b3f	-0.077444546
43	0x3d069348	0.032855302
44	0x3d31d3a4	0.043414727
45	0x3bd55a3f	0.0065110023
46	0xbd5fc9ed	-0.05463593
47	0xba70e13f	-0.0009188838
48	0x3d87d051	0.0663153
49	0x3d85effd	0.06539915
50	0x3ce933cc	0.028467081
51	0x3d6f16b0	0.058371246
52	0x3da6edf1	0.081508525
53	0x3d1c1336	0.03810426
54	0x3d3d3260	0.04619062
55	0x3c67ff14	0.014159936
56	0x3dc2f74d	0.09519825
57	0x3d94f39f	0.072730295
58	0x3cf06125	0.029343197
59	0xbae0f08a	-0.001716153
60	0x3ca60e20	0.020270407
61	0x3da6a2c1	0.081365116
62	0x3d90a3c9	0.070624895
63	0x3d481fcc	0.04885845
64	0xbc5c269f	-0.013436942
65	0xbaceaf0c	-0.0015768721
66	0x3d40c0f5	0.04705902
67	0xbd35119a	-0.04420624
68	0x3d6405bf	0.055669542
69	0xbd3509e9	-0.044198904
70	0xbda903e4	-0.08252695
71	0xbd878b2c	-0.06618342
72	0xbd4d48d9	-0.0501183
73	0x3d1c55d8	0.038167804
74	0x3dbc9aa6	0.09209184
75	0xbcb76ac1	-0.022389771
76	0x3d8d5193	0.06900325
77	0x394304e6	0.00018598474
78	0x3d31a1a8	0.043367058
79	0x3d8cf386	0.06882386
80	0xbd2cedec	-0.042219087
81	0xbd817a8b	-0.06322201
82	0xbd1f2533	-0.038853835
83	0xbd1ec5b1	-0.038762752
84	0x3db2ae3e	0.0872464
85	0xbda9d852	-0.08293213
86	0x3daf82ec	0.08569893
87	0x3d11ed74	0.035626844
88	0xbcd2da6c	-0.025738917
89	0xbb864a41	-0.004098207
90	0xbdb3a4e5	-0.087716855
91	0xbdafc26e	-0.085820064
92	0x3bf018f7	0.007327195
93	0xbdc206a0	-0.0947392
94	0x3d4bda5d	0.049768794
95	0xbd87b01d	-0.06625388
96	0x3cc5c812	0.024143253
97	0x3ca0669b	0.019580176
98	0xbd05419f	-0.032533284
99	0xbd1ba6c6	-0.038000844

hidden_layer3.weight f4 [100, 100]
0	0xbc91ec81	-0.01781297
1	0xbd041dbf	-0.03225493
2	0x3d38ff93	0.04516561
3	0xbd83205a	-0.06402655
4	0xbd1e6474	-0.03867002
5	0xbcdbc9d7	-0.026829643
6	0xbca7b21a	-0.020470668
7	0xbc130dda	-0.00897547
8	0xbd125c0d	-0.035732318
9	0xbc2aa226	-0.010414636
10	0x3c6f6a32	0.014612721
11	0xbcf6ce08	-0.03012754
12	0x3ccce343	0.02501071
13	0xbd8a28e1	-0.06746078
14	0x3c1813f3	0.0092821
15	0x3d9f4ce7	0.0777834
16	0xbd0b85af	-0.034063037
17	0xbc77d58c	-0.015126597
18	0xba5deb56	-0.0008465549
19	0x3d40acba	0.047039725
20	0x3af30326	0.0018540367
21	0x3c07e216	0.008293649
22	0xbb09e06d	-0.002103831
23	0x3b9a8836	0.0047159446
24	0xbdc38ee2	-0.09548737
25	0xbd51dcc5	-0.051235933
26	0xbd5c0717	-0.0537177
27	0x3d585dde	0.052823894
28	0x3dc4ac6f	0.096032016
29	0xbcdafe3e	-0.02673256
30	0xbd7d1b8c	-0.06179385
31	0xbd585029	-0.05281082
32	0xbdc0e357	-0.09418362
33	0x3cd93225	0.026513169
34	0x3d8049f1	0.06264103
35	0x3d72291d	0.05912124
36	0xbd88720d	-0.066623785
37	0x3c173ed2	0.009231286
38	0x3d2a76e2	0.04161728
39	0x3d67dd01	0.05660725
40	0x3da5050e	0.08057605
41	0xbdab71b7	-0.08371299
42	0xbd459548	-0.04823807
43	0xbdbb945b	-0.09159156
44	0xbd8cbe99	-0.06872291
45	0x3d9fb9bb	0.07799097
46	0xbd8ebe65	-0.069699086
47	0x3d2770b9	0.040878985
48	0xbbdbe043	-0.0067100837
49	0xbd65c2fb	-0.05609415
50	0x3d9f5f33	0.0778183
51	0xbdba829a	-0.091069415
52	0xbd9d5089	-0.076813765
53	0xbd8c79ed	-0.06859193
54	0xbd9776a1	-0.073956735
55	0xbc8b89cc	-0.01703348
56	0x39158822	0.00014260461
57	0xbd928063	-0.07153394
58	0xbdc62ea7	-0.09676867
59	0xbdba51f4	-0.090976626
60	0x3c3a3fed	0.01136778
61	0xbd67bee6	-0.05657854
62	0x3cafafb7	0.021446092
63	0xbdb99a53	-0.09062638
64	0x3cd75cae	0.02628931
65	0xbd8d3de3	-0.068965696
66	0x3dbfe8fd	0.09370611
67	0xbd8c7a85	-0.06859306
68	0x3d338713	0.04382999
69	0x3dc0feca	0.09423597
70	0xbd4ac3ec	-0.049503252
71	0x3bbb8549	0.005722676
72	0x3d04b52e	0.03239935
73	0x3c863835	0.016384223
74	0xbd978b1e	-0.073995814
75	0x3cdc4963	0.026890462
76	0x3d9a57d9	0.07536287
77	0x3d30a008	0.043121368
78	0xbcf6f705	-0.030147085
79	0x3c03f7c8	0.008054681
80	0x3ce47a40	0.027890325
81	0x3da23f39	0.07922215
82	0xbdac5393	-0.08414378
83	0xbcb9f55c	-0.022700004
84	0x3d964dba	0.07339044
85	0x3d905afc	0.07048604
86	0x3d9759de	0.07390188
87	0x3d8cae9d	0.06869242
88	0x3b0b4838	0.0021252763
89	0x3da0e31d	0.078558184
90	0x3d81d08e	0.06338607
91	0x3c29bb99	0.010359668
92	0xbd9b1a64	-0.07573393
93	0xbd362da5	-0.044477124
94	0xbdaa7ffd	-0.08325193
95	0xbdb67415	-0.0890886
96	0xbd883c00	-0.06652069
97	0x3d91b801	0.07115174
98	0xbd6b0d6c	-0.057385847
99	0xbdb1305d	-0.08651803
100	0x3d0fcdae	0.03510826
101	0x3d09b507	0.033619907
102	0x3da77914	0.08177391
103	0x3cb9a5ea	0.022662122
104	0x3d998bbf	0.074973576
105	0x3d6fe06a	0.058563627
106	0xbb9dc4df	-0.0048147286
107	0x3d56b93c	0.052422747
108	0xbdace8c5	-0.08442835
109	0x3d4e3cb3	0.050350856
110	0x3c7c7d9a	0.015410805
111	0xbd93e40c	-0.07221231
112	0xbd71e7d3	-0.059058975
113	0x3db25856	0.08708255
114	0xbdc14bd4	-0.09438291
115	0xbd0e0a9e	-0.034678094
116	0x3d5e02d6	0.054201923
117	0x3d641e64	0.055693045
118	0xbd90f624	-0.070781976
119	0xbc19a0b1	-0.009376691
120	0x3dc29ad0	0.095021844
121	0x3d8700fc	0.06591985
122	0xbd36f4b4	-0.04466696
123	0xbda0261b	-0.07819768
124	0x3d7a2aea	0.061076082
125	0x3dad115f	0.08450579
126	0x3daaff4a	0.08349474
127	0xbc9fd3e6	-0.01951022
128	0x3d56ab99	0.052409742
129	0x3c8b0f2a	0.016975004
130	0x3d5fbfc1	0.05462623
131	0xbd55b333	-0.05217285
132	0xbcc4f2e9	-0.02404161
133	0x3cbb1a70	0.022839755
134	0x3c64e7aa	0.013971249
135	0xbc0b815f	-0.008514731
136	0x3d130a44	0.035898462
137	0x3c14035d	0.009034005
138	0x3d69ce94	0.057081774
139	0x3db29e1c	0.08721563
140	0x3d903832	0.070419684
141	0x3dca94a0	0.09891629
142	0xbdce3f67	-0.10070687
143	0xbdcb15b0	-0.09916246
144	0xbd5d1a6c	-0.053980276
145	0x3ca517f8	0.02015303
146	0xbd308737	-0.0430977
147	0xbd8a927e	-0.067662224
148	0xbdb126ab	-0.086499535
149	0x3a31c6fb	0.00067816646
150	0x3dc1ebbe	0.094687924
151	0x3dae1f55	0.0850207
152	0x3db9824c	0.09058055
153	0x3d8af2e3	0.06784608
154	0xbd87ed1f	-0.06637024
155	0x3cdf911c	0.027290873
156	0xbd5751c8	-0.052568227
157	0xbd6b4f72	-0.05744881
158	0x3d8657d0	0.06559718
159	0x3d06590b	0.03279976
160	0xbd60520e	-0.054765753
161	0x3c52c121	0.012863428
162	0x3d3871f9	0.045030568
163	0x3d9cbaa9	0.0765279
164	0x3dbed3ee	0.09317766
165	0xbc826bc0	-0.01592052
166	0x3cf71ddd	0.030165607
167	0xbcde113a	-0.027107824
168	0x3d0d842c	0.034549877
169	0xbd163b35	-0.036677558
170	0x3b41309c	0.0029478436
171	0x3d901ee7	0.07037144
172	0x3d8d495d	0.068987586
173	0xbd63f974	-0.05565782
174	0x3da8ebcc	0.082481
175	0xbd1fa7fa	-0.038978554
176	0x3d93f427	0.07224303
177	0x3dd46db9	0.103724904
178	0x3d89f428	0.06736022
179	0x3cafa4d0	0.021440893
180	0xbd2759ec	-0.04085724
181	0x3dc5137a	0.096228555
182	0x3c7cdb0a	0.015433082
183	0x3d13c427	0.036075737
184	0x3d814a9d	0.063130595
185	0x3d2c13ea	0.04201118
186	0xbd943de2	-0.07238366
187	0x3d9aa898	0.07551688
188	0xbdbb700b	-0.0915223
189	0xbd4b6c87	-0.049664047
190	0x3d078dd3	0.03309424
191	0xbd2e1d39	-0.042508338
192	0x3dac1415	0.08402268
193	0x3d514f62	0.051101096
194	0xbd9bd12e	-0.07608257
195	0x3d00abba	0.03141377
196	0x3dc3ab21	0.095541246
197	0x3d75ae19	0.059980486
198	0x3d8a8ae7	0.06764775
199	0xbd9ae1ad	-0.075625755
200	0x3974e172	0.00023353638
201	0x3ca9d834	0.020732976
202	0x3dcabd9e	0.09899448
203	0x3c8551ff	0.01627445
204	0x3d2a15ed	0.041524816
205	0xbd9995aa	-0.07499249
206	0xba9d9d06	-0.0012024946
207	0x3c953fde	0.01821893
208	0x3b907b5c	0.004409237
209	0xbcb7b575	-0.022425393
210	0x3d144bcc	0.036205098
211	0x3b91eb83	0.004453124
212	0xbd1d6b90	-0.038432658
213	0xbc9b8f88	-0.01898934
214	0x3d090bf7	0.033458676
215	0x3d85e050	0.06536925
216	0x3d5c70f5	0.05381866
217	0x3d76dfb4	0.060271934
218	0xbcc396e9	-0.02387567
219	0xbdc30ddc	-0.09524128
220	0x3dbe4309	0.0929013
221	0x3cab32e7	0.020898296
222	0x3da22d69	0.079188175
223	0xbd82fd4b	-0.06395968
224	0xbb1a5a51	-0.0023552368
225	0x3cf6bf82	0.030120615
226	0xbd4da1a6	-0.050202988
227	0xbdb303cc	-0.087409586
228	0x3db36905	0.08760265
229	0xbdb9f135	-0.0907921
230	0xbdbf86c6	-0.09351878
231	0xbc33dc99	-0.010977888
232	0xbd00a521	-0.03140748
233	0x3b813258	0.003942769
234	0x3c0ced00	0.008601427
235	0x3c7d892c	0.015474599
236	0xbdb72841	-0.08943225
237	0xbc35845a	-0.011078918
238	0x3d002385	0.031283874
239	0x3c05a7e7	0.008157707
240	0xbd5f8fe7	-0.054580595
241	0x3da025d1	0.07819713
242	0x3d95e0a2	0.07318236
243	0x3c28da2d	0.010305923
244	0xbcdb2f77	-0.026756031
245	0xbd21853a	-0.039433695
246	0x3d9dadf4	0.076991946
247	0x3cad4234	0.021149732
248	0x3d0dea17	0.034647074
249	0xbbb8ccdf	-0.005639657
250	0xbd037b35	-0.03209992
251	0x3ac36f73	0.0014910534
252	0x3a4fb8cf	0.0007923962
253	0x3dca3f0c	0.098753065
254	0xbdb4d98f	-0.088305585
255	0xbdc363ee	-0.095405445

hidden_layer3.bias f4 [100]
0	0x3cc5062d	0.024050796
1	0xbd36192a	-0.044457592
2	0xbdc7f5d9	-0.097636886
3	0xbd60db86	-0.054896854
4	0x3cecd04d	0.02890792
5	0x3d69a25c	0.057039604
6	0xbc891d31	-0.016737552
7	0xbd25d0ea	-0.04048244
8	0x3da2dd52	0.0795237
9	0xbd94a5b4	-0.07258168
10	0xbd31ae8d	-0.043379355
11	0x3d16d5da	0.03682504
12	0xbdb8d7bb	-0.09025522
13	0x3d9de130	0.07708967
14	0xbd54e3ac	-0.051974937
15	0x3db7e9f7	0.08980172
16	0x3d5e14cc	0.054219052
17	0xbdbe82df	-0.093023054
18	0xbd26c504	-0.040715232
19	0x3d607620	0.054800153
20	0xbd999b45	-0.075003184
21	0xbd68bb99	-0.056819532
22	0x3dc4f020	0.09616113
23	0xbd9c7c15	-0.07640854
24	0x3d0b4e8e	0.034010462
25	0x3be5ad49	0.0070091826
26	0xbd04ab58	-0.03238997
27	0xbcb5cae1	-0.022191467
28	0xbdc8bedd	-0.09802029
29	0x3a349801	0.00068891054
30	0xbd0eb678	-0.034841985
31	0xbdba5b72	-0.09099473
32	0xbd04cf6a	-0.032424368
33	0x3c578038	0.013153128
34	0xbd217c59	-0.039425228
35	0x3c825f54	0.015914597
36	0xbd28c608	-0.041204482
37	0xbda832d1	-0.082128175
38	0x3d0ea084	0.03482105
39	0x3c71414e	0.0147250425
40	0xbd4be0df	-0.049775
41	0xbd1c67e7	-0.038185026
42	0x3d223931	0.039605323
43	0xbc102f24	-0.008800302
44	0xbd7613c7	-0.060077455
45	0x3d8c3c7f	0.06847476
46	0x3d07e228	0.033174664
47	0xbc832fa1	-0.016013922
48	0xbd130961	-0.035897616
49	0x3dcff5c0	0.10154295
50	0xbd3212f7	-0.043475118
51	0xbcf072de	-0.029351648
52	0xbdaa7766	-0.08323555
53	0xbd77cc51	-0.060497586
54	0x3dac2750	0.08405936
55	0x3c332d39	0.010936075
56	0xbc8f1591	-0.017466338
57	0xbca75291	-0.020425113
58	0x3d49a974	0.04923387
59	0xbcab765c	-0.020930462
60	0xbda77be8	-0.0817793
61	0x3d3341ed	0.043764044
62	0xbdb57e2e	-0.088619575
63	0x3dab1c7a	0.08355041
64	0x3d92bf0f	0.07165348
65	0xbcba297e	-0.022724863
66	0xbd9194ef	-0.07108485
67	0x3db182db	0.08667537
68	0x3c9f2ab2	0.019429538
69	0x3d871ef6	0.06597702
70	0xbd940a3e	-0.07228516
71	0x3d8d8c37	0.069115095
72	0xbc9f1c70	-0.01942274
73	0xbca23d06	-0.019804489
74	0x3dca8015	0.09887711
75	0xbda65800	-0.081222534
76	0xbdc767d3	-0.097366
77	0xbcfcee5b	-0.030875375
78	0x3dbbbc40	0.09166765
79	0xbd816c22	-0.06319453
80	0x3da791d2	0.0818211
81	0x3d3c3e76	0.045958005
82	0xbd72b9f1	-0.05925936
83	0xbdc0d973	-0.09416475
84	0x3d935fd2	0.07196011
85	0xbd99bd80	-0.075068474
86	0xbd722a24	-0.05912222
87	0xbd4f0786	-0.050544284
88	0x3b33e5bb	0.0027450162
89	0xbd5ef872	-0.054436155
90	0xbd8b062c	-0.067882866
91	0x3d39418d	0.04522853
92	0xbcf5aeef	-0.029990641
93	0xbca586e9	-0.020205932
94	0xbdaefbaf	-0.085440986
95	0xbd1419d1	-0.036157433
96	0xbda261b3	-0.07928791
97	0x3d261e21	0.040556077
98	0x3c9a3d54	0.018828072
99	0x3dbd2b01	0.09236718

hidden_layer4.weight f4 [100, 100]
0	0xbdc7f743	-0.09763958
1	0x3d6c64d4	0.057713345
2	0xbd58b046	-0.052902482
3	0xbcb9998f	-0.02265623
4	0xbdbfec02	-0.09371187
5	0xbdc2aef1	-0.09506024
6	0x3d550c37	0.052013602
7	0xbdba73c2	-0.0910411
8	0xbca6e5b1	-0.020373197
9	0xbd9d218c	-0.07672414
10	0xbd6a8e4a	-0.057264604
11	0x3c70065f	0.0146499565
12	0xbc9be289	-0.019028919
13	0xbc9d828f	-0.019227294
14	0xbdbd0076	-0.092286035
15	0x3d11e6bb	0.035620432
16	0x3db99835	0.09062234
17	0x3d98c7bc	0.07459971
18	0x3d2e5a0f	0.042566355
19	0xbb9bbf75	-0.004753048
20	0x399d6142	0.00030017836
21	0xbb867b69	-0.004104067
22	0xbd9ce3af	-0.07660615
23	0x3d35af8e	0.044356875
24	0x3d9b8c66	0.07595138
25	0x3b098dd0	0.0020989068
26	0x3c922300	0.017838955
27	0x3984edd3	0.00025354195
28	0x3daf8ba4	0.08571556
29	0xbd5cec77	-0.053936448
30	0x3bc89072	0.006120735
31	0xbbe3315e	-0.0069333753
32	0xbd0fb83e	-0.035087816
33	0xbd014c3f	-0.031566855
34	0xbd1fde7e	-0.039030544
35	0xbc593d4e	-0.013259245
36	0xbdb30746	-0.08741622
37	0x3d85d3a1	0.06534506
38	0x3d784538	0.060612887
39	0x3d28dd72	0.04122681
40	0xbcb012ce	-0.021493342
41	0x3d8036cf	0.06260454
42	0xbd9ee7a4	-0.07759026
43	0x3d7569f6	0.059915505
44	0x3dc5adea	0.09652312
45	0xbd8c0656	-0.06837146
46	0x3da40316	0.08008401
47	0xbb849ce7	-0.0040470245
48	0xbc9a935a	-0.01886909
49	0xbda31637	-0.079632215
50	0xbda4d1e4	-0.08047846
51	0xbd8912d2	-0.06693043
52	0xbd03c77f	-0.032172676
53	0x3d5db600	0.054128647
54	0x3d4c67e4	0.049903765
55	0xbc56f3fc	-0.013119694
56	0xbd3d7eb2	-0.046263404
57	0x3dbf2d58	0.093348205
58	0x3dc09cd3	0.09404912
59	0x3d9247b7	0.07142585
60	0xbcd60312	-0.02612451
61	0x3da6f6b0	0.08152521
62	0xbd809282	-0.06277944
63	0xbab2bf35	-0.0013637306
64	0xbcaaf569	-0.020868974
65	0xbda5f6f0	-0.0810374
66	0x3dad7e9c	0.084714144
67	0x3bf88df1	0.00758528
68	0xbda7ed1d	-0.08199523
69	0x3d673ca0	0.0564543
70	0xbda72a7d	-0.08162401
71	0x3b7a09a9	0.003815273
72	0xbc707d71	-0.014678345
73	0xbd82eef8	-0.06393236
74	0xbc5fd391	-0.013661281
75	0xbd8d0894	-0.06886402
76	0xbd8c58e3	-0.06852891
77	0x3c4d47ac	0.012529295
78	0x3cdec735	0.027194599
79	0x3d6812cc	0.05665855
80	0x3d98c3b9	0.07459206
81	0xbd0b695d	-0.03403603
82	0x3d7d8151	0.061890904
83	0xbd0c5748	-0.034262925
84	0xbcfd46a0	-0.030917466
85	0x3caf5b2e	0.021405783
86	0x3d3c4ff5	0.04597469
87	0x3d721e5f	0.059110995
88	0xbdc8df5d	-0.09808228
89	0x3dbfdc03	0.09368136
90	0xbd274099	-0.04083309
91	0x3bcab518	0.006186139
92	0x3dad451b	0.084604464
93	0xbc25927f	-0.010105728
94	0x3dc19eb8	0.09454101
95	0xbd43e24a	-0.047823228
96	0x3d4ab25e	0.04948651
97	0x3d810a2d	0.06300769
98	0xbbfb0e9b	-0.007661653
99	0x3d84d562	0.06486012
100	0xbc669dce	-0.0140757095
101	0x3da5297d	0.08064554
102	0xbd919db8	-0.071101606
103	0xbd8e985b	-0.06962653
104	0xbce3b19f	-0.027794657
105	0x3ca7cb0c	0.020482562
106	0xbd8e0030	-0.069336295
107	0xbd53e6f4	-0.051733926
108	0x3b61cae7	0.0034453215
109	0x3d9e7bae	0.07738434
110	0x3d5501b7	0.05200359
111	0xbd8439fd	-0.06456373
112	0x395b0a0e	0.00020889213
113	0xbd84af49	-0.064787455
114	0x3c89b633	0.016810512
115	0xbd3443ef	-0.0440101
116	0x3ce6f8a4	0.028194733
117	0x3cc655dd	0.024210865
118	0xbd678fce	-0.056533627
119	0xbb67603b	-0.003530516
120	0xbc14842a	-0.0090647135
121	0xbafba82b	-0.0019199898
122	0xbb99822e	-0.004684708
123	0x3d21f57f	0.039540764
124	0xbcfa5ec9	-0.030562775
125	0x3d6f65e3	0.058446776
126	0xbdc986b2	-0.09840144
127	0xbd95c0e8	-0.073121846
128	0x3dc6a567	0.09699517
129	0x3c9f2d93	0.019430911
130	0x3dc537d9	0.09629793
131	0x3d615642	0.055013902
132	0x3ba57dc3	0.0050503924
133	0x3d973688	0.07383448
134	0x3ce3c98c	0.027806066
135	0x3cc5d3cc	0.024148844
136	0xbd02ec17	-0.031963434
137	0xbc81edfb	-0.015860548
138	0x3d5735f1	0.052541677
139	0x3db8b93c	0.09019706
140	0xbbea09e0	-0.0071422905
141	0x3c67f14d	0.014156652
142	0xbda246ab	-0.07923635
143	0x3d7e669e	0.062109582
144	0xbafbb5fe	-0.0019204018
145	0xbb8bc03b	-0.004264859
146	0xbce34449	-0.027742522
147	0xbd18edc2	-0.03733612
148	0xbdbc0985	-0.09181503
149	0xbda2d2ab	-0.07950338
150	0xbd926a0a	-0.071491316
151	0x3da6b659	0.08140249
152	0x3d774533	0.060368728
153	0xbc9066dd	-0.017627174
154	0xbba77062	-0.0051098326
155	0x3cff9d24	0.03120286
156	0x3da8d2db	0.082433425
157	0xbd47d0f6	-0.048783265
158	0xbd52163c	-0.051290736
159	0x3c6033da	0.013684237
160	0xbc9a2c68	-0.018820003
161	0xbd547eaf	-0.051878627
162	0x3dc14ea8	0.094388306
163	0x3db913f6	0.0903701
164	0x3dabce6b	0.083889805
165	0xbda85438	-0.082191885
166	0x3d9cb7f8	0.07652277
167	0xbd3adb41	-0.045619253
168	0x3d24e5e7	0.040258314
169	0x3baab54d	0.005209601
170	0xbdbea2d2	-0.09308399
171	0xbcf2457e	-0.029574152
172	0x3d2e184e	0.042503648
173	0xbd36c383	-0.04462005
174	0x3da09b08	0.0784207
175	0x3cbb3ed9	0.022857117
176	0xbd833c5c	-0.06407997
177	0xbc85e045	-0.016342292
178	0x3ccd3853	0.025051272
179	0x3ae64742	0.0017568844
180	0x3d5b82ff	0.053591724
181	0xbd804bce	-0.062644586
182	0xbc51452e	-0.012772841
183	0xbda4ac2b	-0.08040651
184	0x3da0b05a	0.078461364
185	0x3db3af25	0.087736405
186	0xbd0f63a7	-0.035007145
187	0x3bf3a995	0.0074359872
188	0xbdabf3c8	-0.08396107
189	0x3be47adc	0.006972654
190	0xbd89f1d0	-0.06735575
191	0x3c621a1e	0.013800172
192	0xbd7d0fe2	-0.061782725
193	0xbdc96fd2	-0.09835781
194	0xbca2c617	-0.019869847
195	0xbd802cb5	-0.06258527
196	0x3d9ab95a	0.07554884
197	0x3d35e694	0.04440935
198	0xbd9cefa7	-0.076628976
199	0xbb247b8d	-0.0025098056
200	0xbc22d72b	-0.009938995
201	0xbca85542	-0.020548467
202	0x3d62ea59	0.055399273
203	0xbd877dc9	-0.066157885
204	0x3d14f718	0.03636846
205	0x3c85c5eb	0.016329726
206	0x3d9a31a3	0.07528999
207	0x3db34784	0.08753875
208	0xbc92ed4c	-0.017935418
209	0xbd7ff26f	-0.062487062
210	0x3dac0eee	0.08401285
211	0xbdbf46c4	-0.09339669
212	0xbdb256f7	-0.087079935
213	0x3cb27d76	0.02178834
214	0x3d5ecda6	0.05439534
215	0x3bfd7ccb	0.0077358237
216	0x3cf4c1ba	0.029877532
217	0xbc837bc5	-0.016050229
218	0xbda1da7c	-0.07903001
219	0xbd39bee9	-0.04534808
220	0x3d0ed35e	0.034869544
221	0x3c070df6	0.008243075
222	0x3daa6fc7	0.08322101
223	0xbd0d1d3d	-0.034451712
224	0xbd6d405a	-0.0579227
225	0xbd97eaf7	-0.07417863
226	0xba51c678	-0.00080022914
227	0x3d7f2c26	0.062297963
228	0x3cd8cbf4	0.02646444
229	0x3d994e05	0.07485584
230	0x3c765e22	0.015037091
231	0xbd81f38a	-0.063452795
232	0x3d61027a	0.054934002
233	0xbb9b12bb	-0.0047324575
234	0xbcc61754	-0.024181046
235	0x3d396316	0.04526051
236	0xbdc26b1f	-0.09493088
237	0x3cb9627c	0.022629969
238	0x3c58885f	0.013216107
239	0x3d8aba35	0.067737974
240	0x3d8024cb	0.06257018
241	0xbcb29486	-0.021799337
242	0x3d13cd19	0.03608427
243	0x3ce9c30d	0.02853539
244	0xbdb3af16	-0.08773629
245	0xbdaaad79	-0.083338685
246	0xbb84e526	-0.004055637
247	0x3cb1ee5b	0.021720102
248	0xbd4ff29e	-0.050768487
249	0xbce5d274	-0.028054453
250	0xbd238ee8	-0.039931208
251	0x3c80de4d	0.015731001
252	0xbb37ab59	-0.0028025715
253	0x3dcb0ec6	0.09914927
254	0xbdb140a1	-0.08654905
255	0xbd85ca6e	-0.06532751

hidden_layer4.bias f4 [100]
0	0xbda3328c	-0.079686254
1	0x3da95994	0.08269039
2	0xbdb95b0d	-0.0905057
3	0xbdc4a28e	-0.09601317
4	0xbd8c9060	-0.06863475
5	0xbd8ea9dc	-0.06965992
6	0x3d33810f	0.04382425
7	0xbcf5cc03	-0.030004507
8	0xbd8fe873	-0.07026758
9	0x3dd8f777	0.10594075
10	0x3d3b4826	0.045723103
11	0xbdbeabbc	-0.093100995
12	0x3d977a6d	0.07396398
13	0x3ce0a0d5	0.02742044
14	0x3d9e4a49	0.077290125
15	0x3ce3f521	0.027826848
16	0x3cd98c56	0.026556175
17	0xbc548458	-0.012971006
18	0xbd9eac6b	-0.0774773
19	0x3d7b5d22	0.061368115
20	0x3d805e8d	0.06268034
21	0x3d5e5624	0.05428137
22	0xbd957f99	-0.07299728
23	0xbcfae8a2	-0.030628506
24	0xbd1243a8	-0.035709053
25	0x3db7c696	0.08973424
26	0x3d96e28c	0.07367429
27	0xbcffdd4e	-0.031233456
28	0x3d449607	0.04799464
29	0x3cbe9e11	0.023268731
30	0xbd9e1aad	-0.07719932
31	0xbd528fdc	-0.051406726
32	0x3d44dbb1	0.048061077
33	0xbcc82f75	-0.024436692
34	0x3da6b7d4	0.08140531
35	0x3ccc8162	0.024964038
36	0x3d356b61	0.044291858
37	0xbd914181	-0.07092572
38	0xbd99818e	-0.07495414
39	0x3cd4725a	0.025933433
40	0xbda447d2	-0.08021511
41	0xbc6e3c2b	-0.014540712
42	0x3d8ad122	0.0677817
43	0xbcb0e955	-0.021595636
44	0xbd1e6f9b	-0.038680654
45	0x3da3dec7	0.08001476
46	0xba2876cf	-0.0006426395
47	0xbd950c2d	-0.07277713
48	0xbd17f5a5	-0.0370995
49	0x3d512334	0.051058963
50	0x3d9c2f4c	0.07626209
51	0x3cf98162	0.030457202
52	0xbd9d8067	-0.076905064
53	0xbd2a0bdd	-0.04151522
54	0xbd9af294	-0.07565799
55	0xbdabddc6	-0.08391909
56	0x3d9297f7	0.07157891
57	0x3da18dc4	0.07888368
58	0x3d1cb374	0.038257077
59	0xbd4574da	-0.04820714
60	0xbd10e892	-0.035378046
61	0x3b0ae1b2	0.0021191654
62	0x3d6663ab	0.056247395
63	0xbd2f3e17	-0.042783823
64	0xbd8015ed	-0.06254182
65	0x3d0a2c0a	0.033733405
66	0x3d59084e	0.052986436
67	0xbd108a5d	-0.035288204
68	0x3bce5e1f	0.006297841
69	0x3d139a77	0.03603598
70	0x3ccabec0	0.02474916
71	0xbc636f02	-0.013881447
72	0xbd59365e	-0.053030364
73	0x3ce98d92	0.028509889
74	0x3dbb5db1	0.091487296
75	0x3c0789c7	0.008272595
76	0x3d0674ec	0.03282635
77	0x3c6cd687	0.014455444
78	0x3b6df00c	0.003630641
79	0xbd9c5b98	-0.076346576
80	0xbd3015dc	-0.042989597
81	0xbc45a641	-0.012063564
82	0xbd5961fb	-0.053071957
83	0xbdcebd30	-0.100946784
84	0xbdb1e771	-0.08686722
85	0x3d44f3af	0.048083957
86	0xbdc8dc91	-0.09807695
87	0x3da3121b	0.07962438
88	0x3d553b8c	0.05205874
89	0x3c0c94e2	0.008580418
90	0x3d9122d9	0.07086725
91	0x3d678224	0.056520596
92	0x3d70c7d3	0.058784317
93	0xbdb9b130	-0.09066999
94	0xbdc5c8ae	-0.09657417
95	0xbd1fe0b5	-0.039032657
96	0x3d6e8c35	0.05823918
97	0xbdb166bc	-0.08662173
98	0x3d8252ac	0.06363425
99	0xbd384d9e	-0.044995897

output_layer.weight f4 [1, 100]
0	0x3cfcb5d5	0.030848423
1	0x3d0022f4	0.031283334
2	0xbd62a5fc	-0.055334076
3	0x3ca366ad	0.01994642
4	0xbdde855c	-0.1086528
5	0x3dcb707f	0.09933566
6	0xba2d85a4	-0.000661934
7	0xbda69b74	-0.08135119
8	0xbd574615	-0.05255707
9	0x3de88878	0.11354154
10	0xbb989294	-0.0046561453
11	0xbd8664de	-0.06562208
12	0xbd8f49e5	-0.06996516
13	0x3d285433	0.041095924
14	0xbdabe06a	-0.08392413
15	0x3cf6e1e0	0.030137002
16	0x3d89ce12	0.06728758
17	0xbc74c285	-0.014938955
18	0xbc62d054	-0.013843615
19	0x3dd0f1e3	0.10202386
20	0xbda81f00	-0.08209038
21	0x3d423303	0.04741193
22	0x3e0d751d	0.13814206
23	0x3dc8d149	0.09805543
24	0x3d8fc229	0.07019455
25	0x3de2b3cc	0.1106945
26	0xbc088b85	-0.008334045
27	0xbd3eaed2	-0.04655344
28	0xbd0292ef	-0.031878408
29	0x3da2a352	0.07941307
30	0xbceee330	-0.029161066
31	0xbcfa1a21	-0.030530037
32	0x3dbf4485	0.09339241
33	0x3ddc680a	0.107620314
34	0xbde93d4c	-0.113886446
35	0x3d8c180a	0.068405226
36	0xbdcb3909	-0.09922988
37	0xbdb4b60b	-0.088237844
38	0xbd949351	-0.07254661
39	0xbd9a359e	-0.07529758
40	0x3e4c379b	0.19943087
41	0xbdd22487	-0.10260873
42	0xbdb71813	-0.08940139
43	0x3dec342e	0.1153339
44	0xbdc3ddc7	-0.09563785
45	0x3e275dfd	0.16344447
46	0xbcb686ac	-0.022281013
47	0x3dd4c176	0.10388462
48	0xbd1902b2	-0.037356086
49	0xbdb0b8cb	-0.086289965
50	0xbdc7d4d7	-0.09757393
51	0xbd8acdf8	-0.06777567
52	0xbd9e6021	-0.07733179
53	0xbdc24c9c	-0.09487268
54	0x3d26daf0	0.04073614
55	0xbc2ce56c	-0.010552745
56	0xbd18bd94	-0.03729017
57	0x3d4fe9be	0.050760023
58	0xbcb24aa4	-0.021764107
59	0x3db9e8db	0.09077617
60	0x3d767a63	0.06017531
61	0xbc012b53	-0.007883864
62	0xbda21099	-0.07913322
63	0x3b985bb6	0.0046496047
64	0xbc829981	-0.015942337
65	0x3d3263ab	0.043552082
66	0xbd81b3ef	-0.06333148
67	0x3cac56da	0.021037508
68	0xbde7490e	-0.11293231
69	0x3d8ce09e	0.0687878
70	0xbdb39e25	-0.08770398
71	0x3dd9b37b	0.10629936
72	0x3d4bc5d8	0.049749225
73	0x3d845794	0.06462017
74	0x3cf49ab3	0.029858923
75	0xbdd0eba1	-0.10201193
76	0xb8e0aea7	-0.00010713684
77	0xbc919620	-0.01777178
78	0x3b52b2b3	0.003214997
79	0xbdcc7cbe	-0.0998473
80	0x3bdc0653	0.006714621
81	0xbd6da7de	-0.05802142
82	0xbdc68b28	-0.09694511
83	0xbdc09de7	-0.094051175
84	0xbd7ee087	-0.062225845
85	0xbdc14d3b	-0.09438559
86	0x3c9e820d	0.019349122
87	0xbd89eb61	-0.06734348
88	0x3e1cc9e4	0.1531139
89	0x3c5019eb	0.012701492
90	0x3db140ec	0.08654961
91	0x3d803980	0.06260967
92	0x3d41fa61	0.04735792
93	0x38a7adb8	7.995538e-05
94	0x3ba1336f	0.0049194614
95	0x3d881db4	0.066462904
96	0xbbd79bef	-0.006579868
97	0x3cbf7b37	0.023374183
98	0xbd85e45f	-0.06537699
99	0xbd99d6e8	-0.07511693
