linear/test1/pow2.pth (torch, 125575 bytes, 9 tensors)

hidden_layer1.weight f4 [100, 1]
00000000: dcf8 b2be 3925 5a3b 3e3f 2d3e d897 393e
00000010: e89d 45be 0cb4 9e3e 7452 18be 4b73 183d
00000020: 69e5 703e 2b59 87be 920f 2dbe ebce 6e3c
00000030: 2f98 843e 0fdd 9e3e 9a9a ecbd 8684 84be
00000040: df1e 11be bcfe 25be 9b7f d7bd e765 89be
00000050: 5277 edbd 6f34 283e 90e3 a03e f266 393e
00000060: 2e7f b4be 7533 9f3e 3a9c 16be 848f 283e
00000070: 81bd 88be af24 443e 8285 9cbe 3c3f 71be
00000080: db81 b6bd cead 403e f2c4 81be 20c4 183d
00000090: 3720 58be 0e44 363e 4cd9 ccbe 2bcd 993c
000000a0: 0e50 773e 9964 12be 1b1f ddbd 95c9 b63e
000000b0: 78cb 7a3e f0f0 673e 5388 343e 13b9 c8be
000000c0: 7d0f 94be b32c 823e c727 39be acb6 80be
000000d0: 3f75 08be 14a1 37be 6394 aebd e720 683e
000000e0: fad7 1dbe 2a1a 1d3e 6b92 933e 11c9 963e
000000f0: dd21 843e 4c3c 3d3e a654 c93e c97d 91be
00000100: 34f9 5dbe b599 8ebe 8ac2 b23e 79c2 9d3e
00000110: a9cb 593e bb0a f23c 2f57 3f3e 97c1 81be
00000120: eef6 bc3e 6add 68be 0911 27be 8829 283e
00000130: ca1a 733e 4113 53be 2243 1bbe f96e 133e
00000140: 8623 86be ed36 9b3e 0894 07be 7a2a a53e
00000150: 3598 333d cc1b 53be 3599 583e a8c6 1a3e
00000160: 0cea 8ebe 0999 92be 8ab3 56be d831 383e
00000170: 311b 5a3e 545c 8fbe 8a61 633e 172b 5c3e
00000180: 5374 823e af03 62be 6db3 45be 59d2 3c3e
-0.3495549 0.0033286347 0.16918656 0.1812433 -0.19298518 0.3099674 -0.14875203 0.037219327
0.23525013 -0.26435217 -0.16900471 0.0145757 0.25897357 0.3102803 -0.115529254 -0.25882357
-0.14171933 -0.16210455 -0.10522386 -0.26835558 -0.11595024 0.16426252 0.31423616 0.18105677
-0.3525328 0.31093946 -0.14708033 0.16460997 -0.2670708 0.19154619 -0.30570608 -0.23559278
-0.08911487 0.18816301 -0.2534557 0.037296414 -0.21106039 0.17799398 -0.40009534 0.01877459
0.24151632 -0.14296187 -0.107969485 0.3570067 0.2449168 0.22650504 0.17630129 -0.392037
-0.28918067 0.25424728 -0.1808158 -0.25139368 -0.13325976 -0.1793254 -0.08524396 0.22668801
-0.1541442 0.15342012 0.28822646 0.29450276 0.25807086 0.18480033 0.39322394 -0.2841628
-0.21677095 -0.27851644 0.34914047 0.30812433 0.21269096 0.029546132 0.18685602 -0.2534301
0.36907142 -0.22740713 -0.16315092 0.16422093 0.23740688 -0.20612814 -0.15162328 0.14397801
-0.26198977 0.30315343 -0.13240063 0.3225897 0.043846328 -0.20616072 0.21152194 0.15114844
-0.2791294 -0.28632382 -0.20966926 0.17987764 0.21299435 -0.28000128 0.22205177 0.21500812
0.25479373 -0.22071718 -0.19306727 0.18439616

hidden_layer1.bias f4 [100]
00000000: 2926 d2be 4826 213f ac08 033d 7bb0 d4bd
00000010: ae3a 11be 380b d53e 8e13 fa3d b09e 8f3f
00000020: 3f62 1e3f a98c 87bf c406 96be 86da 2e3f
00000030: b114 8abf 2961 afbf fd45 1d3f 1296 2fbf
00000040: bf18 073f 4410 563d ffc9 0b3f 6f38 7abf
00000050: 1349 283f 3759 143f 5d67 b2bf 6bfa e1bd
00000060: d456 1f3e 1fe9 593f 153c bc3d 801d 0cbe
00000070: 71cc 80bf 8005 87bd c767 abbf bdfe 54bf
00000080: 1a5e 253f e28c fa3c 8421 5cbf 8d11 843f
00000090: f0ee bd3e 1f2a 85be b57f 013f 72b8 863f
000000a0: d3c9 80bf 3508 453f fc82 593f f5a6 1d3f
000000b0: 1a21 64bf fe3c 18bf f37c 85be b904 6dbf
000000c0: 5220 5dbf aaa0 1a3f 98e0 29be 7bcf 48bf
000000d0: cbb4 a03e e12c c1bd 677e 263f 9d5b 73be
000000e0: 8188 e2bd d691 4a3f 0533 3c3f 3139 94bf
000000f0: 69ad ac3e d8a3 acbe f019 d2be 4fcd 95bf
00000100: d622 18be 2b74 68bf b31a 053f 1599 7ebf
00000110: 1c88 353d 5647 833f 35df 3fbe cc08 77bf
00000120: ab4c b2bf faa7 27bf 0067 9c3e 1b74 863d
00000130: 7b70 5dbf bf1e f1be a950 143e 07dd 5c3f
00000140: 0c3e 81bf 8fbc a4be 7ca7 073f 65ed 243f
00000150: 346e a93f 182e 8fbe 1a90 dfbe f8a8 5c3f
00000160: 01c9 8bbf a4ca 98bf 3e92 febe a91b 81be
00000170: 0c13 2b3f 626f 95bf 3624 ba3d 1854 15bf
00000180: 1ee5 61bf 7b63 9ebe 3548 d7be 3cc8 ff3d
-0.4104474 0.6294904 0.031990692 -0.103852235 -0.14182541 0.41610122 0.12210761 1.1220303
0.6186866 -1.0589801 -0.29302037 0.6830219 -1.0787565 -1.3701526 0.6143492 -0.68588364
0.52772135 0.052261606 0.54605097 -0.9774236 0.657365 0.5794863 -1.3937794 -0.110340916
0.15560466 0.8512134 0.09191147 -0.13683128 -1.006239 -0.06592846 -1.3391045 -0.832012
0.6459671 0.030584756 -0.8598864 1.0317856 0.37096357 -0.26008698 0.5058549 1.0525038
-1.0061592 0.7696565 0.8496549 0.6158288 -0.8911301 -0.59468067 -0.2607189 -0.9258533
-0.8637744 0.60401404 -0.16589582 -0.7844159 0.31387934 -0.09432388 0.65036625 -0.23765416
-0.11061192 0.7912878 0.7351535 -1.1579953 0.3372605 -0.33718753 -0.41035414 -1.170328
-0.14857039 -0.9080226 0.51993865 -0.99452335 0.044319257 1.0256145 -0.1873749 -0.964978
-1.3929647 -0.65490687 0.30547333 0.06565114 -0.86499757 -0.4709377 0.14483894 0.8627476
-1.009706 -0.3217511 0.52989936 0.64424735 1.3236756 -0.27964854 -0.43664628 0.86195326
-1.0920717 -1.1936841 -0.4972095 -0.25216416 0.6682594 -1.1674616 0.09088938 -0.5833144
-0.8824023 -0.30935273 -0.42047277 0.124893636

hidden_layer2.weight f4 [100, 100]
00000000: 9b20 9ebd 2dd2 72bd 8d97 883d 913d 14bd
00000010: 4551 073d bbbc 9a3d 0b26 e33d 7e59 813d
00000020: f6d2 9ebc 24a8 943c 57f9 6a3d 6a6c b83c
00000030: ca1a c03d fc3e a53d 9b30 af3d e1d4 3e3d
00000040: b7df 9f3d b8a8 713d 60c7 70bd 422f dbbd
00000050: 2134 8f3d 3d5f 363d 0683 943d c970 90bd
00000060: 69a5 393c 43c6 993d 9460 7f3d 0edb db3a
00000070: 9102 d03c 7899 a6bc f420 18bd 7790 c4bd
00000080: badf b53b 893f 8cbc ba62 b03d 9599 303d
00000090: 13e7 b7bd 193b 8f3d 3774 ed3c 75f2 8fbd
000000a0: ee58 fd39 9d22 5dbd fe68 8bbc 21c2 113d
000000b0: df14 fe3d e130 b7bc 79f8 a0bd 6e14 cbbd
000000c0: a377 ce3c 3406 a7bc 8a04 82bd 3baa 9fbd
000000d0: aa7b 853d b80d 66bd 6748 093d b10b c23d
000000e0: 3480 34bc f2d0 443d 22ab 7abc a17f ec3d
000000f0: cad0 dbbc 3a29 2a3d a484 593c b42f 2bbd
00000100: b165 bebc dd09 0abe 2315 b5bd e143 b23d
00000110: 280c 963d eb96 d4bd 3c26 ffbc be99 ccbd
00000120: e2af 1c3e 37e4 b6bd b04c 20bb 1c37 723d
00000130: ce57 83bc bebc b53d d799 86bc 297a bfbd
00000140: e88f b43d cfaa b53d 08b5 b6bd 4fed acbd
00000150: 3c83 fabd 6e3b 6abd bec5 0bbc e7d3 283d
00000160: 6448 95b9 123f c6bc 8f51 eabb 7877 043d
00000170: 29b1 9e3d 91a5 b43d 2e4e 9a3d 683c 75bd
00000180: 9cd5 6c3d 812f 9abd 68a9 e9bc 9488 463d
00000190: 600a 2f3d d354 dd3c c7a5 5cbc fda8 88bc
000001a0: e490 873a accd 383b 87ee 8fbc a50c 56b9
000001b0: 6d20 d23d d9d7 093e 4001 be3d c764 0cbe
000001c0: 52fe 043d 532a f63d ca2e 583d 2a0a 973d
000001d0: 75e6 83bd 5510 01bd 2542 f2bc 68f3 083d
000001e0: 4603 d2bd 2aaf 68bd 4df7 9a3c 5197 39bd
000001f0: d4df e53b 8e8b fb3c 5dfc dc3d c80c c53d
00000200: bb98 a73c 7873 d1bc 554b ec3d ca95 0ebc
00000210: 99dd 323d f9fd cf3d 7536 33bd 7d45 eebd
00000220: 7412 a23d f72c b03b 857f c1bd ed86 16bd
00000230: 7666 883d b47c 763d 7022 99bd eeb0 df3c
00000240: 21e0 823d ed03 ab3d a60f 1e3b f95b 803b
00000250: 0abd b33d 7b9a c73c 6667 7e3d 2849 933a
00000260: a376 a93d aa83 10bc f40c a03d d90f 2abd
00000270: 64e7 8a3b 9646 c73c 35d3 d9bd 2880 9dbc
00000280: eb93 cfbb 483f 89bb d98b a9bc caad 20bd
00000290: 624b 2e3d f557 cebc 8c88 2c3d d3b3 85bb
000002a0: 7df3 9d3d 6593 62bd c8d5 b33b 6940 d13d
000002b0: b3f5 d83d 1f7f 0e3d cb70 b3bd 0185 853d
000002c0: 736c be3d 85ae aa3d da4a 56bd 804a 223c
000002d0: 223e d13d c569 16bd 0278 3c3d e338 623c
000002e0: 9883 2dbe 9578 c33d 5708 023e 84b9 39bd
000002f0: b086 e1bc 10a5 133d 7d44 31bc 95cd a03b
00000300: 62aa 8e3d 7587 0b3e e2d3 313d 87d7 163c
00000310: 496f 953d ae98 c53d e9d1 87bd a02f 03bb
00000320: 3a1f ddbc 5187 64bd 7b3d a3bd 89af dd3d
00000330: 26a5 0abd 029a 553d d0f3 403d 8ce7 953c
00000340: 975e 47bd acbd 19bd 2847 86bd 6b87 583d
00000350: 571d 6cbd 143e 70bc 08b6 023d d7af 613d
00000360: 5460 aabc 2938 9bbd 0062 86bd 842a 9e3d
00000370: 6a27 4d3d f906 4ebd 2a92 e23d b9f9 b3bc
00000380: e955 883d 82a0 ef3d 51b1 0cbd 917c b23d
00000390: 8acd b1bd a048 a33d 8a54 fd3b ecca 50bc
000003a0: aca4 a73d 3082 c23c 8835 2ebd 1b01 7e3d
000003b0: dc25 4ebd 43eb 613d 9df6 d8bd f5e7 71bc
000003c0: e2eb b73d 12be 00bd 4831 6eba a53e 06bd
000003d0: e02b abbc dd2e f8bc 3903 63bd b01f f0bc
000003e0: 8dcf ebbd b6bf b93d 3155 acbb f50e b93c
000003f0: 33e1 d23d a604 91bd 0a39 70bd b6b9 9a3d
-0.07721063 -0.05928247 0.06669531 -0.036191527 0.03303649 0.07555529 0.110912405 0.063158974
-0.019387703 0.018146582 0.057366695 0.022512633 0.093801096 0.08068654 0.08554193 0.046589736
0.07806342 0.058998793 -0.05878389 -0.10702373 0.06992365 0.04452442 0.07251553 -0.07052762
0.011330941 0.075085185 0.062347963 0.0016773657 0.025391849 -0.020336851 -0.0371408 -0.09597867
0.005550352 -0.01712014 0.086125806 0.043115217 -0.08979621 0.06993694 0.02898608 -0.07028667
0.00048322178 -0.053988088 -0.017017838 0.035585526 0.124063246 -0.022362174 -0.078598924 -0.09916006
0.025203532 -0.0203887 -0.06348522 -0.07796141 0.06517728 -0.056165427 0.033516314 0.09474886
-0.011016894 0.04805083 -0.01529959 0.11547781 -0.026832957 0.041543223 0.013276253 -0.04179354
-0.02324185 -0.13480325 -0.08841922 0.08704353 0.07326537 -0.10380348 -0.031146161 -0.099902615
0.15301469 -0.08930247 -0.0024459772 0.059134588 -0.01603308 0.0887389 -0.016430778 -0.09349472
0.088165104 0.0887047 -0.08921248 -0.084437005 -0.12232062 -0.057185583 -0.008531032 0.04121771
-0.0002847343 -0.024199996 -0.007150836 0.032340497 0.07748634 0.08820642 0.07534443 -0.05987206
0.0578209 -0.07528592 -0.028523162 0.048470095 0.042734504 0.027017986 -0.013467259 -0.016682142
0.0010342863 0.0028198762 -0.017569793 -0.00020413341 0.10260091 0.13461246 0.09277582 -0.13710319
0.0324691 0.120197915 0.052778997 0.073749855 -0.064404406 -0.031509716 -0.029572556 0.033435255
-0.102545306 -0.056807674 0.01891675 -0.045310322 0.007015208 0.030706193 0.10790322 0.096215785
0.02045857 -0.025567755 0.11537806 -0.008702705 0.043668363 0.10155863 -0.043753106 -0.116343476
0.07913676 0.005376454 -0.094481505 -0.03674977 0.06660168 0.06017752 -0.074772716 0.027306046
0.063904054 0.08350358 0.0024118214 0.003917214 0.08776291 0.024365654 0.062110327 0.0011237012
0.08274581 -0.008820454 0.078149706 -0.04151902 0.0042390097 0.02432565 -0.10635988 -0.019226149
-0.006334772 -0.004188452 -0.020696567 -0.03922824 0.04255236 -0.025188426 0.04212241 -0.0040802746
0.07712457 -0.055316348 0.005488131 0.102173634 0.105937384 0.0347892 -0.08761748 0.06519509
0.09298029 0.08334068 -0.052317478 0.0099054575 0.10216929 -0.036721963 0.046012886 0.013807508
-0.1694473 0.095444836 0.12698494 -0.045342937 -0.027530044 0.036046088 -0.010819552 0.00490732
0.06966092 0.13625892 0.043414958 0.009206659 0.072966166 0.09648262 -0.06631834 -0.00200174
-0.026992429 -0.05579311 -0.07970711 0.10824496 -0.033848904 0.052148826 0.047107518 0.018298887
-0.048674192 -0.0375344 -0.06556541 0.05286352 -0.05764517 -0.014663238 0.03191188 0.055099335
-0.020797886 -0.07579071 -0.06561661 0.07722953 0.050086416 -0.05029962 0.11063035 -0.021969663
0.06657011 0.11700536 -0.03434879 0.087151654 -0.086817816 0.079728365 0.007731025 -0.012743693
0.081857055 0.023743719 -0.04253152 0.062012773 -0.050329074 0.055156004 -0.10593913 -0.0147647755
0.08980538 -0.031431265 -0.0009086323 -0.032774586 -0.020894945 -0.030295784 -0.055422995 -0.029311985
-0.115141965 0.09069769 -0.005259179 0.02259014 0.102968596 -0.07080965 -0.058648147 0.07554953

hidden_layer2.bias f4 [100]
00000000: 5eba 11be 3a76 19be a894 0e3d 9320 a3be
00000010: 3691 893d d0b4 9a3d ec87 d5bd 97ad d5bd
00000020: 2cde 30bd ad62 abbd dac0 2abe cd5b 24be
00000030: d94d a3bc 2a80 303d e009 583d ffc0 2bbe
00000040: 7af7 66be e0a3 55bd 007e b23d 8c3c 63bd
00000050: bdd2 fb3c cd73 17be 492a 8a3a 6ea4 5cbe
00000060: d4a7 293d b57b e1bc c55c 59bd 7122 c23b
00000070: bfb4 dfbd e436 c33b a728 fabd 082a 0dbd
00000080: 68c8 e43d 448a c2bd ad26 02be 1e25 0c3d
00000090: d9c6 47ba 7a89 f2bc d50f 363a 9ab6 78bd
000000a0: e4db cc3d a824 34be 6f6b 483d 8167 9abd
000000b0: e41c 013e e580 88bd 40f9 81bd c477 9dbe
000000c0: b334 04bd 33e9 34bc 6a21 98bb 8b38 ff3c
000000d0: 792c 88bd edbe 0a3e 0cd9 95be cacf e93c
000000e0: f3ec e9bd 1c0b fabc cb80 34bc 52b7 82be
000000f0: 33de b53c ed4b 4abe 320e 97bd 4ab2 843d
00000100: 8aca 1dbe 0015 9d3d 2e5d 0bbe b751 3dbc
00000110: efcc e6bc c019 1ebd 2e37 f53d 1441 03be
00000120: c11b b23c 11a8 2a3d a0af 863d 7b89 66be
00000130: 2c84 67bd 1687 8a3b 3e5a 8dbd 8e4d bdbe
00000140: 2da5 2dbe 11e0 c33d b75d 04be b8b5 54bd
00000150: 5660 79be 9e21 84be 6b80 9e3d 0172 7bbe
00000160: 8eb0 25bd 9cf3 033d d307 bcbe c497 973c
00000170: 00d9 e5bd a31b 803d da0b 6cbe 1112 85bd
00000180: 9800 85bd 84ee 0b3e 907a ebbd 10a4 9b3c
-0.1423125 -0.14986506 0.03480974 -0.3186079 0.0671715 0.075540185 -0.10426316 -0.104335
-0.04318063 -0.0836843 -0.1667513 -0.16050644 -0.019934582 0.043090977 0.052743793 -0.16772841
-0.22555342 -0.052158237 0.08715439 -0.055477664 0.030740136 -0.14790268 0.0010541166 -0.215471
0.04141982 -0.027524808 -0.053066988 0.005924516 -0.109231465 0.005957471 -0.12214785 -0.034463912
0.11171037 -0.09499028 -0.12710066 0.034215085 -0.0007620878 -0.02960657 0.0006945108 -0.060721017
0.10002878 -0.17592108 0.04893058 -0.07539273 0.12608677 -0.0666521 -0.06346369 -0.30755436
-0.03227682 -0.011041927 -0.004642655 0.031154891 -0.066491075 0.13549395 -0.29267156 0.028541464
-0.114221476 -0.030522875 -0.011017035 -0.25530487 0.02220068 -0.19755526 -0.073757544 0.064793184
-0.15409294 0.07670021 -0.13609764 -0.011555127 -0.028173892 -0.038598776 0.11973415 -0.12817794
0.02174175 0.041664187 0.065764666 -0.22513382 -0.056522533 0.0042275293 -0.06901978 -0.36973232
-0.16957541 0.09564222 -0.12926374 -0.051931113 -0.24353155 -0.25806898 0.077393375 -0.24555208
-0.04045158 0.032214746 -0.3672472 0.018504985 -0.1122303 0.06255271 -0.23051396 -0.064975865
-0.06494254 0.13665205 -0.11497986 0.01899913

hidden_layer3.weight f4 [100, 100]
00000000: 6712 843d 2568 d6bd 4fc0 65bc e3e3 a03d
00000010: 8b1e 143d 0160 aebd 2239 f3bb 46a3 a5bc
00000020: 2e82 863d d3f9 803c 24a2 40bd 443c 923d
00000030: 7949 56bd 6a06 47bd 4732 bcbd 4b65 b73d
00000040: a905 dfbd bdf2 a5bc c90f 753b 41ce acbc
00000050: 9df5 2cbd 86f8 323d 2663 bebc 8dfd b23d
00000060: 3635 ae3b 2b11 a63d 89c0 183d 19bc ce3c
00000070: 3047 86bd 4713 16bd ead2 ddbd 653d 963d
00000080: 4dee 9e3d 3875 c3bd 1233 d5bd 0f04 aabd
00000090: 514c 4e3d 4f10 6ebd c722 963d 7334 afbd
000000a0: 5f96 233d 8ad4 b8bd 9205 c23d 1367 45bd
000000b0: 83c7 153d 50ae 07bd 3e47 55bd 6153 723d
000000c0: 391e 26bd 5fca c2bb 8b70 083d 11cd c7bd
000000d0: d3a8 803d c88a 99bc a22e 9ebd a7b7 9f3d
000000e0: ee4f d5bc 646c 993d e941 9e3d a30e efbc
000000f0: c34a 8abd 6131 83bc a99a 7f3d 7adb 29bd
00000100: 09b7 293d eb54 6c3d d6e5 76bc be33 363d
00000110: 6943 163d 3816 a7bd 889f 403d 5550 a8bd
00000120: 86f3 11bd 1ce7 bb3d 5a3f a3bd 950c f3bb
00000130: 442c 1bbc 9796 613d b804 a63d 0cdb 32bd
00000140: f51c 96bd 23b7 5b3d 66c5 ba3d 5b45 a53c
00000150: f1f0 1bbd b1f6 a93d d69f 87bd 7c25 8c3d
00000160: 5440 efbc 7401 6b3d 0b18 9cbd ecce efbc
00000170: f789 ccbd a449 9f3d 9f97 143d bb13 b33c
00000180: 3bc5 cd3c 6b08 aebd cc1a 4a3d fb38 333d
00000190: 5ea8 83bd 6d51 ba3d f55e e93c 55a2 9e3d
000001a0: 4a09 a23d da2b 733d 6cb1 61bd 70ef 16bd
000001b0: ca29 b9bc 6ec8 acbd 088e 103d 1c46 6abd
000001c0: ce5c c13b b996 97bd aca1 a83d 1ba0 753d
000001d0: 8583 523d 2801 7abd 9f06 03bd d1de 0e3d
000001e0: 3dff 3e3d 3c01 dcbc 6be0 683c 248b 463c
000001f0: 0481 2e3d eb57 77bd b9cc 183d d865 813d
00000200: 2853 35bd 7a11 723d b9fc 68bd a784 3d3d
00000210: 84e4 f83b 7f1e 32bd bd74 37bd 8314 403c
00000220: ae04 a83c 7d2e c8bd 8ad1 abbd c4cd a7bd
00000230: 792b 613c a646 dbbc 0c1b 79bd 76de afbd
00000240: 8721 cd3c 2a63 223d a3c9 863d 1acc 10bd
00000250: 00f6 f2bc 0af1 943d 7ded edbc dbd7 93bd
00000260: 94c9 893c 87d4 4a3a 0101 b9bd 9e59 91bd
00000270: 43d0 8cbd e920 8f3d 648d 253d 0785 423c
00000280: 014c b23c fb80 8fbd 8118 dfba 4c1f 30bb
00000290: 351c c43d 3fbd c13d 93ce edbc 3377 193d
000002a0: 61c8 4bbd 97b2 c1bd 1742 903c a5c2 203d
000002b0: d289 89bd b2c3 10bd 0ee9 b9bd 045e 9bbd
000002c0: 62b4 0f3b bfc6 663d bb9d 843d c02d a8bd
000002d0: 1ab1 c43d c881 e23b 0f70 973d 6de6 473c
000002e0: d1c3 cb3d 741c 34bd 5576 b0bc 0b65 aabc
000002f0: 102c 533d 421c b33d 58a0 63bc 89d4 413d
00000300: 0746 423c 0b08 aa3d feb3 c7bd dc35 a3bc
00000310: c203 29bd 79fe a63c b3d8 45bc e201 63bd
00000320: 2283 febc 49fe c23d e7f5 2a3c 6c07 8bbb
00000330: fdb2 943d 393e bcbc 43aa 8b3d 654d 7ebd
00000340: a94c 4f3d 2554 d7bc 9367 b23d aa38 84bd
00000350: 2329 74bd 918c 9dbd 97c4 893d 2205 ce3d
00000360: 17c4 6c3c 1391 6abd 3360 06ba 5e27 2cbc
00000370: 9a53 733c fbbc 96bc 74fe 133d e9a8 8fbd
00000380: 19da 57bd 528c 6b3d f942 7a3d 6efc 973d
00000390: 85ff b8bc 1fa6 d43c 4678 6e3d a3c5 a93d
000003a0: e5b1 633d a13a d3bb d28c ac3d 3083 0a3c
000003b0: 871c a8bd 1bab 5ebc f626 30bd 7a9e bc3b
000003c0: c2a7 3d3b 01ef 4d3d 5f7b 1d3d 5d8f 4cbd
000003d0: 7db7 0abd a9f6 013d 2930 67bd 84ac f9ba
000003e0: 87b1 583d 512d 8e3d df70 84bd 29b8 b23d
000003f0: 2a98 8d3d 1d7f d1bc b322 ccbb bd51 a23b
0.064488225 -0.10469083 -0.014022901 0.07855966 0.03616194 -0.08514405 -0.0074225822 -0.020219456
0.065677986 0.015744125 -0.04702963 0.07140401 -0.052316163 -0.0485901 -0.09189277 0.08954867
-0.108897515 -0.020257348 0.0037393442 -0.021094443 -0.042226423 0.04369404 -0.023240637 0.08739767
0.005316402 0.08108743 0.03729299 0.025236176 -0.06556547 -0.036639478 -0.10831244 0.07335929
0.07760296 -0.09543842 -0.104101315 -0.08301555 0.05036575 -0.05812102 0.07330852 -0.08554926
0.039938327 -0.090249136 0.09473719 -0.048194002 0.036567222 -0.03312522 -0.052069895 0.059161548
-0.040556166 -0.0059445347 0.033310454 -0.0975591 0.06282201 -0.018742934 -0.07723738 0.07798701
-0.02603909 0.07491377 0.07727415 -0.029181784 -0.06752541 -0.016014757 0.062403355 -0.041469075
0.04143432 0.05769817 -0.015069446 0.04448294 0.03668538 -0.08158535 0.04702714 -0.08218447
-0.035632633 0.0917494 -0.07971068 -0.0074172714 -0.009471003 0.055075254 0.08106369 -0.04366593
-0.07329742 0.05364145 0.09119682 0.020174673 -0.038071577 0.08299006 -0.06622283 0.06843087
-0.029205479 0.057374433 -0.07621773 -0.029273473 -0.09987252 0.07777718 0.03627741 0.021859994
0.02511846 -0.08497699 0.04934196 0.043755513 -0.06428598 0.09097562 0.028487662 0.07745806
0.07911928 0.059367992 -0.055100843 -0.03684944 -0.022602934 -0.084366664 0.0352917 -0.057195768
0.0059009558 -0.07401795 0.082339615 0.05996714 0.051394958 -0.06103626 -0.031988736 0.034880463
0.046630133 -0.026856057 0.014213662 0.012118135 0.042603508 -0.06038658 0.037304614 0.06318253
-0.044268757 0.0590987 -0.05688164 0.046269085 0.0075956006 -0.043486115 -0.044789065 0.01172364
0.020510044 -0.09774492 -0.08389576 -0.081935436 0.013743275 -0.026767086 -0.06081681 -0.08587353
0.025040401 0.03964535 0.06581428 -0.035350896 -0.029658318 0.07272537 -0.029043907 -0.072189055
0.016819753 0.00077373575 -0.090333946 -0.07097171 -0.0687566 0.06988699 0.040418044 0.0118725365
0.021764757 -0.07007023 -0.0017020853 -0.0026874123 0.095756926 0.09459924 -0.029029166 0.037467193
-0.049751643 -0.094578914 0.01760964 0.039248127 -0.0671574 -0.03534288 -0.09077655 -0.075862914
0.0021927585 0.056341883 0.06475397 -0.08211851 0.09604092 0.006912444 0.0739442 0.012200934
0.099494584 -0.043972448 -0.0215408 -0.020800134 0.051555693 0.08745624 -0.013893209 0.04732183
0.011857516 0.08302315 -0.09751128 -0.019923143 -0.04126335 0.020385014 -0.012075591 -0.055421717
-0.031068388 0.09521157 0.010434604 -0.004242828 0.07260702 -0.022978889 0.06819584 -0.062085528
0.05061022 -0.02628524 0.087111615 -0.0645612 -0.059609544 -0.076928265 0.0672695 0.10059573
0.014451048 -0.05726726 -0.0005126029 -0.010507433 0.014851475 -0.01840066 0.036131337 -0.07014639
-0.05269823 0.057506867 0.061099026 0.07421194 -0.022582779 0.025958119 0.05822017 0.08289649
0.055589575 -0.006446198 0.08425297 0.008454129 -0.08208566 -0.013590599 -0.043005906 0.0057561966
0.0028939103 0.05027676 0.038447734 -0.04994141 -0.033866394 0.031729374 -0.056442413 -0.0019048606
0.05290368 0.06942237 -0.06466841 0.08726532 0.069137886 -0.025573308 -0.0062297224 0.0049535916

hidden_layer3.bias f4 [100]
00000000: 7e98 62bd a83a cb3c e533 a83d 3882 b13d
00000010: e249 b2bd f369 76bd 1b81 5abd 9380 8f3c
00000020: 8f4e ae3d a565 a43a 61b1 02be fc76 be3c
00000030: 6ab8 25be badb f83c 9e5b 78bb 392d c1bd
00000040: c4c1 9b3d 3b1b 69bd 4ceb 8abc 7716 4e3c
00000050: d79b c5bd fac8 8d3c 5dfb 9f3c 4c72 a53d
00000060: 1d4b 5a3d aa2a 41bc 7149 773d 07f1 b2bd
00000070: 263c fabd ff3d 0b3d 47c5 f43d 9928 49ba
00000080: f7e9 bcbd 820a 033e 60c6 23bd 7201 38bd
00000090: 3a27 b73c c18b 7ebd 60f1 ae3d 1284 323d
000000a0: 8013 8f3d 1e45 fc3b 13b2 edbc 2b65 c43c
000000b0: 3a90 c03d 9ebf e9bd a6b2 ec3c 47fe 82bc
000000c0: 8348 2e3d 1c90 e43c 7dbf 9fbd e47b e63d
000000d0: ada8 463b 184a 80bd 1bb9 36bc d082 863d
000000e0: d766 3e3d e536 9cbc cedd 5ebd 34af 05bd
000000f0: ee93 a03c 642c 63bd 4e87 353d 2b13 16bd
00000100: a7be a8b9 c44e 0e3e 10d8 c1bd 6c07 8d3d
00000110: 96ae c03d 8b3e 07be 9677 6a3c 693c dcbd
00000120: f864 63bc 0d55 043d 7971 b83d 2198 983d
00000130: 8ae8 41ba c2bc 763d 4419 08bc feea 16bc
00000140: 91e6 bc3a 7be3 b7bc 5022 e9bd c288 75bc
00000150: 3929 bb3d 0ab8 833d 2474 7f3d 898e 9dbd
00000160: b48a 75bd 3732 c53c 32e6 12bd 7009 b03d
00000170: b866 54bd c6be e1bd 47d0 a03d 770e ec3c
00000180: 2676 c73c e190 f7bd 0b12 4dbd 7f5a 08bd
-0.05532121 0.024808243 0.08213023 0.086674154 -0.08705498 -0.060159635 -0.05334578 0.017517364
0.085110776 0.00125425 -0.12762977 0.023250096 -0.1618363 0.030378211 -0.0037896405 -0.09432454
0.07605317 -0.056910735 -0.016957901 0.012578598 -0.09648865 0.017307747 0.019529039 0.08078441
0.05329429 -0.011789957 0.060372774 -0.087373786 -0.12218504 0.03399467 0.1195169 -0.0007673591
-0.09224313 0.12796977 -0.039984107 -0.044923253 0.022357572 -0.062145 0.085421324 0.043582983
0.06986141 0.007698669 -0.029015576 0.023974022 0.09402509 -0.11413501 0.02889378 -0.01599039
0.04254962 0.027900748 -0.07800195 0.11254099 0.003031294 -0.06264132 -0.011152531 0.06567919
0.046484794 -0.019069145 -0.05441075 -0.03263779 0.019601788 -0.055462256 0.04431849 -0.036639374
-0.00032185504 0.13897234 -0.09465039 0.06886181 0.094082996 -0.13207452 0.014310738 -0.1075371
-0.013879053 0.032307673 0.09006018 0.07450891 -0.0007397017 0.060238607 -0.008306805 -0.0092113
0.0014411976 -0.022447338 -0.11383498 -0.014986219 0.09138722 0.06431587 0.06236662 -0.07693202
-0.05994673 0.024071796 -0.035864063 0.0859555 -0.051855773 -0.11022715 0.07852226 0.028815491
0.02434833 -0.1208818 -0.050066035 -0.03328943

hidden_layer4.weight f4 [100, 100]
00000000: bbb6 ff3c 115b 443c ff0a 833d 93c6 5dbd
00000010: e548 893c b3b2 c43d 46dd 723d 5cb1 a4bd
00000020: 35f2 283d 6df2 8dbd a383 4bbd 04e2 79bd
00000030: d982 733c aa43 493d 07a5 0c3e 7e39 c4bc
00000040: 4a3f e83c ca49 b9bd 5b99 9cbd 9728 473d
00000050: 1a46 263c 175b 84bd f976 02bd fffd 36bd
00000060: 6a8f ed3d 4c50 473d c2d9 9fbd 1e8e 133c
00000070: 34be ec3d 25b7 003e 7b5d e83d c1f1 5c3c
00000080: 6ec2 37bd 8322 bdbc a963 1dbd d989 edbb
00000090: 1207 1f3d fdcf 0d3d 6fea 973d 99ab e53d
000000a0: 89da 73bd 83bc d73d b7c0 9fbd 4d0f 4ebd
000000b0: a2da bf3d bb8c 093d 2963 44bd dfac bf3d
000000c0: 2297 9b39 af75 5cbd 2198 5fbd 222d 11bd
000000d0: 6e8e e63c 59ef e1bc 35ad 14bd 1b24 37bc
000000e0: 330a ba3c 6d3c bc3c 5c7a b4bd 34ff b13d
000000f0: 958c d5bc c307 fd3c 66a3 13bd d4d4 f73c
00000100: a462 abbd 91f3 d13c e94d b23d 652b 9d3d
00000110: 51d6 3ebd 3c46 093c a6f8 9abd 8e81 933d
00000120: c51f 9f3d d078 8a3d 49b1 81bd 3f4a 9d3c
00000130: f748 593d 02b6 e03d 0ef4 e03c 7a58 4cbc
00000140: 4f30 483d 9e3f 9abd b73c df3d c597 9a3d
00000150: 52ab ea3d f20a fd3c 3639 c9bd 8c8c c0bd
00000160: 4c57 db3d cd88 0cbc 56fc cbbc 9658 813d
00000170: 16cd b83d 0989 12bd 8058 16bc d01d c93c
00000180: f5d1 0dbc 98dc b83d cd80 c3bd 1809 dfbc
00000190: 92c5 a93d 4c46 483d 56bc c4bd a7de 153c
000001a0: ccf1 8d3d f496 5b3b 1a79 13bc e545 833d
000001b0: aef6 453d 914d 193d ef2c 9b3d d444 e7bb
000001c0: e2c6 7e3c 91a5 65bd a209 e7bd 3e2a 0a3d
000001d0: 3431 843d 79fe 4a3d c260 2cbd a99b 8a3d
000001e0: 4587 b0bd 4977 d3bb a696 1cbd 53af 8f3d
000001f0: 75c9 0fbc 7b65 9d3d beef 823d 7fc6 c3bd
00000200: 4d1f 013c 6fc0 8d3d 7ec1 c1bd 0652 c63d
00000210: 1887 c63d f710 a13d e2b4 8fbd 88c0 38bd
00000220: 54bf 40bd 74d7 a1bc 8208 b93a fd45 bf3d
00000230: bc09 9fbb a86e 71bc 1019 363d 74e1 983d
00000240: db2a d4bb 6dab bc3d ce97 403d 05aa af3d
00000250: 6bae c33d 4f59 933d 0671 053d dc7d 4b3d
00000260: 9e97 4e3d d1a7 c73d 1aa0 1d3c d1be 0d3d
00000270: c421 7cbd d55a 6b3c d00f 95bc 180c bbbc
00000280: 495c 043d 40ff c5bc f10a febc 4dd7 8fbd
00000290: 4df7 5d3d 8f81 3f3c fa09 833d 14ea 36bd
000002a0: 1ca1 813d 3a04 f63c 927e 10bd 15fd b7bd
000002b0: eeae acbd 4e7b b13d db02 413c b1dd babb
000002c0: 892e 11bd efa4 f63b d91d abbd 7f5e 353d
000002d0: 6d02 a83c c15a 903d a1ed 523c 8b42 3abc
000002e0: 7f88 1b3d 0142 4f3d 1ed2 0dbd 63b9 993d
000002f0: 1c92 013c 0fa2 ac3c a610 82bd 26ba 77bd
00000300: 94a7 56bd 43b7 c03d ea39 673d 1f6d 8abc
00000310: fcd3 aa3d 7161 813d 0c97 15bb d379 083d
00000320: 438d d83c e05e 81bd 9166 cfbc 1279 f53a
00000330: 9860 35bc 6148 c1bd 50be 0dbd 0cf3 c83d
00000340: 93f3 3cbd 572f 93bd 05be 8b3d 5ba8 2bbc
00000350: bd58 ab3d 7ef0 a6bc b003 2e3e 8a5c b73d
00000360: 2af9 953d 0e3c 98bd b82b 18bd 313c 9ebd
00000370: f894 cf3c 5622 753d 9591 c93c b809 393d
00000380: 416a 673d 721b f2bc dd56 313d 01ec 0c3d
00000390: 682d 063e ed36 80bd bd72 f1bc fea4 543d
000003a0: 026c c53d 36eb a8bc b4fc 013d 30d0 6e3d
000003b0: 6f01 b43c 3a5f 373d c6c5 99bd eaa1 13bb
000003c0: 8afe a4bd e9a2 8f3d 60e4 57bd 13b1 c13d
000003d0: 1d43 953c 1659 84bc 2c1f 81bd 6561 0fbd
000003e0: ff7d 2dbd 4eab 153d 7f63 8f3c 4d04 c93d
000003f0: 8bbd a5bd 70a4 0bbd 3427 d23d f5e5 3abd
0.031215062 0.011984603 0.06398582 -0.054144453 0.016758392 0.09604397 0.059293054 -0.08041641
0.04124661 -0.06931005 -0.049686085 -0.06100656 0.0148627395 0.049136795 0.13734828 -0.023953196
0.028350491 -0.09047277 -0.07646438 0.048622694 0.010148549 -0.064626865 -0.031851742 -0.044675823
0.1159962 0.04866056 -0.07805206 0.009006051 0.11559716 0.12569864 0.11345955 0.013485373
-0.044863157 -0.023087746 -0.03842512 -0.0072490987 0.038825102 0.03462218 0.074177615 0.1121437
-0.059534583 0.10534003 -0.07800429 -0.05030756 0.09367873 0.033581477 -0.04794613 0.093591444
0.00029676507 -0.05382317 -0.05458844 -0.035443433 0.028144088 -0.02757995 -0.036297996 -0.011178042
0.022709941 0.022978032 -0.08812401 0.08691254 -0.026068011 0.03088749 -0.0360445 0.030252852
-0.083684236 0.025628837 0.087062664 0.076742925 -0.046591107 0.008378562 -0.07566957 0.07202445
0.077697314 0.067613244 -0.063326426 0.019200442 0.0530481 0.10972215 0.027460124 -0.012472266
0.048874196 -0.07531665 0.10900252 0.07548479 0.11458458 0.030889008 -0.09825365 -0.09401807
0.1071001 -0.008577538 -0.024900597 0.063157246 0.09023492 -0.03577522 -0.0091763735 0.024550349
-0.008656015 0.0902645 -0.09546051 -0.027226016 0.08289637 0.048895165 -0.09606235 0.009147323
0.06930885 0.0033506723 -0.009001041 0.06409816 0.048330955 0.03742749 0.0757693 -0.0070577655
0.015550347 -0.0560661 -0.11281134 0.03373169 0.06454697 0.04955909 -0.042084463 0.06767971
-0.086195506 -0.006453429 -0.038229607 0.07015862 -0.008776058 0.076853715 0.063933834 -0.095593445
0.007880998 0.069214694 -0.09460734 0.096836135 0.09693736 0.07864564 -0.070169225 -0.045105487
-0.047057465 -0.019756056 0.0014116915 0.09339521 -0.0048534553 -0.014735855 0.044457495 0.07464877
-0.0064748353 0.092123844 0.047019772 0.085773505 0.09554752 0.07194769 0.03257849 0.049680576
0.050437562 0.09748805 0.009620691 0.034605805 -0.06155564 0.014364918 -0.018196017 -0.022832915
0.032314572 -0.024169564 -0.031011077 -0.07023487 0.054190923 0.011688604 0.06398387 -0.044656828
0.06329557 0.030031312 -0.035276957 -0.089838184 -0.08431803 0.08666097 0.011780466 -0.005702697
-0.03544477 0.007526986 -0.08355302 0.04427957 0.02050897 0.0704856 0.012874038 -0.011368404
0.03797197 0.050600056 -0.03462421 0.07506063 0.00790837 0.02107337 -0.06350832 -0.06048026
-0.05240591 0.094099544 0.056451716 -0.016897736 0.08341214 0.063174136 -0.0022825627 0.033319306
0.026434546 -0.06316924 -0.025317462 0.0018728098 -0.011070393 -0.09437633 -0.034605324 0.098119825
-0.046130728 -0.07186764 0.06823353 -0.010477151 0.08366535 -0.020378347 0.16993594 0.08953197
0.07322915 -0.074333295 -0.03715107 -0.07726324 0.025339589 0.0598472 0.024605552 0.045175284
0.056497816 -0.029554103 0.04329573 0.03440476 0.13103259 -0.06260476 -0.029473657 0.05191516
0.096397415 -0.02061997 0.031735137 0.05830401 0.02197334 0.04476855 -0.075084254 -0.0022526928
-0.08056362 0.070134945 -0.05270803 0.09457602 0.018220479 -0.01615576 -0.06304774 -0.035004992
-0.042356487 0.036540322 0.017503498 0.098152734 -0.08092793 -0.034092367 0.10261384 -0.04562946

hidden_layer4.bias f4 [100]
00000000: e705 c6bc b08f 21bd 3603 a33d 28fd 033c
00000010: a76a 013e e2bd 3fbd dc67 a23c 9cce ad3d
00000020: 5cd9 99bd bdb7 a43b 0f8b 81bd 6bb7 873c
00000030: ffad 963d 5086 ddbd ac18 13bd e0f5 5c3c
00000040: 74fc ac3d b114 84bd 51a7 663d eef1 8ebc
00000050: 7c7d 8a3d b7b4 5a3d 9bf3 3abd ee9e 04bb
00000060: 4745 0e3d 920a 293c 8736 6dbd 7b3d 7f3d
00000070: c679 89bc b40d 8fbd 04da 4d3d 42b4 6c3d
00000080: 8c1f afbd 7cee 9d3b 2e2e 7cb7 6ee9 8a3d
00000090: 9899 263d 493d 1e3e 6d87 51bd d9b8 ff3c
000000a0: 21be d43c 5770 8c3d f577 1c3d 5ff8 f9bc
000000b0: 7a61 383d b5ca 8b3d a92f cfbd 8971 10bd
000000c0: 7fcc b0bd 9fd5 a2bd 38de b9bd d744 1a3c
000000d0: 0f32 98bd ed0e 4dbc 16e5 71bd 7200 b83d
000000e0: 2579 053e a2b1 67bc f50e 363d b177 b53c
000000f0: e556 b63d 44e2 e3bc 1954 723d ccbe c3bc
00000100: f1fb 913d 386e de3b 0e15 893d 46d3 53bd
00000110: 15d0 053d 130a 65bd 0bbc d03c cacc 8d3d
00000120: d36f 6abd 3f9d 57bb a88d 2ebd 7dee 83bc
00000130: bd2f 6a3d ac11 dfbd 046f 193d fb94 23bb
00000140: 84ba 75bd cb58 56bd 7960 9f3d 36ba db3c
00000150: 0f74 503d 49c5 c73d 2f31 b63d ac85 acbd
00000160: 0c70 fd3b c72c 0b3c 5f68 ab3d c357 b5bc
00000170: 1481 933d 63c9 17bd 3720 903d 19f8 1b3d
00000180: 01a2 8cbd 1bfe 433d 5c21 503c ef6a 6b3d
-0.024172736 -0.03944367 0.07959597 0.008055963 0.12638341 -0.046811946 0.019824915 0.08486673
-0.07512161 0.005026786 -0.063253514 0.016566953 0.07357406 -0.10816634 -0.0359122 0.013486356
0.08446589 -0.06449259 0.05631191 -0.017449345 0.067622155 0.053395 -0.045642477 -0.002023633
0.034734037 0.010317462 -0.05791333 0.06231449 -0.016781699 -0.069850355 0.050256744 0.057789095
-0.08550939 0.0048196893 -1.50311225e-05 0.067828044 0.040673822 0.15453066 -0.051154543 0.031216072
0.025969567 0.068573646 0.038200337 -0.03051394 0.045014836 0.06825773 -0.10116512 -0.035264526
-0.086327545 -0.07950901 -0.09075588 0.009415827 -0.07431423 -0.012515766 -0.059056364 0.0898446
0.13034494 -0.014141472 0.044447858 0.0221518 0.089032926 -0.027817853 0.059162233 -0.02389469
0.07128132 0.0067880414 0.06693469 -0.051715158 0.032669146 -0.05591781 0.02548029 0.06923826
-0.05723555 -0.0032900122 -0.042615563 -0.016104931 0.057174433 -0.108920425 0.03745939 -0.0024960625
-0.05999233 -0.052330773 0.077820726 0.02682219 0.050891932 0.09754426 0.088961 -0.084239334
0.0077343043 0.0084945625 0.083695166 -0.022136575 0.07202354 -0.03705729 0.070373945 0.0380784
-0.06866837 0.047849756 0.012703266 0.057475027

output_layer.weight f4 [1, 100]
00000000: 3e1c 893e 8abc 8abd 1b82 793e 5e1c d2bc
00000010: d513 193f 96f4 bb3d 73c6 003d 74c5 59bd
00000020: e7c3 8c3d 8612 cb3c 461c 853d b7b8 1fbd
00000030: d4e0 cebc c9a4 e3bd f9d7 573c e9fd 99bd
00000040: 19a7 d13b 285a b4bd f78e b2bc df17 cabd
00000050: 6388 a63d 8f81 6fbd 02c1 44bd 4ace 813c
00000060: 630b 3bbd 81d0 a0bc 88a2 973d 67dd c3bd
00000070: 109f 543d 0af1 c13c 7ab0 de3d 3d08 18bc
00000080: 12ba 3f3e 2b6a acbd 282f c7bd 010c b23e
00000090: 54c0 9f3e 71ac 7b3f 4396 293e 28bf 4d3e
000000a0: 68fb bbbc bf62 833d 3563 d93d f668 453d
000000b0: a33c 7b3c 1b2b 5a3f ee58 59bd 676b 86bd
000000c0: 85ad e83d 745f bd3c ead6 ed3d cce6 a03d
000000d0: 0281 bebd 911f 98bc 3c0c 383b 1b45 de3e
000000e0: 8b83 623f 000c 81bc ec74 31bd 2b63 a2bd
000000f0: ecbc 8b3e 42ce f33c ed60 51bd 4a70 593e
00000100: 9427 a53e 097b 9e3d fdc0 093f da80 1ebd
00000110: 39ea 16bb 3763 90bd ba86 f83e a302 0c3d
00000120: 1569 583e 1a97 e63d da37 853d ab0c a23b
00000130: f107 a73d 14bd dfbd f3bf 1c3e 43a1 38bd
00000140: fd03 01bd 14b8 803d f43f d23d 8705 bc3d
00000150: 2dc0 7a3e 810b 8e3d 6821 0c3e 621e 453d
00000160: c9f2 803d 7900 a13d d78b e63d 9b67 dfbd
00000170: 9db6 8dbd 6190 ab3e 97b4 ffbc ff9d f93d
00000180: 17bd debd 63b6 8e3e d724 c53d 0de9 393c
0.2677936 -0.06774242 0.24366038 -0.025648292 0.59795886 0.091775104 0.031439256 -0.05316682
0.06873303 0.024789106 0.06499533 -0.038994517 -0.02525369 -0.11115415 0.0131740505 -0.07519133
0.0063980934 -0.088062584 -0.021796687 -0.09867834 0.081314825 -0.058473166 -0.04803563 0.015845437
-0.045665156 -0.019630672 0.07404047 -0.095637135 0.051909506 0.023674507 0.10873504 -0.009279308
0.18723324 -0.084186874 -0.09725791 0.34774783 0.31201422 0.9831 0.16561227 0.20092452
-0.022947028 0.06415319 0.10614625 0.0481958 0.015334281 0.85222024 -0.053063326 -0.06563454
0.11361221 0.023116805 0.11613257 0.07856521 -0.0930195 -0.01856974 0.0028083464 0.43412098
0.8848197 -0.015752792 -0.043324396 -0.07929071 0.27292573 0.029761437 -0.051117826 0.21234241
0.32256758 0.07738311 0.538101 -0.0386971 -0.0023027791 -0.07050174 0.48540288 0.034182202
0.21133836 0.11259289 0.065047935 0.004945358 0.081558116 -0.10924736 0.15307598 -0.045075666
-0.031497944 0.0628511 0.10266104 0.09180742 0.24487372 0.06935788 0.13684618 0.04812468
0.062963076 0.07861418 0.11257141 -0.10908433 -0.06919596 0.3350859 -0.031214042 0.121883385
-0.1087591 0.27873525 0.09626167 0.011347068
